Sleep_Disorder/test_work/models/customFFN.pth (torch, 79633 bytes, 30 tensors)

weight f4 [18, 6]
00000000: 1db7 5dbe f1fc ef3e 765b 69be 276d 7ebe
00000010: b335 5cbd 4020 7e3e 4764 dd3b eb65 963e
00000020: 7992 83bc e6fe febe ac32 01be 9231 f3bd
00000030: c583 f0be c07f c0bd 6c8f e63e 58a1 c3be
00000040: 9ef8 59be 6b79 27bd f277 56be c010 9bbd
00000050: f734 af3e 8f12 13bf 07c1 a2bd 775d 57bd
00000060: 73b1 a73e 9b5d 9e3e 52c8 cbbe d3e4 363f
00000070: e7ec 2c3e 89e6 aebe c7b1 d4be 5aa0 8c3e
00000080: 78a0 f6bd 45f5 f5bb 0473 89be 5a7c ca3e
00000090: fa9c da3e 469b 1e3e 8ae6 1b3c 15b0 293f
000000a0: 24b4 ca3d 6eaf a3be e2ad d3bd 4259 193d
000000b0: f801 98be 761e d83d c2c6 2ebc 3282 bd3e
000000c0: ae2b f53c d808 b73e 45b2 a0bd 84e3 2ebf
000000d0: aff4 0fbe 0286 f73d 1dc9 883e 2f2c 69be
000000e0: bb0e 743d 6e33 3a3e b7d9 943e 1a8c 7c3e
000000f0: 0900 ddbe 8017 9f3e c0e7 30bc 6763 f6be
00000100: eb94 acbe 1a0d 43bd 791d 97be b6eb 333e
00000110: 2435 85bd 1182 febe 33eb 31be 858b 013e
00000120: 6c07 97be 3588 5b3d 02fc 9e3d 9c0d f1be
00000130: 335f 17be 7992 ee3e 8674 b3be b58b a73d
00000140: 7947 573e 6760 9bbe db82 2bbe 21fe da3a
00000150: de50 073e d551 ab3e 19b2 a8be 156e 10bf
00000160: a1b5 20bd 1896 69bd 9cfd 7fbd e132 f43e
00000170: 657f c1be 303a 17bf 8529 c4bd 9764 703e
00000180: 5b5a 453e fcf9 ccbe 7fb7 8b3c f4db bf3e
00000190: 58a2 15be 4b3f 913d 7e5f 273d eb74 7d3d
000001a0: b4c5 4dbd bcbb 14bf f0e5 b4bd 40e6 693e
-0.21651883 0.46872666 -0.22788796 -0.24846326 -0.05376215 0.2481699 0.0067563388 0.29374632
-0.016061055 -0.49803847 -0.12616986 -0.11874689 -0.46975532 -0.093993664 0.45031297 -0.38209033
-0.21286246 -0.040887278 -0.20944193 -0.07571554 0.34220096 -0.57450193 -0.07946973 -0.05257937
0.3275257 0.3093079 -0.3980127 0.7144291 0.16887246 -0.3416026 -0.41541883 0.2746609
-0.12042326 -0.007506045 -0.26845562 0.39547998 0.4269789 0.1548892 0.009515414 0.66284305
0.0989764 -0.3196978 -0.103359 0.03743864 -0.29689002 0.10552685 -0.010667505 0.37013394
0.029928055 0.35748935 -0.07846502 -0.6831591 -0.14058183 0.12086107 0.26715937 -0.22770761
0.05958436 0.18183681 0.29072353 0.2466282 -0.4316409 0.31072617 -0.010797441 -0.48122713
-0.33707365 -0.047619916 -0.29514673 0.17570385 -0.065042764 -0.49708608 -0.17374878 0.12650879
-0.2949785 0.053596694 0.077629104 -0.47080696 -0.1478241 0.46596125 -0.35049838 0.08180944
0.21023358 -0.30346987 -0.16749136 0.0016707816 0.13214442 0.3346087 -0.32948378 -0.5641797
-0.039235715 -0.057027906 -0.06249772 0.47695068 -0.37792507 -0.5907316 -0.09578232 0.23475872
0.19272749 -0.40034473 0.017055271 0.37472498 -0.1461271 0.0709215 0.040862553 0.06187908
-0.050237373 -0.5809896 -0.088329196 0.2284174

bias f4 [18]
00000000: 43c7 30bd f6c9 743e 78f0 933e b435 6d3e
00000010: a209 85be bee1 88be e44e e03d 21d0 863c
00000020: d757 bd3e 9131 a3be d282 1c3e 2870 663d
00000030: bf9a c93e 640d 6d3e c8f5 9fbd 8305 883d
00000040: c953 913c a761 813e
-0.04315878 0.23905167 0.288944 0.23165017 -0.25983912 -0.26734728 0.10952547 0.016456665
0.3698108 -0.31873754 0.15284279 0.056259304 0.39375874 0.2314964 -0.07810551 0.06641676
0.017740147 0.25269815

weight f4 [36, 18]
00000000: 354e cbbd a1a7 55bd ac88 4c3d cd8f d93e
00000010: d236 77bc f588 da3d d5b7 2f3d 81d9 3dbc
00000020: acd3 763e 4e12 d0bd b018 a73d ad8e 00be
00000030: ab26 aa3c 5890 8f3e 4b4d 993e caf3 dfbd
00000040: 48f3 16be 240d 883e 57cc 503e c161 8f3d
00000050: bffc e53d 11ea 6c3e 1b4b 8cbe 2c19 5f3d
00000060: 5b75 febd 6002 033d a4a2 9ebd 1f07 c6bd
00000070: a88d 8a3e e03e 343e 7c0b 0a3e febf 2c3e
00000080: fbc9 4c3d e48b f73d 5bcc b03b 142f 00bd
00000090: 5a6b 2abc 1478 f73d 60c5 3c3e 167a 3b3e
000000a0: a085 22be 2b65 953e 97f0 94bd 0c98 763d
000000b0: 1e31 1c3e d71a b5bd 0189 033e d549 8b3e
000000c0: 8d26 abbd 8740 86be d6f0 5e3e d32c 203e
000000d0: 0f86 26be 8583 f53d 69fe 0e3e 00bd 563e
000000e0: 5bfd c5bc 8bd8 1c3e c5b9 13be 3b07 6a3d
000000f0: 665e c7ba 12b2 e13c 4300 d53d c6fd c2bd
00000100: 8c4c 153e 2286 74bc e9e8 083d 876e 4c3e
00000110: 7b36 c73d 1d0c 6a3e 45f5 9fbe 7f74 3bbc
00000120: 6a5c a1bd 8e35 3ebe 333f 0a3e cb50 3dbe
00000130: 2944 59be e869 fa3d aefe 12be 9c33 863d
00000140: a313 593e fdcc 44bd a95f 393e 2c1d 603d
00000150: c883 0abd 4f95 973e 4ef5 8bbd 6d69 2a3d
00000160: 8228 4bbe d0ec aeba 8118 4b3b 264b 123d
00000170: 8df7 e13d e59f 9c3e fc12 d3bd d883 9e3d
00000180: 10e5 10bd 5d3c f23d 87b1 9f3d 02a3 7bbd
00000190: 3d59 efbd 0360 043e 5a9f 38be 0be5 6fbe
000001a0: 143b fbbd d3e3 d3ba 41db a3be b7bb 263e
000001b0: 2666 6dbc d730 c73d 4589 aebc 7a2d 2a3e
000001c0: 547d dcbd dad1 cb3e 9905 38bd aca0 36be
000001d0: 254a 0fbe deed 88be bdd4 37bc 6c5d a53d
000001e0: b007 bc3c 7600 203e 8b26 2a3c 98d2 7c3e
000001f0: e141 6bbe 54b0 403e dc73 893e b59a 983e
00000200: d817 233d 994d 4fbe 8d94 97bc a843 8c3e
00000210: 75bb 3ebd 3355 dcbd e9ae f3bc 931e bebd
00000220: fa32 0b3e 8b66 0bbe 575e 17be 6ce1 1a3d
00000230: 1794 ff3d b2c5 903e 269f 4abe 835a 243e
00000240: cc68 903e 6ff3 f23d 844b 143d a981 8abe
00000250: df68 abbd 2542 953e a785 4b3a a446 cbbc
00000260: afd8 923e 493d a1bd 828c 4abe 567f 833d
00000270: 348d 333d 7c75 3abe ced3 193e 42a4 4f3e
00000280: 358e 57be bc97 ef3d 60fe 173e f352 67bd
00000290: c174 473e 2d98 573e beb1 b8bd 5250 a83e
000002a0: f7e5 51bd e84c 5ebc 1e50 30be 7e3b 1bbd
000002b0: c651 223e 825c de3d 0d60 fc3d a79e ee3d
000002c0: bccf 6e3e 6002 6d3e fd27 00be a6bf 373e
000002d0: 8372 73be 1f53 9cbe de9e 2fbe 0f06 2bbe
000002e0: 9934 b53e ebf6 a4be cb5b 13be 9242 8e3e
000002f0: 7bf9 75be c04e 253e 677b abbd 4c9c aabe
00000300: a1d4 1cbe 80a5 48bd d7b3 aebd 175d 76be
00000310: 4e70 2e3e 8f75 28bd 32ad 39be a90a 66be
00000320: 7c5d bcbd d120 2ebe 9109 983e 50b1 8ebb
00000330: 9022 113e 5256 d33d 1b54 64be 118f 033e
00000340: 98d4 81be fe3c 24be d625 f5bd 5695 19be
00000350: 2abd 69bd 8c3c b6be 5871 1d3e b21c 88be
00000360: 36b1 563e 9553 9ebb fe74 093e eecc aebe
00000370: 7241 6cbd 4ef6 cc3c 9d6a 8fbc 9797 e93d
00000380: 02d8 48be 3f3c 1fbd fedc 1c3e 26c8 e53d
00000390: 3817 d1bd 69bd b6bd 3360 963e 998e 523e
000003a0: c5ff 17bd f59d 2b3e 02cc 0dbd ca97 aab9
000003b0: 8142 193d 4029 503e e742 52be 8ba8 a53e
000003c0: ef31 a4bd 2827 30bd 9dec e03d fb21 58bc
000003d0: 538c 3cbe f997 f83d 573c 013e 7d65 0a3e
000003e0: e02e 763e d0d8 533e 4d7a c7bd 9137 6b3e
000003f0: 7955 83be 119c 87bd 87a9 74bc 8622 3bbc
-0.09927026 -0.052161817 0.049935028 0.42492524 -0.015088754 0.10670654 0.042899925 -0.0115875015
0.24104184 -0.10159741 0.08159006 -0.12554426 0.020770391 0.28039813 0.29941782 -0.10935171
-0.14741242 0.26572526 0.2039045 0.07001067 0.11229848 0.23136164 -0.2740105 0.054467365
-0.124247275 0.031984687 -0.07745865 -0.09669327 0.270612 0.1760211 0.13480943 0.16870114
0.04999731 0.12087229 0.005395455 -0.031294897 -0.010401571 0.1208345 0.18434668 0.18308291
-0.15871286 0.29178748 -0.07272451 0.060203597 0.15253112 -0.0884301 0.12845232 0.27204767
-0.08356962 -0.26221105 0.21771559 0.15642099 -0.16262077 0.11987976 0.13964237 0.20970535
-0.02416866 0.1531698 -0.14426334 0.0571358 -0.0015210628 0.02755073 0.104004405 -0.0952106
0.14579982 -0.014924558 0.033425245 0.19964038 0.09727188 0.22856183 -0.31241813 -0.011441349
-0.07878955 -0.18575117 0.13500671 -0.18487851 -0.21217407 0.12227231 -0.14354965 0.065528125
0.21198897 -0.048047055 0.18102898 0.05471532 -0.033817083 0.296061 -0.068338975 0.041604448
-0.19839671 -0.0013345722 0.0030989947 0.0357162 0.11033545 0.3059074 -0.10306355 0.07739991
-0.0353747 0.1182792 0.077975325 -0.061434753 -0.11686943 0.1292725 -0.18029538 -0.23427217
-0.12267128 -0.0016165919 -0.32003215 0.16282545 -0.014489686 0.09726112 -0.02130569 0.1661891
-0.10766092 0.39808542 -0.044927213 -0.17834729 -0.13993128 -0.26743978 -0.011220154 0.080744594
0.022952884 0.15625176 0.010385166 0.2468971 -0.2297435 0.18817264 0.26846206 0.29805532
0.03981766 -0.20244445 -0.018503452 0.27395368 -0.04656549 -0.10758438 -0.02974649 -0.09283175
0.13593665 -0.13613336 -0.14782082 0.037812635 0.12479418 0.2827583 -0.19787273 0.16050152
0.28204954 0.118628375 0.03620483 -0.27052048 -0.08369612 0.29152027 0.0007763751 -0.024813958
0.2868094 -0.07873017 -0.19780162 0.06420772 0.043835834 -0.18208879 0.15022203 0.20277503
-0.21050341 0.11698863 0.1484313 -0.05647559 0.19478132 0.21054144 -0.09018277 0.3287378
-0.051244702 -0.013568141 -0.17218062 -0.037898533 0.15851507 0.10857488 0.12323008 0.11651354
0.23321432 0.23145437 -0.12515254 0.17944202 -0.23774152 -0.30532166 -0.17150447 -0.1670153
0.3539169 -0.32219633 -0.14390485 0.27785164 -0.2402095 0.16143322 -0.083731465 -0.3332237
-0.15315486 -0.048985958 -0.085303955 -0.24058948 0.17035028 -0.041127738 -0.18132475 -0.22465004
-0.09197518 -0.17004706 0.296948 -0.0043546334 0.14173341 0.10319199 -0.22297709 0.12847544
-0.2535751 -0.16038892 -0.11970107 -0.14998373 -0.057065167 -0.3559307 0.15375268 -0.26584393
0.20966038 -0.004831741 0.13423535 -0.34140724 -0.0576796 0.025019791 -0.017506892 0.114058666
-0.1961365 -0.038875815 0.15318677 0.11219816 -0.10209507 -0.08922846 0.2937027 0.20562209
-0.037109155 0.16759475 -0.034618385 -0.00032538018 0.03741694 0.20328236 -0.20533334 0.3235515
-0.080173366 -0.043006092 0.109826304 -0.013191695 -0.18412904 0.121383615 0.12620674 0.13515277
0.24041319 0.20688176 -0.09740124 0.22970416 -0.25651148 -0.06621564 -0.014932997 -0.011421805

bias f4 [36]
00000000: 1ea0 07bd 6565 9fbb b6df b0ba c397 2f3a
00000010: 18fe 09bd adb5 f83c 5f11 e93d c2a7 9fb9
00000020: c4b6 f73b f08a 1a3c 5ba5 8a3d 11d3 b63d
00000030: 690e 09bd 67a5 643c 6acb 13bd f618 d13d
00000040: 7e47 903d aa2e 8bba 0b61 a2bc 3bb0 52bc
00000050: e39e 3dbc 25f8 173d dbf1 0dbc 46ca 53be
00000060: 1a1e ceba 6836 95bd dc63 b53c ebe5 3fbe
00000070: 6bd0 313c ace3 57b9 6de8 2b39 958b 82b9
00000080: 2afc ccbd 9faf 8a3b 86eb 22bc e86f 4c3c
-0.033111684 -0.004864382 -0.0013494405 0.00066983345 -0.03368959 0.030360067 0.113802664 -0.00030451833
0.007559629 0.009432539 0.0676982 0.089269765 -0.03346101 0.013955451 -0.036082663 0.10209839
0.07044886 -0.0010618765 -0.019821664 -0.012859399 -0.011573526 0.037101883 -0.00866362 -0.2068263
-0.0015725524 -0.07285768 0.022142343 -0.1874005 0.010852913 -0.00020588812 0.00016394416 -0.0002489953
-0.10009034 0.0042323614 -0.0099438485 0.012477852

weight f4 [18, 36]
00000000: 894f b53d f1a1 033c 99b7 663e fe7d 343b
00000010: 4879 ac3d e918 e83d a9e8 e8bc 4987 b63d
00000020: 78f1 6f3e 06a1 a63d 5618 f9bd 010c e03b
00000030: 3df6 9d3e 3fb5 d9ba 7cde 82be 7e00 8dbd
00000040: a88b 91bc 4569 3fbd a141 2a3e cfc1 c53d
00000050: 01fb 183e bbbb bcbd 0d90 143e 7443 583d
00000060: e0b0 253e f3c9 26bd 4034 223e b4bf 15bd
00000070: c7b5 213e 536e 513d 3a31 093d 10ee a13d
00000080: d436 05bd bc93 c1bc d609 ca3c 18e0 2a3e
00000090: 3160 dc3d 1a30 453e 60c0 d43d 378e 81bd
000000a0: 057e cc3d 6d68 9b3d 3b50 a63d 5c13 fa3c
000000b0: cab0 9d3d c192 a53c 662a debd 3899 ceba
000000c0: 98fa 67bc 26f7 5f3e eb95 76bc a6dd 4abe
000000d0: 1a3d 0abd d880 123e 15bb 143d 5579 5b3e
000000e0: 06b7 033e fb52 92bd 93d7 803c 111d b9bb
000000f0: a71d e83d 29ba 76bd cd43 933d 3d78 07bd
00000100: d07b da3d e6b5 ffbb 30ef cb3d 28bf bb3d
00000110: 7b3c 9cbc 0709 813c cbdd 0f3e 5f92 61bc
00000120: 5db5 7fbe afa5 f2bd 0642 1fbe 5018 49be
00000130: e236 52be 61d1 b6bc 1891 ffbc 4bb5 78be
00000140: 9ea9 6bbe a55e eabd 3f28 3a3d 99a0 883d
00000150: 1b47 82bd a506 59be 5391 193e a28b ce3d
00000160: 1067 883c 323e 06be e9fe a3bd 324c c0bd
00000170: b097 31bd 614b a33d 4ea0 5ebe 88f2 d0bd
00000180: 73dc 5dbe a2da 2a3e 7cda fdbd 70b1 743d
00000190: 5e6e debb 9cf6 e3bd 623d 0dbe 252b 0abe
000001a0: f7f4 873d 35ef 6dbe 19a1 39be ff1a a8be
000001b0: d928 7dbe e507 83be a3b2 a8bd 80ba 29be
000001c0: 779e b7bd 0531 3b3d ea5b 983c 8bfd 62be
000001d0: 8102 ffbd ba11 8dbe f50f 3c3d 6209 3c3d
000001e0: 4dad c4bd 27a6 f8bd 344e a43e 1752 893d
000001f0: 7c7b 843d 0a1f 45bd d76b 0fbe 53a2 babb
00000200: 656e 62bd f500 813e 666a c5be 02d7 cb3d
00000210: b535 75be 5c23 313e 3f5a 72be d9ef 8c3d
00000220: ec5e 87be a7c5 e9bd cfdf 93bd cd54 50be
00000230: 53a0 ff3d 6702 a6be 751d 123c 5a90 c5bd
00000240: 9475 ba3d d3b0 df3d 65ff 1b3e 65db 613d
00000250: 7d4a 3e3d 6388 b1bd af9c 57bc fab0 e43d
00000260: f5d8 883e 8df5 373e 6ace f1bd 6250 3ebe
00000270: b641 853e a94e 653d f072 bebd f4ca acbd
00000280: 1c90 9abd 2205 f33d fb8c 34bb 2036 f13d
00000290: 83ce 263e 4719 93be 9a1d 7a3c 7a15 003e
000002a0: d698 983d 5588 7fbd 5edb 753d 9fa6 3ebd
000002b0: 1dfb 3c3e c0c5 74bb d071 fb3d 2816 ea3d
000002c0: cbac 1bbe bc7b 20bd 1156 373e 53e5 1fbd
000002d0: c1ab 29be 5ed2 bbbc 58fd 6bbe a219 89bd
000002e0: 5852 2bbd e010 b2bb e2e1 eabd 17fa 3dbe
000002f0: a20d 38be c865 8fbe 863b 703e 03fc cd3d
00000300: 265f 9e3c e046 d9bc 8b96 eb3d cc74 1e3e
00000310: 8837 bd3d 5bc8 503d 8b07 a9bd 284f d8bd
00000320: f19f 8b3d 230f 153e 2a37 cb3c 40c7 0a3d
00000330: 7c00 53be 4f86 753e 1b12 f9bd 88b6 8f3c
00000340: 8b35 50bd 5724 4cbe 71f6 22be f901 10be
00000350: 7c7f 4b3e e506 10be c537 05be c90a 8dbe
00000360: 08e7 10be f4f5 00be 7d27 5fbe c993 38be
00000370: 49f9 8bbc 466b 283c 3e0f 12be 8a6e 8fbe
00000380: a409 4abe 7d6c 9bbe b61f 413e 0660 243d
00000390: 6030 97be 29ba 16be e98f d63d 23db ff3d
000003a0: 4eef 2f3e fec6 dabd 1a8f 55be ea70 33bd
000003b0: f5d5 e7bd 37db 913e 8bf0 3bbe 842f 6f3d
000003c0: 45e6 28be b0d0 323e 8e77 3fbe af80 253e
000003d0: 7bf0 cbbc b3d0 30be 72b0 eebb 8efc 80be
000003e0: d375 1f3e c340 51be 9169 ecbd df56 26be
000003f0: f5ab 1cbd f900 17be f0a0 8cbe a07c 00be
0.08853061 0.008034215 0.22530974 0.0027540918 0.0842157 0.11332876 -0.028431254 0.08912522
0.23431957 0.081361815 -0.12162845 0.0068373685 0.30851927 -0.0016609802 -0.25560367 -0.068848595
-0.017766789 -0.046731252 0.16626598 0.09656107 0.149395 -0.09215494 0.14508076 0.052798703
0.16180754 -0.040719938 0.15840244 -0.036559775 0.15791999 0.051130604 0.03349421 0.07906735
-0.03252299 -0.023630016 0.024662893 0.16687047 0.107605346 0.1925663 0.10388255 -0.063259535
0.09984974 0.07588277 0.081207715 0.03052681 0.076997355 0.02021158 -0.108479306 -0.0015762215
-0.014158867 0.21871623 -0.015050392 -0.19811115 -0.033749677 0.14306962 0.036311228 0.21433003
0.12862787 -0.071447335 0.015727794 -0.005649217 0.11333781 -0.06023613 0.07190666 -0.033073653
0.106681466 -0.0078036664 0.09957731 0.091673195 -0.019071808 0.015751375 0.14049451 -0.013767808
-0.24971528 -0.11848008 -0.1555253 -0.1963818 -0.20528749 -0.022316637 -0.031197116 -0.24287908
-0.23013923 -0.11443833 0.045448538 0.066712566 -0.063612185 -0.21193941 0.14996843 0.100852266
0.016650707 -0.13109663 -0.08007605 -0.09389533 -0.04335755 0.07973362 -0.21740839 -0.10202509
-0.21666126 0.16684964 -0.12395188 0.05973953 -0.006788059 -0.111310214 -0.13792947 -0.13493021
0.0663852 -0.23235781 -0.1812786 -0.32833096 -0.24722613 -0.2559196 -0.08237197 -0.1657505
-0.08965772 0.045701046 0.018598516 -0.22167031 -0.124516495 -0.27552587 0.045913655 0.045907386
-0.09603367 -0.12141066 0.32090914 0.067051105 0.06468865 -0.048125304 -0.14005981 -0.00569562
-0.05528106 0.25196043 -0.38557738 0.09953119 -0.23946269 0.17298645 -0.23667239 0.06881685
-0.26439607 -0.11414652 -0.072204225 -0.20344849 0.12481751 -0.32423708 0.008918156 -0.096466735
0.091044575 0.109223984 0.15234144 0.05514087 0.046457756 -0.08668592 -0.013159915 0.11166568
0.26728025 0.17964764 -0.118069485 -0.18585351 0.26026696 0.05598322 -0.09299266 -0.08437148
-0.07547018 0.118662134 -0.0027549851 0.11777902 0.16289715 -0.28730223 0.015265847 0.12508193
0.07451026 -0.062385876 0.060023658 -0.04654562 0.18455167 -0.0037349313 0.122775674 0.11430007
-0.15202634 -0.039180502 0.17903925 -0.03903706 -0.16569425 -0.02292746 -0.23045862 -0.06694342
-0.041826576 -0.0054341406 -0.11468865 -0.18552433 -0.1797395 -0.2800734 0.23460206 0.10057833
0.01933248 -0.026523054 0.11503323 0.15474242 0.09239107 0.050972324 -0.08253392 -0.10561973
0.06817616 0.14556555 0.024806578 0.033881426 -0.20605654 0.23977016 -0.121616565 0.017543092
-0.050832313 -0.19935738 -0.15914322 -0.14063253 0.1987285 -0.1406513 -0.13009556 -0.2754729
-0.14150631 -0.12593824 -0.21792407 -0.18025126 -0.017086642 0.010279482 -0.14263627 -0.28014022
-0.1973024 -0.30356207 0.18859753 0.040130638 -0.29529095 -0.14719452 0.104766674 0.12492969
0.17181131 -0.10682486 -0.2085537 -0.043808855 -0.11320106 0.2848756 -0.18353479 0.058394924
-0.16494091 0.1746242 -0.1869795 0.1616237 -0.024894943 -0.17267112 -0.0072842175 -0.25192684
0.1557229 -0.20434861 -0.11543573 -0.16244076 -0.03824993 -0.14746465 -0.27466536 -0.1254754

bias f4 [18]
00000000: af2c 8438 a563 653a 3d04 113e 9eb1 c43d
00000010: f0d7 853d 8355 9b3d c7b7 f23d 8458 003e
00000020: d9ec 503b e876 b73d 4ee4 b83d 8596 0e3d
00000030: 31ec dd3d 8ac7 abb8 94d9 85bb c3f1 30bb
00000040: 9d6e 163c 6115 243e
6.3025735e-05 0.0008750505 0.14161773 0.0960419 0.065353274 0.075846694 0.11851459 0.12533766
0.0031879453 0.089582264 0.09027921 0.034811515 0.108360656 -8.1910825e-05 -0.004084775 -0.002699957
0.009181646 0.1602378

weight f4 [18, 18]
00000000: 067f 9cbe e147 9cbe 1b35 cc3d 7989 633d
00000010: 4656 2fbe fd18 c83e bd35 a03e 9a61 a43d
00000020: e4ea acbe e544 943e 7fbb f4bd 1277 afbc
00000030: cb3b 683e 821b 90be 9ac8 87be 1100 89be
00000040: f7c1 8dbe a10d 8e3e dd95 9dbd f7e3 acbd
00000050: 82a2 223e f0ad d13e d954 d9bc f9d1 3a3e
00000060: b177 a13e 385c 463e 02f3 49be 1a2c 063e
00000070: c13f d3bd ab57 0ebe 93d6 a73e 46c3 2bbe
00000080: 0fbc 5ebe 2d22 6ebe 0ea3 6abe 6414 723e
00000090: a545 66bd b14c 983d 4e77 a2be 8aa0 ebbd
000000a0: 3da7 2e3d e4b6 94be 4cfd a6be f4e7 49be
000000b0: 7eb8 09bc 7f63 11be 9559 253e 3dc3 2f3e
000000c0: 1e05 abbe 79b5 873d d044 693d ba87 66bd
000000d0: a318 f93d ba33 5bbe daac 893d d85c 28bc
000000e0: 249c 1abe c4eb bcbd f5f2 fa3d 8dfb 95be
000000f0: e9af abbd 0e4c 8abd 7f21 78be 1ec7 0dbe
00000100: 748a e73d ae6f 8f3d daf9 d2bc 82c5 82bd
00000110: 4ded 9bbd 515d 2f3e 2f2d 7e3e 8a70 9abd
00000120: 4ac1 643e 16d0 4c3e 1c79 55be 0eb8 1dbe
00000130: 5060 b7bd 67f1 1abe 701a bebe 7649 91be
00000140: 71c5 4e3e da6b 10be c596 5fbd 2308 533e
00000150: 2ef1 00be 0024 0dbe 9c11 03bd c308 093e
00000160: 57a6 783e 1fad 9cbe cbef 263e 1241 1a3e
00000170: a9f4 53be f24a 67be ae09 f33d a6b7 c6bd
00000180: e27d 15be fefc 74be 409a 3d3e 2ecd 8cbe
00000190: 7e6f e13d f4b8 023d de6e 42be 8b92 f53d
000001a0: 8d72 bd3d f12e b53d 703d 46be ad8d 64bd
000001b0: a4e9 9abd a913 33bb 0505 383c c91e 53be
000001c0: 9911 8e3e 2f72 44be a7d0 60bd 7302 40be
000001d0: c874 493e 751b bcbd 5b3a febd 4c26 683e
000001e0: 203c 993c 3da0 dc3b 804a 713e a047 823e
000001f0: 734c 633e 91c8 13be 94ba c23c 6408 063e
00000200: bee5 0bbe da26 82be 72c6 a83d de2e 45bd
00000210: 678e 7fbe 1ed2 2bbe 3ea3 2a3e 4e88 f6bd
00000220: 393c 073e c1f3 28be 236f c3bd 77a8 173e
00000230: 823f 173e d651 223e 008f 6e3e 14f3 5abe
00000240: 704a 073d 44ff a53d cdde 54be 320c 44be
00000250: 8649 b3bb 1b27 14be 31ca 25be 6388 5fbe
00000260: 8a38 b4bd 5bb8 35be b0b7 293e 92d7 133e
00000270: 991f a9be 6014 393e 7065 eb3d aeee 833c
00000280: 178e bd3d da3d a1bd d72d 6cbd d96a cdbd
00000290: 14b6 1cbe bced 11be 86fd a7bd 5ef3 65bb
000002a0: 2a6c 0bbd 3b8b bbbd c510 313d b19d 71bc
000002b0: 8de7 813e 8c2d 0fbe 3154 5cbc 268c 873e
000002c0: 2ec2 51bd 92d0 12be 6cb4 c1bc 90bd 90bd
000002d0: 4ccf acbe b796 6abe bbe4 303e 40a1 443e
000002e0: 95d2 ddbd c9db 483e b933 2c3e 6606 613e
000002f0: 141e 18be f17b 873e 6f78 72be 94c7 4cbe
00000300: 134a 7f3e 0925 0abe da3f 81be 0392 61be
00000310: 4b49 47be c9c0 913e 2940 a2be 4c77 57be
00000320: ba59 9a3e f2af 463e 46c1 5dbe 23b1 9a3d
00000330: ea04 283e b5d3 313e 6f1f 06be dd71 0b3e
00000340: c0a3 38be 6116 12bd 3ec6 1e3e 4b99 98be
00000350: a8d0 28be 9036 9ebe c672 b3be f89b 733e
00000360: 7a24 a23d 07cd 04bd 9efb 45be f290 65be
00000370: 9665 ad3d 6417 51be b19b 25be cd9f 75be
00000380: 0d3f 6d3e b73f 14be b0b9 683d e7b8 9d3d
00000390: e681 2dbe 8ed8 08be aded 493e c0d3 f93c
000003a0: 997a 803c 9e1f f1bd 8000 82be a99a 6bbe
000003b0: 7f11 4a3e dcbf 8e3e 8757 45be c469 423e
000003c0: 305d 283e ddbb b03d 5992 a3be 53ce 873e
000003d0: 21e1 38be ab7d 86be bb02 c93d 5d06 91be
000003e0: b072 45be d0dd 4abe fe87 73be fdbc f43d
000003f0: 3db6 58be 115c 39be 4eb0 3c3d c131 833e
-0.3056566 -0.3052359 0.099710666 0.055551026 -0.17122754 0.39081565 0.31291 0.080264285
-0.33772957 0.28958812 -0.119498245 -0.021419082 0.22679059 -0.28145987 -0.26520234 -0.26757863
-0.27687046 0.27744773 -0.076946 -0.08441918 0.15882304 0.40953016 -0.026529716 0.1824416
0.3153663 0.19371116 -0.19721606 0.13102761 -0.103148945 -0.1390063 0.32780895 -0.1677371
-0.21751426 -0.23255225 -0.22913763 0.23640591 -0.056218762 0.07436503 -0.31731647 -0.1150523
0.04263996 -0.29045784 -0.32615125 -0.1971739 -0.008405803 -0.14198111 0.16147454 0.17164321
-0.33402342 0.0662641 0.05695039 -0.056281783 0.12162902 -0.21406451 0.06722422 -0.010276042
-0.15098625 -0.09224656 0.122533716 -0.2929348 -0.083831616 -0.067527875 -0.24231528 -0.13845488
0.11305705 0.07003723 -0.025753904 -0.06385328 -0.07613621 0.17125441 0.24821924 -0.075409964
0.22339359 0.20001253 -0.20846981 -0.15402243 -0.08953917 -0.1513115 -0.37129545 -0.2837636
0.20192505 -0.14103642 -0.054587144 0.20608573 -0.12592003 -0.13783264 -0.031999215 0.13382249
0.24282204 -0.3060083 0.16302411 0.15063885 -0.20698799 -0.22587183 0.11867081 -0.09702997
-0.14598802 -0.23924634 0.18515873 -0.2750029 0.110075936 0.031914666 -0.18987605 0.119908415
0.092503645 0.08846844 -0.19359374 -0.055799175 -0.07564095 -0.002732495 0.0112316655 -0.20617212
0.277478 -0.19184183 -0.054886486 -0.18750934 0.19673455 -0.091849245 -0.12413474 0.22670859
0.018705428 0.006732969 0.23563576 0.2544527 0.22197132 -0.14431979 0.023770608 0.13089138
-0.13661858 -0.25420266 0.082409754 -0.0481404 -0.24956666 -0.16779372 0.16663834 -0.12037717
0.13206567 -0.16499235 -0.09542682 0.14810358 0.1477032 0.1585153 0.23296738 -0.2138179
0.033029974 0.08105329 -0.20788117 -0.19145277 -0.005471411 -0.14468043 -0.16190411 -0.21829371
-0.087998465 -0.17746107 0.16573977 0.14437702 -0.3303192 0.18074179 0.11493957 0.016105022
0.09255617 -0.078731254 -0.057660904 -0.10030145 -0.15303832 -0.14250845 -0.08202653 -0.0035087685
-0.0340387 -0.091574155 0.043228883 -0.014747069 0.25371972 -0.13982219 -0.013447807 0.26474112
-0.051210575 -0.14337376 -0.023645602 -0.07067406 -0.33751905 -0.22909056 0.17274754 0.19202137
-0.10831181 0.19615091 0.16816606 0.21975097 -0.14855224 0.26461747 -0.23678754 -0.19998008
0.24930601 -0.1349069 -0.25244027 -0.22028355 -0.19461553 0.28467396 -0.31689575 -0.21041602
0.3014658 0.19403055 -0.21655759 0.075533174 0.16408125 0.17365916 -0.13097928 0.13617654
-0.18031216 -0.035665873 0.15505311 -0.29804453 -0.16485846 -0.30901003 -0.35048503 0.23789966
0.079171136 -0.03242209 -0.19334266 -0.22418573 0.084666416 -0.20419079 -0.16172673 -0.2398674
0.23168583 -0.1447743 0.05681771 0.07701283 -0.16944084 -0.13363859 0.19719572 0.030496478
0.01568346 -0.117736086 -0.25391006 -0.23008217 0.19733237 0.27880752 -0.1927167 0.18985659
0.16441798 0.08629582 -0.31947592 0.265246 -0.1805463 -0.26267752 0.09814974 -0.28325167
-0.19282031 -0.19811177 -0.23782346 0.11950109 -0.21163268 -0.18101527 0.046066575 0.25623897

bias f4 [18]
00000000: efa9 183e 67b0 823d 8eeb 643e 0929 873d
00000010: 92f9 273e 9d95 bb3d 3567 193d 6dfb d93d
00000020: 1c0e 243e ae58 2a3c 28b9 c33d 41c3 ca3d
00000030: e1e1 0d3e afcc f03d f3c3 c23d bac1 133e
00000040: 038c 333e c433 bf3d
0.14908575 0.06381302 0.22355482 0.06599624 0.16403797 0.09159396 0.03745194 0.10643659
0.16021007 0.010397119 0.095568 0.09900523 0.13855697 0.1175779 0.095100306 0.1442937
0.17533879 0.093360454

weight f4 [12, 18]
00000000: 5dd0 363e 3ee6 d43e ea2e f9bd b03f f33d
00000010: b096 04be bdd7 fb3d 8adc 64be a3e6 48be
00000020: 62d0 10be 972a 753c 8405 ea3e 964b e03e
00000030: 33a0 573d f5dd e23e d07b 833e e96e 9ebb
00000040: d1f1 eebd e6a5 39be 4888 bebe b4b8 c3be
00000050: fb38 063d b9df 933d 36cf fabd 8a15 5b3e
00000060: d60b 893c ea73 343e eb27 433e 342f 953c
00000070: 6650 91be b9ec 62be f0ab 633e c62f c3be
00000080: ed18 03bf 2d9c 88bd 0ad1 95bd 80b4 76be
00000090: d221 c0bb 8acb 76be 79cd 90bc 8c32 14bd
000000a0: 75ab a03d fc85 4a3e e5d7 343c 01da f7bd
000000b0: 7cf3 c63d c0ea 99bd 2160 37be 58f7 bebd
000000c0: bf17 7db8 95a1 05be de31 64be b298 683e
000000d0: 82bf 18be 70fd d83d cdff 72bc b4ec bf3e
000000e0: dc99 4e3c 1102 67be 9847 f73d 247a 0fbe
000000f0: 665f 4b3d a779 d4bd b887 de3c 1d74 52be
00000100: 84ed 803e 6842 643e 4c8f a93d e46a a13e
00000110: 5dd7 3f3e c6f6 9cbe 074f 72be a43b f3bc
00000120: 2036 d9bc 97bf c3bb d9be 8b3e 9119 383e
00000130: fecb 933e bdb2 843d d272 893c 1f4c 723d
00000140: 5e47 173e 668e 5a3e 34a4 c03b 9e9b 6bbe
00000150: f746 833e 3b06 bdbd 456a 1bbe eaff 8b3e
00000160: a1d0 32bd 6e7a 2e3e 4bca c4be e27f c2bc
00000170: 7bc2 6c3d d33c a53e 0498 95bd 5654 883d
00000180: 53e1 633e 8bf8 e33d 61ec 14be 20ed 123e
00000190: d148 88be b735 88be 24cb 2fbe 8d34 83be
000001a0: 268b 82be be13 50bc a2a3 3e3e 35f4 ec3d
000001b0: bc00 e7bd 26cd 83be 966e 323e 29a1 143e
000001c0: c2ff 273e 961c 193e 0596 4c3e 0e7b 273e
000001d0: d80b 31be 3ea9 843d 3ca7 18be 5943 8abe
000001e0: d944 11be c8a1 8fbe 9d4e 4ebe d421 4cbd
000001f0: 9ced 20be 56a7 9abd 8466 19be b0b0 90be
00000200: 0891 efbd 9074 883e c521 e63c 72aa f63d
00000210: d47f 213e 485b 8c3d 4dba 783e 535a 8e3e
00000220: 0fbb afbe d8ab b9be 0bf5 503e 9a40 a2be
00000230: 243e debe 321e 2b3e 8131 813e 7305 5e3e
00000240: d11d a3be 7225 abbe 4358 a63d 6293 7abc
00000250: ec29 023d 467f fcbd e011 7bbd 3b58 64be
00000260: d087 1cbe d132 543e f0e5 e1be 6e61 7bbe
00000270: bf7d 24bd d284 38be 8f2d 03bf e098 363e
00000280: cd37 2d3e 1388 e7bd 6c90 753c 0c74 e33d
00000290: 9950 c43d 6a29 153e b89c b83d 1286 6b3e
000002a0: 80ec a83c e155 ab3c a8f7 053e ff22 333d
000002b0: a18c 0abd 91d3 45bd 5fa5 7b3e 983f 6e3d
000002c0: bb1b eb3d 2bfb f4ba f2d3 15bd dbb7 06bb
000002d0: 1fcf 32bd 3f73 76bd 237a 0a3e 362b f13d
000002e0: ecda 0d3e df06 40bd f460 15be af0e 85bd
000002f0: 8357 16be 63ff 693e b345 86bc 5140 64bd
00000300: 4410 d13d ab4a fcbd 6cc9 86be eed6 2c3e
00000310: fea6 2fbe 6b31 95bd 3a46 973e db41 913e
00000320: aa3a d5bd d6eb e7bd e130 c6bd a7d9 7e3d
00000330: 3a04 f53c 2438 843d 5817 323d 914b aebd
00000340: d4de 823e 1cd1 7f3e 8109 473b 3e24 7a3e
00000350: bd8a 5d3e 640b 873e ffcd 593e ac52 40be
0.17852922 0.4158191 -0.12167151 0.11877382 -0.12948108 0.12297008 -0.22349754 -0.19619231
-0.14141992 0.0149637675 0.45707333 0.43807667 0.052643012 0.44309965 0.256804 -0.004834999
-0.116672166 -0.18129691 -0.3721335 -0.38226855 0.032769185 0.07220406 -0.122465536 0.21394935
0.016729277 0.17622343 0.19058196 0.018210985 -0.28381652 -0.22160615 0.22233558 -0.38122386
-0.5120991 -0.06670413 -0.07315262 -0.24092293 -0.0058634067 -0.24101081 -0.017676102 -0.036181018
0.07845203 0.19777673 0.011037801 -0.12102128 0.0971441 -0.07515478 -0.17907764 -0.09324521
-6.0342016e-05 -0.1304992 -0.22284648 0.22714499 -0.14916804 0.10595214 -0.0148314955 0.37485278
0.012609925 -0.22559382 0.12074202 -0.14011437 0.049651526 -0.10374766 0.027164325 -0.20552106
0.2518121 0.22290957 0.08279285 0.31526864 0.18734498 -0.30657023 -0.23662959 -0.029691525
-0.026515067 -0.005973767 0.27294043 0.17978503 0.2886657 0.06479404 0.016778383 0.059154626
0.14773318 0.21343383 0.0058789495 -0.23008582 0.2564008 -0.09229704 -0.15177257 0.27343684
-0.043655995 0.1703889 -0.38435587 -0.02374262 0.05780266 0.32272968 -0.07304385 0.06656711
0.22253923 0.1113139 -0.14543296 0.14348269 -0.26618055 -0.2660348 -0.17167336 -0.2562603
-0.25496787 -0.012700019 0.18617108 0.11570016 -0.11279437 -0.25742453 0.17424998 0.14514603
0.16406158 0.14952311 0.19979103 0.16355535 -0.17289674 0.06477593 -0.14907545 -0.27004507
-0.1418642 -0.28053117 -0.20147176 -0.04983695 -0.15715641 -0.07551448 -0.14980513 -0.28259802
-0.116975844 0.2665143 0.028092274 0.120442286 0.15771419 0.06853348 0.24289818 0.27803287
-0.34322402 -0.3626392 0.20405976 -0.31689912 -0.43406785 0.16710737 0.2523308 0.21681766
-0.31858686 -0.33427006 0.08122303 -0.015293928 0.03177826 -0.12328963 -0.061296344 -0.22299282
-0.15286183 0.2072251 -0.4412074 -0.24548885 -0.040158983 -0.18019417 -0.5124139 0.17831755
0.16915818 -0.11305251 0.014988046 0.111061186 0.09585685 0.1456658 0.09014267 0.23000363
0.020620584 0.020914974 0.13082755 0.043734547 -0.03382552 -0.04829747 0.24574803 0.058166116
0.114798985 -0.0018690577 -0.03657908 -0.0020556364 -0.043654557 -0.0601685 0.13523154 0.1177582
0.13853043 -0.046881553 -0.14587766 -0.06496941 -0.1468182 0.22851329 -0.016390657 -0.0557254
0.102081805 -0.12318929 -0.26325548 0.16878864 -0.17153546 -0.07284816 0.29545766 0.28370556
-0.1041158 -0.11324279 -0.09677292 0.06221929 0.029909242 0.064560205 0.043479294 -0.08510507
0.2556063 0.24982113 0.0030370655 0.24427888 0.21634956 0.26375878 0.21269988 -0.18781537

bias f4 [12]
00000000: 6fe0 76be 6201 c43d f18c bf3c 27ef b03d
00000010: 3068 34be 8119 243d 9c0a fd3d f195 15be
00000020: 31fa 4e3e 503c b8bd 029a 993d 2454 0d3d
-0.24109052 0.09570576 0.023382636 0.08639365 -0.1761787 0.040063385 0.12355539 -0.1460798
0.20212628 -0.08995879 0.07500078 0.03450407

weight f4 [25, 5]
00000000: a89b cdbc b99f 41bd bdca b43e 3046 9dbe
00000010: 1d6c bbbc 84c3 8dbe f4d8 d43e 4a29 cbbe
00000020: 8756 e23e e322 bbbe 1c00 9fbe f846 d43d
00000030: a095 6ebd 904f 3fbe 51e7 54be c49c c03e
00000040: f881 773d 6165 fe3d e333 bbbe c615 d63e
00000050: bcd9 49bd 9663 56be b549 8d3e f3c9 18bc
00000060: 19dc 8bbe 7db0 79be a888 283e 779e ccbe
00000070: fb85 bebe 66fe adbe 6862 3cbe cc54 3f3e
00000080: b04f 21be 6858 d4be 7005 26bd a434 09bf
00000090: 33e2 713e bc3f 043e 08c3 063e 176c 0dbf
000000a0: fd0b c93e f317 3abd e686 7b3e 1757 b9be
000000b0: ecbe a33e 651a 8d3e 40d7 663e 8480 583c
000000c0: 5d35 2bbc 948d fabd 73e6 833e c439 9dbe
000000d0: 57ee 13be 2eaa 3c3e 9c39 e9be af8f f8be
000000e0: 93ff bcbe 6ca8 7a3e bb7d d0bd de2b 663d
000000f0: f893 c7be bbb2 a8bc 2a0a 873e 5ef6 713e
00000100: 8b36 01bf 18e8 5b3e 1f98 693d 4446 bc3e
00000110: e81c dbbe 8025 c9bd 007c ebbe d205 3d3e
00000120: 3243 373d 3b0e 673e f325 25bd 3891 513e
00000130: 2021 49be e669 06be f1ba c7be 60e2 913e
00000140: a90c fbbc 986d aabe 5761 34be 8d50 663e
00000150: bedb 2abe ddbf c4bd 1e8d 80be c9e7 a4bd
00000160: 0f3c 3b3e c00f 913e b8f4 f93d 3697 9cbe
00000170: 504a c5bc 40a7 77be a6a0 46be 4131 8dbe
00000180: 3a73 0dbe 3cad 693e fe81 403e 2f16 1dbf
00000190: 0d79 1b3f d646 29be 894c 273e b96b 49be
000001a0: 0073 42be 6920 c13e 2955 e5bd ae3d f2bd
000001b0: 0520 723e 948b 213e 2b7d 6cbe 318a ccbe
000001c0: 622f 913e 30bd 433e 31f1 10bf 18a7 923d
000001d0: eb04 e5be fe8c 773e 21ed 82bd 28f6 0abe
000001e0: 87b5 22bd 2d69 7d3e b4a7 fabd 2e31 f0bd
000001f0: 68ed df3e
-0.025098637 -0.047271464 0.35310927 -0.3071761 -0.0228787 -0.2768823 0.41571772 -0.3967994
0.4420664 -0.36550054 -0.3105477 0.10365099 -0.058248162 -0.18682694 -0.20791365 0.37619603
0.060426682 0.1242168 -0.36563024 0.41813487 -0.049279913 -0.20936427 0.27595297 -0.009325492
-0.2731636 -0.24383731 0.1645838 -0.3996465 -0.37211594 -0.33983153 -0.18396914 0.18684691
-0.15753055 -0.414737 -0.04053253 -0.5359595 0.23621444 0.12914938 0.13160336 -0.55243057
0.3926696 -0.045432996 0.24563178 -0.36199257 0.319816 0.275592 0.22543049 0.013214234
-0.0104497345 -0.12234035 0.25761756 -0.30708134 -0.14446388 0.18424293 -0.45551765 -0.48547122
-0.36913738 0.2447831 -0.10180231 0.05619418 -0.3898008 -0.020593038 0.26374942 0.23629138
-0.5047385 0.21475255 0.05702984 0.36772358 -0.4279549 -0.09821606 -0.45993042 0.18459252
0.044741817 0.22564022 -0.040319394 0.20465553 -0.19641542 -0.13126335 -0.39009812 0.28493023
-0.030645685 -0.33286738 -0.17615257 0.22491665 -0.16685387 -0.096069075 -0.25107664 -0.08052022
0.1828463 0.2833233 0.122048795 -0.30584115 -0.024083287 -0.24184895 -0.1939722 -0.2757664
-0.13813487 0.2281999 0.18799588 -0.61361974 0.60731584 -0.16530928 0.1633779 -0.19669999
-0.18989182 0.3772004 -0.11197884 -0.11828171 0.23645027 0.15775901 -0.23094623 -0.39949182
0.28356463 0.19115138 -0.5661803 0.07160777 -0.44730315 0.24174878 -0.06392885 -0.13570464
-0.0397239 0.24747153 -0.12239018 -0.1172813 0.43735814

bias f4 [25]
00000000: 56f3 40be f260 c73e dab1 863e f00a b63d
00000010: b72b 34bd b29d 44be c045 073d 4e21 b93d
00000020: 2061 aabd 5de9 ffbe 35ce 5fbe e2b6 b4bb
00000030: 6e4c 8abe 72eb e13d 0486 a83d 4085 463e
00000040: 4631 e5be 4952 a13b 20ea b1be 7723 e6bd
00000050: fcd0 023f 1962 493d 48d2 7c3e 39a7 7b3e
00000060: bf54 a63e
-0.18842825 0.3894115 0.26307565 0.08888805 -0.043987002 -0.19200781 0.033025503 0.090395555
-0.083193064 -0.4998273 -0.21856005 -0.0055149654 -0.27011436 0.11031236 0.082286865 0.19386768
-0.44764155 0.0049231392 -0.34748936 -0.11237233 0.51100135 0.04916582 0.24689591 0.24575509
0.3248653

weight f4 [50, 25]
00000000: 5f28 b93d fb2d 293b 1462 77bd b535 883c
00000010: a26d 41bc 191a 1d3e 339f 33be 9300 ad3c
00000020: 7fcd debd 6be7 3c3d 5a9b 02bd b1c2 36be
00000030: bfbd 93bd 364b 99bd 639d 093d 79e3 493e
00000040: d2b3 bf3d 5bf1 2d3d ba0a f5bd 229e d8bd
00000050: 79a3 c73d b871 0d3e 26c3 2b3e 245a 03be
00000060: c26b b7bd 8d13 27be c41f ffbd 9da9 09be
00000070: 19c0 bbbb e57a a33d 30f6 1c3c 03c8 203e
00000080: d9d2 623d 28fd 1cbd afba cfbd 3798 403e
00000090: 8584 163e ab43 7e3c cce6 8cbd be08 61bd
000000a0: c06b 08bd 2a28 bc3d b442 12be 5f4f 2e3e
000000b0: 9f0e 30be 6b34 3dbe af2d 1dbe 2086 cabd
000000c0: b006 133d 7969 77be 1748 a43d 0ee4 b5bd
000000d0: 00a2 273a ae9d 9e3d ce46 3c3e cccd 76bd
000000e0: a8ee 0f3d cf19 80be 5cf9 87bb c8aa fb3d
000000f0: dad7 503e 8dbb 2f3d 4371 9e3c 9606 5dbe
00000100: 2eef 03be ca8b a6bd 61cf 2c3c 41bc 4d3d
00000110: 4080 7dbd 67b8 9ebd be63 a1bd 8dfe 013e
00000120: df6d 7d3d f266 2e3d ac08 06be 0776 ee3d
00000130: 6000 cabd 0a6f 06be d62b 4c3c b118 fb3d
00000140: c685 f33d b837 223d e429 90bd 116e c4bc
00000150: 9aca 513d fce3 0f3e b90a 1fbe 924e 9cbd
00000160: e8d7 da3d eff1 00be bb0a 043e 4112 edbd
00000170: f190 21be aefb e93d 7762 a73d be1c bc3d
00000180: d5b1 253e 0041 22be 82a5 c2bd 53a9 333d
00000190: 9678 433c 349b 0ebe 0b65 15be b35e 32bd
000001a0: 8d6c c33d e05c 1ebe 800b e83c 87c8 c93d
000001b0: a390 be3c a698 ed3d c93d ddbd f5bb 16be
000001c0: 6358 39be 8187 47bc 193e 2d3e 8ebb d33d
000001d0: f71b eb3d d4f2 a8bd 5239 b33d 32d2 a7bd
000001e0: eee5 5c3d 0be1 343c 8568 9b3b 805e cbbd
000001f0: 3996 193e c992 04be bb15 09bd 2ae5 ca3d
00000200: e6e0 fd3d 18de 0cbd ec7c 2bbd a7e3 a5bd
00000210: bc9d 1d3e 176d 733e 0baf d33d 2ec2 3b3e
00000220: 182f 613c fabd ae3a 9937 4a3d fce3 0d3e
00000230: d07d debd 31f3 55be 6abe ebbd 2abb d53d
00000240: b7b0 edbd a017 d9bd f666 8ebd 48d8 31be
00000250: f09c 443d 69ea cb3d b254 8fbd 29aa 04be
00000260: 1126 443e 70f1 073c 8461 183e f493 0dbd
00000270: c05f 81bd e019 2bbe 4389 ab3d 64f1 833d
00000280: 0931 2fbe 482b 70bc 1278 5a3d 664c 7a3e
00000290: 7ff0 193c cdf1 2c3e 3510 363e 9e02 163d
000002a0: 306b b83c bcd1 75bd 0eda 98bb 30b4 463e
000002b0: 5cf2 933d bdf1 50bd dd2b 8c3e 3cc0 d5bd
000002c0: 7ce9 67be 2a8a be3d 1b0f 3fbe fe25 85bd
000002d0: ccd1 2f3d aea5 1bbe bfca 313e 4e13 e93d
000002e0: 3b5b fc3c a137 a13d 3029 cb3d f13e 7ebc
000002f0: 2469 c5bd 7273 eb3c 027a c83d fc2e d43d
00000300: ba41 dd3c b061 16be 686e 0c3e 56fd 9e3e
00000310: 55a9 81bc 82d5 3c3e b1c3 1bbd e995 19be
00000320: 8f12 30be 1358 1f3e 2a33 3cbe 3b09 2cbe
00000330: ae6b 3ebe 19a9 203e 200f 73bc 07b0 1abe
00000340: bd8a 86bc 6469 97bc 41d7 0f3e 4d81 163e
00000350: 2586 bb3d 4a23 123d ef5f 89bc 6cd1 503d
00000360: cea5 e6bd 40d0 2ebe d658 b43d 2b6c 6f3d
00000370: 3653 8fbc a82d 01be f560 bc3d fb03 2b3e
00000380: dbab c4bd 6395 f23c 46f4 19be 92b9 bb3d
00000390: 606e ac3e b866 c9bd e84f 4bbd 7737 e2bd
000003a0: de34 a03d e3ca 0bbe c9c3 543d 62cc 1b3e
000003b0: ef85 3ebe ee15 f5bc 7b8a 0c3e 4442 b5bd
000003c0: 471d 2dbe dee8 673c c686 5e3d 92e1 873d
000003d0: e1cf bcbd ec11 a13e 6e2a 89bd 8b59 79bd
000003e0: d534 e4bd de11 3cbb f460 273e f108 56bd
000003f0: 909d f7bc 063d 08be f5d5 8cbd 80f8 b0bd
0.09040903 0.002581476 -0.06039627 0.016627172 -0.011805924 0.15341987 -0.17541198 0.021118438
-0.10879039 0.046119135 -0.031886436 -0.17847706 -0.072139256 -0.074850485 0.03359736 0.1971568
0.0936047 0.042466503 -0.119649366 -0.105770364 0.09747977 0.13812912 0.16773662 -0.12827355
-0.089561 -0.16316052 -0.12457231 -0.13443609 -0.005729687 0.07982425 0.00958018 0.15701298
0.05537686 -0.038327366 -0.10143029 0.18808065 0.1469899 0.015519063 -0.068799585 -0.054939978
-0.033305883 0.09187348 -0.14283258 0.17022465 -0.17193078 -0.18477027 -0.15349458 -0.098888636
0.03589505 -0.24161328 0.080215625 -0.088813886 0.00063946843 0.07744919 0.18386385 -0.060254857
0.03513971 -0.2501969 -0.004149599 0.12288433 0.20394841 0.04290347 0.019341117 -0.21584544
-0.12884209 -0.081321314 0.01054749 0.05022836 -0.061889887 -0.07750016 -0.078803524 0.1269476
0.06187236 0.042578645 -0.13089246 0.11643606 -0.09863353 -0.13128296 0.012461623 0.12260569
0.1189075 0.03960392 -0.0703924 -0.023978265 0.051218607 0.14051813 -0.15531434 -0.076321736
0.10685712 -0.1259229 0.12894718 -0.11575747 -0.15777947 0.11424957 0.081730776 0.0918517
0.16181119 -0.15845108 -0.09504224 0.043862652 0.011930605 -0.13926393 -0.14589326 -0.043547343
0.09542189 -0.15465117 0.028325796 0.09852701 0.023262328 0.11601381 -0.108028 -0.14720137
-0.18100123 -0.012178303 0.1691822 0.103385076 0.11479943 -0.08249441 0.08751167 -0.081943884
0.053930216 0.011039983 0.0047426843 -0.09930134 0.14998712 -0.12946619 -0.03346799 0.09906991
0.123964116 -0.034391493 -0.04186718 -0.08100062 0.15392202 0.23772083 0.10336121 0.18335792
0.013744138 0.0013331764 0.04936943 0.138565 -0.108638406 -0.20893551 -0.11510928 0.10436089
-0.11605971 -0.10600209 -0.06953232 -0.17367661 0.04800123 0.099568196 -0.06998576 -0.12955536
0.19155146 0.008297309 0.1488095 -0.034564927 -0.06317091 -0.1670909 0.0837579 0.06442526
-0.17108549 -0.014658757 0.053337164 0.24443206 0.009395718 0.16889115 0.1777962 0.03662359
0.022512048 -0.06001447 -0.004664666 0.19404674 0.07223961 -0.05101179 0.27377215 -0.104370564
-0.22647661 0.093036965 -0.18658106 -0.06501387 0.042924687 -0.1519992 0.17362498 0.11380635
0.03080522 0.078719385 0.09919965 -0.015517936 -0.096391946 0.028741572 0.09788896 0.10360524
0.02700888 -0.14685702 0.13713992 0.31052655 -0.015827814 0.18440822 -0.038028423 -0.14998592
-0.1719458 0.15560941 -0.18378893 -0.16800396 -0.18595764 0.15689506 -0.014835149 -0.15106212
-0.016423577 -0.018482871 0.14046957 0.14697762 0.091564454 0.035678186 -0.016769378 0.05098097
-0.112620935 -0.17071629 0.088060066 0.058452766 -0.017495733 -0.12615073 0.091981806 0.16700737
-0.09603091 0.029612249 -0.15034589 0.09166254 0.3367796 -0.09834045 -0.04963675 -0.11045735
0.078225836 -0.13651614 0.051944528 0.15214685 -0.18605779 -0.029917683 0.13724701 -0.0885053
-0.169057 0.014154641 0.05432775 0.06634821 -0.09219337 0.31458986 -0.06697546 -0.06087641
-0.111428894 -0.0028697173 0.16345578 -0.05225462 -0.030226499 -0.13304529 -0.068767466 -0.086411476

bias f4 [50]
00000000: 8b95 d3bd f3fe 64be a0ce 113e 27e7 143e
00000010: d66e d7bd 8a82 cb3d 2337 3d3e 908c 243e
00000020: a302 923d 329e 043e 39fa 993d 34ae eabd
00000030: e917 4ebe 053e d1bd 60fd c93d 9405 a8bd
00000040: 7c79 0abe db41 d1bc 2712 9bbe 603a 0fbe
00000050: e3fc 0abe ae32 44be cfc1 203d 0001 4abe
00000060: 279f b43d 37ef 83be 1af3 6c3d 0eab 0fbe
00000070: c325 673d aa7f e23d 3cf4 c6bd cdb6 9bbd
00000080: eb29 073d 5dee 643d 260b c9bd 3753 813d
00000090: da65 8f3c 8693 11be e982 01be 27f5 61bd
000000a0: c48b f43b fd61 c43d faea 623d 1df7 51be
000000b0: cb07 aebd cfe8 01be e74a a33d cdb9 71be
000000c0: feb8 133e 0bab 303e
-0.103312574 -0.2236288 0.14238977 0.14541303 -0.10519187 0.09937008 0.18478064 0.16069245
0.07129409 0.12950972 0.07518429 -0.11459008 -0.20126309 -0.102169074 0.098627806 -0.08204189
-0.13522905 -0.025544098 -0.30287287 -0.13987112 -0.13573031 -0.19159958 0.03924733 -0.19726944
0.088194184 -0.25768444 0.057849027 -0.14030096 0.056432497 0.11059506 -0.09714553 -0.07603226
0.03299896 0.055891383 -0.098165795 0.063147 0.017504621 -0.14216432 -0.12647595 -0.055165436
0.0074629504 0.09589002 0.055399872 -0.20504422 -0.0849758 -0.12686466 0.07973271 -0.23606034
0.14426038 0.17252748

weight f4 [25, 50]
00000000: a24e 9bbc 989b d13c 0fc7 7cbd 112f e2bd
00000010: 7811 b6bd 9b73 66bd cf91 373c 59f2 643d
00000020: 0acc adbc 873c 7abd 9e4f 8b3d 4526 82bc
00000030: 27ec e8bc de74 ef3b 64f0 f2bd e6b6 37bd
00000040: 899a b9bd 32ac babd b1a0 d9bc 3f69 95bc
00000050: 9e10 42be 0777 dcbd 9d83 523d 6ee1 09be
00000060: 1581 ed3c f8d7 313d b38b f8bd 1613 1dbd
00000070: 0598 00be b5ec 2cbc e9f3 793d 782f e2bb
00000080: f7c3 fe3c 68d8 343d df23 6d3d 7a4b eabc
00000090: 688e 593d aeca 753d 8cd7 17bd 6f0f 06be
000000a0: c8d8 7f3c 87a4 d1bd 4cd3 103c 33d5 e7bd
000000b0: c20e 303d 7117 dabd 056b 36be bca0 d6bd
000000c0: 77da 66bd dd20 34be 68f5 693d 7670 773d
000000d0: fa01 0f3d c2d4 c9bb b7a3 033d c980 e7bd
000000e0: 98ce 86bd f4eb 123e 210b cebc 8006 ca3d
000000f0: 5ae1 f039 1c3a c3bd 84cc bc3d 19c5 86bd
00000100: 003d 87bc 0b6b b2bc 0c0a e9bc 307e cbbd
00000110: 76ed 933d 9bc2 ad3d 8c7f 893d f125 193e
00000120: 2066 90bd ee8f ff3c bac5 ce3d d828 47bc
00000130: 1746 bb3d a34e c43d 665b 94bb 589f be3c
00000140: 288a 74bd 757c f2bd d94b 1c3d 2563 53bd
00000150: 6dc3 f7bd e5c4 313d e489 0cbe aeca 113e
00000160: 042d 9f3d ad0c 8a3d 861a de3c 081d 473c
00000170: 5b65 62bc 7c6b 5a3c c312 123e 7820 8dbc
00000180: f77b cfbd bd5e 543d 2899 ea3c 2466 843d
00000190: 7411 023e cdfa c83d 7b45 3fbe a5c6 b5bc
000001a0: 9d91 233d e22c 273d d8ad 04be 6074 b33d
000001b0: 4d6a b03c 6501 b93c b75c 993d 197d 1d3e
000001c0: 52ef cb3d 3762 bdbc dfac a5bd 84f5 a9ba
000001d0: c49c 2dbd 248f a43d e8fc 8c3d 4959 87bc
000001e0: c972 7dbd c0cb 8c3c 3985 8abd e441 84bc
000001f0: 5e02 8a3d 89b5 a13d a3ab a13d 0197 873c
00000200: 7c7f 1ebc 115e 223e cfb3 95bd ab10 6dbc
00000210: c043 d7ba 23f3 8abd ed34 293d 72c9 84bc
00000220: 9000 5dbd 941f b83c dcd9 8dbd 551b 093e
00000230: 2090 1d3d 8c7f 38bd c7cc 01be a31f 8dba
00000240: 6e79 103e 7903 c93c 3c1b 29be a72d bfbd
00000250: d093 823d 5ffa 8fbc 1978 a6bc ba96 413d
00000260: f32b 36bc 8609 ab3d d0de d13c 46d8 30bd
00000270: ca26 52bd c6d6 543c 01e3 d2bd 6333 85bd
00000280: b758 6a3e 5421 01be 2bf8 37bc b8c0 81bd
00000290: 4e60 343e 755c df3c bb9d 1dbe fe31 0d3e
000002a0: ad17 03be ce3d 1cbe fa9c aa3d d83f a03d
000002b0: 12bc c7bd 886c 6cbd bb9d 99bd e30a b2bd
000002c0: b286 be3d a0a5 083d 107c ed3b ce99 86be
000002d0: fb65 a2bd 585c e73d 486e 433e eb08 873d
000002e0: 602e 4c3e 98c8 17be 61a0 12bd dc31 5bbd
000002f0: 658a 5d3b 849b 46bd 2f4d 0cbe 5343 01be
00000300: f610 d6bc 2a7e a6bd 53b6 60bc 0941 c5bd
00000310: 8958 cdbd 75e0 0a3e e0e8 d93d 4213 b43c
00000320: ca0d b0bd e6d2 463d 0b81 32bd f12c 323d
00000330: 574e 66bd 3766 1fbe 3463 1dbe 7a47 16bd
00000340: b5d3 bebd 3a83 f5bc aff7 593d 35d9 e0bd
00000350: bc8d c1bd e55c 38be 9ca3 083d e619 90bd
00000360: 4cbf 473d 98a3 953c beda ae3d 48a5 22bc
00000370: 5e9b 453d 98a2 0bbe d05d 983c 8726 abbc
00000380: 3c48 b8bd dad7 ddbd 6eb0 9bbd 20fc c4bb
00000390: 6c07 573c a8d2 17bc 7a25 bbbd 2a99 16be
000003a0: f7f0 9dbd bf7c a43d e031 fc3d fa32 07bd
000003b0: c440 1c3d f650 6cbc 184d c43d 7f49 31be
000003c0: eecf 9ebb 342c 9ebc 6cb7 9dbd 85b8 febd
000003d0: ad94 d0bd f548 34bc 3c96 01be e6e1 873d
000003e0: 5648 863c 83e7 673b 513f e93c ac68 7e3d
000003f0: 5fcc d4bd 8656 90bc 8944 e33d b413 ebbd
-0.018958393 0.025586888 -0.061713275 -0.110441335 -0.08890051 -0.056262594 0.011204197 0.055895183
-0.021215457 -0.06109288 0.06802295 -0.015887389 -0.028432919 0.007307633 -0.11862257 -0.04485216
-0.09062678 -0.09114875 -0.026565881 -0.018238662 -0.18951651 -0.1076489 0.051395047 -0.13464901
0.028992215 0.043418854 -0.121360205 -0.03834828 -0.12557991 -0.010554482 0.061023626 -0.0069026314
0.031099303 0.044151694 0.057895537 -0.028600443 0.053114325 0.060007744 -0.037070796 -0.13091825
0.0156156495 -0.10236459 0.00883944 -0.113199614 0.042982824 -0.10649002 -0.17814262 -0.104798764
-0.056360688 -0.17590661 0.057118803 0.060409985 0.034913994 -0.006159396 0.032138553 -0.11303861
-0.065823734 0.14347821 -0.025151791 0.09864521 0.00045944267 -0.09532568 0.09218696 -0.06580562
-0.01650858 -0.021779558 -0.028447174 -0.09936178 0.072230265 0.08484384 0.06713781 0.1495588
-0.07050729 0.03119656 0.10096307 -0.012155734 0.09144228 0.09585311 -0.004527497 0.02326934
-0.05970207 -0.118401445 0.03815827 -0.051608223 -0.120978214 0.043400664 -0.13724476 0.14237472
0.07772258 0.06740699 0.027112257 0.012152918 -0.01381811 0.01333129 0.1426497 -0.017227396
-0.10131066 0.051848162 0.028637484 0.06464794 0.1270197 0.098134615 -0.18678848 -0.022189448
0.03993379 0.040814288 -0.12956941 0.08762431 0.021535063 0.022583673 0.07488387 0.15379752
0.09957756 -0.023118122 -0.08089613 -0.0012966846 -0.04238583 0.080351144 0.068841755 -0.016522067
-0.061877046 0.017187 -0.067636915 -0.0161447 0.06738733 0.07895953 0.07894065 0.016551496
-0.009673949 0.15856196 -0.073096864 -0.014469306 -0.0016423389 -0.06784656 0.04131024 -0.016209338
-0.053955615 0.022475995 -0.06926319 0.13389333 0.038467526 -0.045043513 -0.12675773 -0.0010766875
0.14108822 0.024537789 -0.16514295 -0.09334879 0.06375849 -0.01757544 -0.020320939 0.047262885
-0.011118877 0.08351426 0.02561894 -0.043175004 -0.051306523 0.012990659 -0.10297204 -0.06503942
0.22885405 -0.1261037 -0.011228601 -0.06335586 0.17614862 0.027265767 -0.153922 0.13788602
-0.12802 -0.15257952 0.08330722 0.07824677 -0.097526684 -0.05772069 -0.07500788 -0.08693483
0.09303035 0.033361077 0.0072474554 -0.2628922 -0.079296075 0.1129691 0.19085038 0.06593498
0.19939566 -0.14822614 -0.03579748 -0.053514346 0.0033804413 -0.048488155 -0.13701318 -0.12623338
-0.026131134 -0.08129533 -0.0137153445 -0.09631545 -0.10026652 0.13562186 0.106401205 0.02198184
-0.0859638 0.048540972 -0.043580096 0.04349989 -0.056227054 -0.15566336 -0.15369874 -0.03668926
-0.09317724 -0.0299698 0.053214725 -0.10978929 -0.09450862 -0.18004186 0.033359155 -0.0703619
0.04876642 0.018266484 0.085378155 -0.009927101 0.048243873 -0.13636243 0.01859942 -0.020892395
-0.089981526 -0.10832186 -0.07602011 -0.006011501 0.013124328 -0.009266533 -0.091380075 -0.14706865
-0.07711976 0.08031606 0.123142004 -0.0330076 0.038147703 -0.0144235995 0.09585017 -0.17313193
-0.0048465645 -0.019308187 -0.077010006 -0.12437538 -0.10184608 -0.011003722 -0.12654966 0.066348836
0.016391914 0.0035385794 0.028472574 0.06211154 -0.10390543 -0.017619383 0.110970564 -0.114783674

bias f4 [25]
00000000: 1504 53be 5692 edbd 39fa 99bd 8265 08be
00000010: acba 2abe d5e6 cbbc ee08 b0bb 674a c4bc
00000020: 3cc3 7abd f613 3abe d96e c0bd f115 39be
00000030: 895d 02be 71af a1bc df38 d13b 6865 32be
00000040: 0846 65be fb43 fe3c bf99 19be 9c03 cebb
00000050: f0c0 78bd 23e3 cf3c 92e0 8a3c e136 80bd
00000060: 1e23 113d
-0.20607026 -0.11600177 -0.07518429 -0.13319972 -0.16672772 -0.024890343 -0.0053721583 -0.023961259
-0.061221346 -0.18171677 -0.093961425 -0.18074776 -0.12730993 -0.019736977 0.0063849534 -0.17421496
-0.22389996 0.031038275 -0.15000056 -0.0062870514 -0.060730875 0.025376862 0.016952787 -0.06260467
0.03543388
