Sleep_Disorder/test_work/models/simpleFFN.pth (torch, 49379 bytes, 12 tensors)

weight f4 [22, 11]
00000000: 6328 8dbe 09ae 863d 32f3 14bd 1303 b13d
00000010: b917 fc3d b601 01bf 0037 91be d072 ef3d
00000020: 512f 203c 5fa9 253e 417a 17be 98ec bfbe
00000030: e57d bfba 7f48 e53d 8827 52bd 076b 453e
00000040: 9856 693e 00a5 99be 03bc 19be dbe5 403e
00000050: be16 8c3d 690b c3bc 640b dd3d e9c7 14bd
00000060: 8d18 69be 6a36 853c 6dc3 0fbe 736b 7f3e
00000070: 3338 463e 1e68 893d f867 503e dae5 74be
00000080: fb8f 29be d8f5 893e 0045 60bd 80c7 bdbc
00000090: 8cbc 623e 5e2b e7bd 3421 bf3d c088 ffbb
000000a0: a064 243d 88bc 2ebd 07a4 1fbe 8c8f 87be
000000b0: b311 683e a790 70be 88fa 00be 35d7 b63e
000000c0: 6bae 42bd e473 1abe c37b 0d3e 4cc4 8d3e
000000d0: 3202 2fbe 06a4 e9bd 449d 1d3e ee0e d23d
000000e0: c609 10be 0023 7ebd cf00 df3c dec4 963d
000000f0: 0681 583e 9944 143d 5e3a 8f3e dfcd 29bf
00000100: 2748 ffbd 4b79 ad3d a117 ab3e f94d 5bbe
00000110: ccd4 00be 4f2a 063d 159c 433e 5474 c5bd
00000120: 0eb5 903d 3dbe 5bbe 9e17 0fbf f82b 78be
00000130: d949 f03d 9308 22bd cc16 e43d 08be 0d3e
00000140: ee31 89be 34d6 45be 5c10 383d 05a3 a13c
00000150: 9ba6 6b3c 5259 bcbd 4314 823d 4986 983e
00000160: 9525 093e f153 49be 1c0c 16be 6535 0e3d
00000170: b357 d93d 4978 2cbe cdbc ba3d a029 cebd
00000180: b5af 19bf 0602 efbd 4959 793e e769 6e3d
00000190: 1001 e7bd c0bd 903e 8a16 473d 95e0 cebd
000001a0: 7ae7 65be 52d2 2bbe 81e4 76be 6cf1 e2bd
000001b0: a810 a13e f76a 5b3e c0e0 093c 89fd 3bbe
000001c0: 9082 3fbd 6429 e53d 327d bcbd 381c 343d
000001d0: 208e 17bc 9c7a e7bd 142d 903e f160 94be
000001e0: b8c4 c8bd 1dfd fa3d 5651 e0be 0761 e23d
000001f0: 4f38 583e e38b 043e 50e3 70be 3ba0 06be
00000200: b603 62bd 216a 21bf 1cf0 3abe d97b e33d
00000210: 86da 5ebe f453 dabd db8d 89bd 709f 86bd
00000220: 6192 32be 1fd6 72be 450e 223e ec41 15be
00000230: 6e23 8fbe 7038 043e 6a76 b83d 6e99 71be
00000240: 5a20 c5bd 3a5a 47be 5059 6f3e 7898 61bd
00000250: 8066 473c 8016 9a3b d8d8 c0bd 50d5 893d
00000260: e09c 643c b7e7 8cbe 80a5 3fbc 4ccf 3d3e
00000270: cb5b 19be 6202 6dbe a616 f5bd 9eba d3bd
00000280: e4bd 76be 00d8 82b9 260f 873e 2e04 9a3e
00000290: 6c84 6ebd 154a 89be bdcc 863e c7f4 66bd
000002a0: 05bd 793e 1204 8ebd a932 453e 9378 523e
000002b0: bdcb 22be 3a22 b03e 5068 a93a f409 0abe
000002c0: ba9f 593e 9b91 e3be 97f3 433d 610d a63a
000002d0: 5a87 e03d 462c aabd c4b4 d8bd 41f9 083e
000002e0: f30b dfbe a0a9 2cbe bc9e f63d fe8d debd
000002f0: 1830 43be d4ad 103e 77a5 96be c7cc 95be
00000300: dd88 1d3e 4280 30bd 3806 db3d c006 943e
00000310: 1a95 6b3e 35a0 853e 4278 c93c 8257 11bf
00000320: 83ae aabc 96c9 e53d 96c6 d43d 0ca1 5b3b
00000330: 5fd9 c4bd 415a 0b3e 46d9 0ebf 6925 3b3c
00000340: fa07 533d 94ed 9c3e 51da 91be eca8 85bd
00000350: 897c 1a3e 8b28 3f3e 4689 1d3c 2621 08bd
00000360: 63fd 39be b45b 36bf 30f1 5bbe fed3 8cbd
00000370: dd0a 8ebe 3404 0cbe 9bae 5e3e 5e89 18be
00000380: f409 98be 1444 8d3e 904a db3d b591 3fbe
00000390: de6a cdbd d776 89be fd5b 35be 4e88 cc3e
000003a0: a118 80be 9564 613e 63ea a63e 934f d43d
000003b0: 2878 673e 5756 69be cb5e e73d 90d9 b2be
000003c0: bd46 55be aca7 f7bd
-0.27569875 0.06576163 -0.03636474 0.086431645 0.12309212 -0.50393236 -0.28362274 0.116918206
0.009776906 0.16177891 -0.1479273 -0.37485194 -0.0014609663 0.11195468 -0.05130723 0.19279109
0.22786939 -0.30008698 -0.15013127 0.18837683 0.06840275 -0.023809152 0.10793188 -0.03632346
-0.22763272 0.016261298 -0.14039393 0.24943332 0.19357376 0.06709312 0.20352161 -0.23915806
-0.1655883 0.26945376 -0.054753304 -0.023166418 0.22142237 -0.112875685 0.09332505 -0.0077982843
0.040135026 -0.042660266 -0.15589915 -0.26476705 0.22663002 -0.2349268 -0.1259557 0.35711065
-0.04752962 -0.15083271 0.13816743 0.27688825 -0.17090681 -0.11408238 0.15392023 0.10256754
-0.14066228 -0.062045097 0.027222065 0.07361768 0.21142969 0.036198232 0.27974218 -0.6632976
-0.12464934 0.084704004 0.33416465 -0.21416463 -0.12581176 0.032755192 0.1910251 -0.096413285
0.070657834 -0.21459289 -0.5589541 -0.24235523 0.11732835 -0.03955896 0.11137161 0.13842022
-0.26795906 -0.19319993 0.044937477 0.019731054 0.014382984 -0.09196724 0.06351521 0.2978995
0.13393243 -0.19660927 -0.14653057 0.03471889 0.106124304 -0.1684276 0.09118042 -0.10066533
-0.6003373 -0.11670308 0.24350466 0.058206465 -0.112794995 0.28269768 0.04860548 -0.101014294
-0.22451583 -0.1677945 -0.24110605 -0.11081204 0.3145802 0.21427523 0.008415401 -0.18358435
-0.046755373 0.11189535 -0.092035666 0.043972224 -0.009250194 -0.11302683 0.28159392 -0.2898021
-0.09803146 0.12255309 -0.43812054 0.11053663 0.2111523 0.12943988 -0.23524213 -0.1314706
-0.05517932 -0.63052565 -0.18255657 0.111076064 -0.21763048 -0.10660544 -0.0671651 -0.06573379
-0.17438652 -0.23714493 0.15825756 -0.14575928 -0.27956718 0.12912154 0.09006961 -0.23593685
-0.09625311 -0.19468012 0.23373914 -0.055077046 0.012170434 0.0047023892 -0.0941636 0.06730139
0.013953418 -0.27520534 -0.011697173 0.18536109 -0.14976422 -0.2314544 -0.119672105 -0.10338329
-0.24095875 -0.00024956465 0.26378745 0.30081314 -0.058231756 -0.26814333 0.26328078 -0.05638578
0.24388511 -0.0693437 0.19257607 0.20553808 -0.15898032 0.34401113 0.0012924764 -0.1348036
0.21252337 -0.44447026 0.047839727 0.0012668782 0.10963316 -0.08309226 -0.10581353 0.13376333
-0.43563804 -0.16861582 0.12041995 -0.108669266 -0.19061315 0.1412881 -0.29423115 -0.29257795
0.1538424 -0.043091066 0.106945455 0.289114 0.23006096 0.2609879 0.024593476 -0.5677415
-0.020835167 0.1122009 0.1038944 0.003351274 -0.09611773 0.13608648 -0.5580028 0.0114224935
0.05152128 0.30650008 -0.28486875 -0.0652636 0.15086569 0.1866781 0.009615248 -0.033234738
-0.18163066 -0.7123368 -0.21478724 -0.06876372 -0.27742663 -0.13673478 0.21746294 -0.14896151
-0.29695094 0.27591002 0.10707581 -0.18707927 -0.10030149 -0.2684848 -0.17710872 0.39947742
-0.2501879 0.22011025 0.32600698 0.1036674 0.2260443 -0.22786842 0.11297377 -0.34931612
-0.20827766 -0.12092528

bias f4 [22]
00000000: 53b5 2a3c e762 54be 6e81 0ebd f583 43be
00000010: 861a 15be 1119 75be b2bc a3be 8169 fc3d
00000020: 753b 103e 27fc 1a3e 0a40 933e bd31 243e
00000030: 970b 7cbc c245 3d3e 881a 6f3d a7b9 a9be
00000040: 9ea1 18be e6b2 bdbd ed12 fd3d 2627 1a3d
00000050: b2d9 973e f0ee 8abe
0.010419208 -0.20740853 -0.034791403 -0.19093306 -0.14560899 -0.23935343 -0.319799 0.12324811
0.14085181 0.15135251 0.28759795 0.16034599 -0.015383623 0.18483642 0.05837491 -0.33149454
-0.14905402 -0.09262638 0.123571254 0.03763499 0.29658276 -0.2713542

weight f4 [44, 22]
00000000: c98c e73d 9ab3 20bb 3fee babe 5039 263e
00000010: 4a62 4b3e 83b3 203e 1cee 33bd c127 2ebd
00000020: c772 9b3d 7174 2cbe d409 42be 6bca 683e
00000030: 3d71 64bd d07e f83d a96f dcbd 8bdb 0dbe
00000040: 7fcb aa3d b10f 39be 0f00 f73d 4eeb c6bd
00000050: 9178 27bd 46b3 243e ed17 163e 07f3 e1bc
00000060: de32 cebc 8a24 8fbd d074 963d 9f4c 30be
00000070: 7f1a 19be 44e0 e83d 6aba 3b3e 5413 0ebc
00000080: 1653 96bd bd5a 9d3c d8b6 2cbe 8c3e 0a3d
00000090: 309e 553e 6a88 fbbd 3657 243e 9307 6b3c
000000a0: 472d 54bd 51ed 3bbd 5334 42bc 467e 313d
000000b0: 5d8d 763e 731f 18be 353f 8db9 d4e3 f93d
000000c0: 47d4 9d3d ccf3 883d 2755 1d3e 2c32 273e
000000d0: 864c 273e 2dc7 0abe 540f 5cbd 1637 543e
000000e0: 0c3e 18be d849 e33c 67bd 59be eee3 1bbe
000000f0: 2052 1c3e b6d2 703d 6c90 183e 3eed ca3d
00000100: d98a 353e 59c1 993d a0ee adbd 1045 ebbc
00000110: 0c68 17be 9ee5 48be cc6d 63be 7088 133e
00000120: 5a65 6c3e fc48 1b3d faa8 0e3e 58e3 8abb
00000130: ca3c 083e 6e2b 2cbe 8039 54bd 982b 7d3d
00000140: e67c 2e3e 213a c7bc b2a7 413c 72b2 0ebe
00000150: b0b5 873c 0593 2f3e 1395 783c 7e82 dfbc
00000160: 6281 0fbb f1fa 213e 10aa ce3d aacc 50be
00000170: a7d7 6abe 2de7 1b3d 819a aa3a a919 063d
00000180: a827 cc3c 11d2 5b3e a449 9e3d f205 ba3d
00000190: fed2 143d bef6 0b3e 787b d23d 7a87 b43c
000001a0: 6318 5ebe 3729 27bd c444 28be f963 84be
000001b0: 0d05 11be 120b 963e e657 25be 6ea1 f83c
000001c0: 7644 50be 84e6 cb3d 821d 923d b277 1fbd
000001d0: cdb0 6c3e 5d9d 55be e9a8 e23d 1388 4dbe
000001e0: e0bb 40bd b9ab 80bd a341 3fbe 31cd cfbd
000001f0: 44b8 463e 881a 33bd 8203 20bd 3762 ef3d
00000200: 1510 563e a20a eb3d 67e6 55be 2876 6b3e
00000210: fabc 453e e2d9 2bbe 84d8 81be d05c 873d
00000220: d496 413e f473 863d 114a 25be 818e 303e
00000230: 7f9d 70bd e6a3 72be 3433 e43d b288 c33d
00000240: 6be8 f2bd 107b 17bc b420 7dbd 9ad9 6ebd
00000250: 3485 53be 7bfd 0d3d 086b 943c a9d0 783e
00000260: 4647 48be e7be 313d 2c22 a83d 205e 04be
00000270: fd08 263b 32da 22be 9321 0a3e c657 503e
00000280: 845d ebbd d42e bc3c 5887 f83d 0b09 a63b
00000290: 7009 213e c389 3e3e 1d2a 53be 9aec 563e
000002a0: 76ae 473e c02f f0bd fb7f f63d 4fed 5ebe
000002b0: 68e4 43be e632 98bd 30b0 ec3c c5b1 3c3e
000002c0: caf9 9b3e 95a7 b0bd 4897 77bd 941d 593e
000002d0: 61d6 723e a559 463c d3a3 e73b 85f8 0a3e
000002e0: 6177 07be 1e0a 2ebe 682d aa3d 126a 7f3e
000002f0: 3169 b0bd 702d 613d d427 44bd 4caa cebd
00000300: 8a87 6b3e 7293 f3bd f347 63be bdcf a23c
00000310: a50a db3d e2ea 283d 0cc9 913d 5252 833e
00000320: 0b9a 583e 505c 1a3d 4031 c2bd 2571 64bd
00000330: f132 73be f30e 72bd f5cf abbc 19f3 613e
00000340: aaa2 e8bd f94b fabb 8e51 0d3e 9abe 41be
00000350: 7a70 3b3e 9148 473e 07dc 04bc bbed 0b3e
00000360: f471 65bd 223d 2ebe f99c c9bb 485b 493e
00000370: 0b4b fcbd 2958 13bd 3db0 9bbd 7ba9 4fbe
00000380: 8968 3c3d 44af 59be a6f3 6abd d3e7 c73d
00000390: d9ad bc3d c65d 6bbe cc2c 523e 821e 5a3e
000003a0: 409d 023d b33a 33be f0d2 ff3d d731 8bbc
000003b0: 45ca 323e d963 70bd 8a25 7e3c 6822 96bd
000003c0: 7c17 dabd 382c 84bc 1b2f 9dbe 7a6c 593e
000003d0: 1455 223e 009e 3cbc bea7 273d 6d94 e0bd
000003e0: 4dba 10be 2981 563e 9042 adbd b68c 853e
000003f0: b881 26bd dca1 a53d 4527 c33d b6cc 4d3e
0.113061495 -0.0024521113 -0.36509892 0.162328 0.19861713 0.15693478 -0.04392825 -0.04251838
0.075902514 -0.16841294 -0.18949062 0.22733466 -0.055772055 0.121335626 -0.10763485 -0.1385328
0.08339595 -0.18072392 0.12060558 -0.097128496 -0.040886465 0.16084012 0.14657564 -0.027581705
-0.02517074 -0.06989391 0.07346499 -0.17216729 -0.14951514 0.113709 0.1833283 -0.0086716
-0.07340066 0.019208306 -0.16866624 0.033751056 0.20861125 -0.12281878 0.16048893 0.014345068
-0.051800992 -0.04588062 -0.011853295 0.043333314 0.24077363 -0.14855747 -0.0002694071 0.12201658
0.07706504 0.066871256 0.15364514 0.16327733 0.16337785 -0.13552542 -0.053725556 0.20724139
-0.14867419 0.027745172 -0.21263658 -0.15223667 0.15265703 0.0587947 0.14898843 0.099085316
0.17728747 0.07507581 -0.0849278 -0.028719455 -0.14785784 -0.19618842 -0.22209853 0.14407516
0.23085538 0.0379114 0.13931647 -0.0042385273 0.13304439 -0.16813442 -0.05181265 0.061809152
0.17039832 -0.02431971 0.011819767 -0.13935259 0.016566128 0.17145927 0.015172261 -0.027283903
-0.0021897187 0.15818383 0.100910306 -0.20390573 -0.22933827 0.038062263 0.0013016016 0.032739315
0.024921253 0.21466853 0.077288896 0.09083165 0.03633403 0.13668343 0.10277456 0.022037257
-0.2168899 -0.04081079 -0.16432482 -0.25857523 -0.14162083 0.2930532 -0.16146812 0.030350413
-0.20338616 0.09956077 0.071345344 -0.03893251 0.23114319 -0.2086081 0.11067373 -0.2007144
-0.04705417 -0.062827535 -0.18677382 -0.10146559 0.1940623 -0.043726474 -0.039065845 0.11688655
0.20904572 0.114766374 -0.20888673 0.22994292 0.1931037 -0.16782334 -0.253605 0.066094995
0.18905193 0.06565085 -0.16141535 0.17241861 -0.05874395 -0.23695335 0.11142579 0.09547557
-0.118607365 -0.009245649 -0.061798766 -0.05831299 -0.20656282 0.034665566 0.018117443 0.24298348
-0.19558439 0.04339495 0.08209643 -0.12926531 0.0025334947 -0.15903547 0.1348937 0.20345983
-0.11492446 0.022971548 0.1213519 0.005066996 0.15726256 0.1860724 -0.20621534 0.20988694
0.19500145 -0.117278576 0.12036129 -0.21770214 -0.19130099 -0.07431583 0.028892606 0.18427189
0.3046401 -0.08625714 -0.060447007 0.2120269 0.23714592 0.012106334 0.00706909 0.13571365
-0.13229133 -0.16996047 0.08309442 0.24942806 -0.08613814 0.054974973 -0.047889546 -0.10091075
0.23000923 -0.11893357 -0.22195415 0.019874448 0.1069539 0.041239627 0.07118425 0.25648743
0.21152513 0.037685692 -0.0948205 -0.055771966 -0.23749901 -0.059096288 -0.020973185 0.2206539
-0.11359151 -0.007638451 0.13800642 -0.18920365 0.18304625 0.19461276 -0.008109099 0.13664906
-0.056016877 -0.17015508 -0.006152746 0.19663727 -0.12319001 -0.035972748 -0.07601974 -0.20279495
0.04599813 -0.21258265 -0.057361268 0.09761014 0.09212846 -0.2298499 0.20524901 0.213007
0.031888247 -0.1750286 0.12491405 -0.016991539 0.17459972 -0.058688972 0.01551188 -0.07330781
-0.106490105 -0.016134366 -0.307 0.21232787 0.15852767 -0.0115122795 0.040931456 -0.1096581
-0.14133568 0.20947708 -0.084599614 0.26083916 -0.040651053 0.08087513 0.095289744 0.20097622

bias f4 [44]
00000000: 7270 0bbe 7ad1 f0b8 69fe d6b7 496c 4db8
00000010: 12f1 283d 4ce4 46be 92bc b5b6 9d6a 0ebe
00000020: d30c ac3d b50a d1bd 0cae 943d ccdc 4e3d
00000030: fc6c 663d 9b17 9dbc 8416 2ebe aced 94b5
00000040: bcf9 f43d 33fe e93d ba19 f2bd 49b5 df3d
00000050: f86e fd38 931d 92bd d3d4 34bd 7fd1 ee3d
00000060: 7f59 0ebe 97b6 cb38 b6e6 0dbe 041b b339
00000070: b350 653d 530e bf37 9c34 77bd ac42 d9bd
00000080: 490d 7b3b 1332 1c3b af03 203c 9121 02bd
00000090: 04a1 843c 741f c3bb e02b 9e3c ab90 ad3d
000000a0: e70e fcbc 7928 e43c 4bb3 7a3c c452 d23d
-0.13617113 -0.0001148311 -2.5629257e-05 -4.8976657e-05 0.041245528 -0.19423026 -5.416173e-06 -0.13907857
0.084008835 -0.1020712 0.07259759 0.050503537 0.05625628 -0.019176295 -0.17000777 -1.1096031e-06
0.119616956 0.11425438 -0.11821313 0.10923249 0.0001208465 -0.07134547 -0.044148277 0.11661052
-0.13901328 9.713804e-05 -0.1385754 0.0003416167 0.055985164 2.2775645e-05 -0.060352907 -0.1060842
0.003830748 0.0023833557 0.009766503 -0.031770293 0.01619006 -0.0059546772 0.01930803 0.08474859
-0.030768825 0.02785133 0.015301536 0.102696925

weight f4 [88, 44]
00000000: 8169 733d 25f7 9a3d dca2 de3d 9fb1 70bd
00000010: fa1d d53d 9531 103d 47d0 2dbd ceba 493d
00000020: e090 a23d 1b4e 01be 72bf c4bd 7196 57bc
00000030: f5bb 423e 1d80 213e 4cb7 fabd a2a4 8f3c
00000040: 5cc7 3c3d 9c57 86bc 0cb2 783d 5411 233d
00000050: 60e7 d43d b32b 79bd 5eaa df3d af85 333c
00000060: 4c43 133d 4d46 1c3e b063 323c 3431 1dbd
00000070: 2d65 de3d 8fc8 023e e4ea 09bd f559 0a3e
00000080: 3580 05be ee51 023e a036 233d 24fa 023e
00000090: 424c c8bd 978b 31bd b67c 223e a1a6 a7bd
000000a0: 91e2 ec3d aaf5 fd3d 655d 233e 12cf 96bd
000000b0: cb34 a5bd 5a9b 1e3e 2b9d ee3d 5dd2 b13d
000000c0: be83 f1bb 2833 da3c 7f76 b23d 5058 1d3c
000000d0: 566b f93d a0b0 703b 3368 1bbd 98ca 93bc
000000e0: ffad c63c 029a 23bc 908b 9dbd f59a c43c
000000f0: 6fed 1a3d 0e64 c7bd e4b6 193e e6ed 32bd
00000100: a378 a0bd 23a0 9e3d 4741 90bd 84e6 fd3c
00000110: 8794 53bc 69ed 863c 4836 313e 55f4 9e3c
00000120: bcb4 c9bd eb2b 1ebc 5c1e 133e 2ea4 a03d
00000130: 3686 e2bd 9f8c 71bc effb 10be 56ee a63d
00000140: 6094 0b3e 7d9b e43d 06a9 44bd b6f9 b5bd
00000150: cd09 fd3d 38b4 c4bc ea2a 1f3e 58bb 27bd
00000160: 8685 423c a4eb 953c 8631 89ba c368 c5bc
00000170: 1e04 58bc 5da5 083e 9da3 1b3e 0f6f 2abd
00000180: 8bfe 903d 9765 80bd f465 8dbd 24bb 8fbd
00000190: dcd4 c63d d7d0 003e 9725 c23d d339 363d
000001a0: 8ab6 1bbe 76bf 34bd 130a cd3d a0b0 3a3d
000001b0: fcdb f13c bbb0 45bb 916a 2d3d 98c7 d3bd
000001c0: 0198 213d ab25 9d3d 5fa8 b8bd edcf edbd
000001d0: 9b26 1a3e d041 2b3b 398c 30bd 1069 db3d
000001e0: 0394 67bd 064f 27bd e4e2 943d 018a 69bc
000001f0: ee60 263c 87d7 df3c 2bf6 d63d a5f7 8b3d
00000200: a72c 0fbe 703d 0dbe 963d 333a af42 ffbd
00000210: 80a5 cb3d 20d1 a63d 8804 5abd 615f 223d
00000220: bbd6 993d 0e10 e8bb 8778 ec3c 0b2c 203e
00000230: 71c2 333d abd6 0a3e 83de ab3d 3b71 e93d
00000240: 009d ff3d 6fbd 213d 7eff 083e 543d 443d
00000250: b3f0 643d 1509 1cbe a6af 97bd 2f8e 563e
00000260: 5712 a73d 50f6 16bd 50cd c13d d0fc 3b3e
00000270: 99f7 ebbd 233c 0f3e 5dcc 9d3c c7e1 cb3b
00000280: 51cd 323d 533d 5fbd 7bb8 3cbd f203 133e
00000290: 2f1f 6d3d 8e57 5cbd a728 aa3d 1df3 933e
000002a0: 2890 143e 5a9c 5cbc 1002 37bc d376 e6bc
000002b0: 9a81 163e 7b44 11bc c897 b1bd 8dc5 ab3d
000002c0: 5577 a6bc 264b e4bd c7b8 b63b 15ea bebd
000002d0: 588a efba 96ad 00be 44b2 b43d c4d2 afbd
000002e0: a4a7 c2bd 0c27 293e d36f 013e 764a 1e3e
000002f0: 6b66 97bd 5e01 31bd a439 f13d d5a8 a8bd
00000300: 8552 443e afcc 493d 5784 0ebe 6001 3e3e
00000310: cb35 27be a8d8 93bd 21d0 b83d 79fd 073e
00000320: 737a 30bd 14a0 34bc 220d 3c3e d059 383d
00000330: 6921 c7bd 4a77 03be 5e71 f0bd feee 8d3c
00000340: bacb a23d bb1e 51bc 99af 063d 3c8d f73c
00000350: 4ff4 003e 349e 36bc 709f 213e 3365 c5bb
00000360: 1223 2ebd e815 e5bd ccde 25be cbdd 1a3e
00000370: 729e e33d 3b21 64bc d665 1a3e 440c 3ebd
00000380: cc7c c33c 2ff5 ed3d 9875 b43d 0849 94bd
00000390: fe2c f8bd 9c03 aebc 5909 7a3d da07 413c
000003a0: cebf 1a3e 27dc 033e d60c 1fbe 9fcb 283e
000003b0: 6673 abbb 1426 4dbd d0c3 cd3d 905a 12bc
000003c0: bb10 fabc b50d 223e 4977 613e 9cba 003e
000003d0: 4b3b 463d 041a 043e ffb4 bbbd baa9 f7bd
000003e0: 56b1 bfbb fdcc 9c3d 2155 59bd 4a19 283e
000003f0: 9908 773d 7ed6 e23d 7113 0dbe eef7 793e
0.05942679 0.0756667 0.10870907 -0.058763143 0.10406108 0.035203535 -0.042434957 0.049250416
0.07937789 -0.12627451 -0.09606828 -0.013158427 0.19017012 0.15771528 -0.12241992 0.017534558
0.04608856 -0.016399197 0.060716674 0.039811447 0.10395694 -0.06083269 0.10921167 0.010957166
0.03595285 0.15261193 0.010888025 -0.038377002 0.108591415 0.1277182 -0.033671275 0.13510878
-0.13037188 0.12726566 0.039847016 0.12790734 -0.0978017 -0.043346014 0.15867886 -0.08186079
0.115666516 0.12400372 0.15953596 -0.07363714 -0.0806671 0.1548895 0.11651071 0.08682702
-0.007370441 0.026635721 0.087140076 0.009603575 0.12178676 0.003672637 -0.03794117 -0.01804094
0.02425289 -0.009985449 -0.07692635 0.02399967 0.03782409 -0.09735881 0.15011173 -0.04368391
-0.0783551 0.077453874 -0.07043701 0.030993707 -0.01291383 0.016470628 0.17305863 0.019403616
-0.098489255 -0.009654026 0.1436705 0.07843815 -0.11060755 -0.014742999 -0.14158605 0.08150928
0.1363082 0.111624695 -0.048012756 -0.08885519 0.12355385 -0.024011716 0.15543714 -0.04095015
0.011872655 0.018300839 -0.001046703 -0.024097806 -0.013184575 0.13344331 0.15199132 -0.04160982
0.070798 -0.06269377 -0.06904212 -0.07018116 0.097085685 0.12579666 0.09479826 0.04448874
-0.15206352 -0.044127904 0.10011687 0.0455786 0.029523842 -0.0030165154 0.042337958 -0.10340804
0.039451603 0.076732 -0.09016489 -0.11611924 0.1505379 0.0026131757 -0.043102477 0.107133985
-0.05653764 -0.040846847 0.072698385 -0.014254094 0.010154946 0.027324451 0.104961716 0.06834344
-0.13981877 -0.13792968 0.0006837485 -0.12463891 0.09943676 0.08145356 -0.053226978 0.03964174
0.0751166 -0.007081992 0.028866066 0.15641801 0.043886606 0.13558452 0.0839205 0.1139855
0.12481117 0.0394873 0.13378713 0.04791005 0.05589361 -0.1523784 -0.07406549 0.20952676
0.08157795 -0.036855996 0.094629884 0.18358159 -0.11521835 0.13987784 0.019262487 0.006221983
0.043652836 -0.054501843 -0.04607437 0.14356974 0.057891067 -0.053794436 0.08308535 0.28896418
0.14508116 -0.0134650115 -0.011169925 -0.028132832 0.14697877 -0.008866425 -0.08671528 0.08387289
-0.020320574 -0.11147146 0.0055762264 -0.09321991 -0.0018275483 -0.12566218 0.08823064 -0.08585122
-0.09504631 0.16518801 0.12640314 0.15458092 -0.073925816 -0.043214194 0.11778572 -0.08235327
0.19172104 0.049267467 -0.13917671 0.18555212 -0.16329114 -0.07219058 0.090240724 0.13280286
-0.043085527 -0.011024494 0.18364385 0.045007527 -0.09723169 -0.12838474 -0.11740373 0.017325874
0.07949014 -0.012763674 0.032882307 0.030218713 0.12593196 -0.011146117 0.15783477 -0.006024027
-0.042513914 -0.11185819 -0.16198272 0.1512367 0.111142054 -0.013923938 0.1507791 -0.046398416
0.023863219 0.11619031 0.08811492 -0.07240492 -0.121179566 -0.021241955 0.06104407 0.011781657
0.1511223 0.1287695 -0.1553224 0.16483925 -0.0052322624 -0.050085142 0.10047114 -0.008932725
-0.030525556 0.15825541 0.2201816 0.12571186 0.04839639 0.12900549 -0.09165382 -0.1209292
-0.0058499975 0.07656286 -0.0530597 0.16415897 0.060310934 0.110760674 -0.13776948 0.24410984

bias f4 [88]
00000000: d74e 19bd 86d2 903b 50dc 803d 1b5e 87bd
00000010: aac1 2d3d 3d27 19bd 8c97 c8bd e8a5 e6ba
00000020: 1d32 103e 3cf6 37bd dc32 52bd c4ff 91bd
00000030: 798e 4bbd 50e9 6bbc 26d0 8e3c 49fb 983d
00000040: 4490 023e fc90 513c 0828 283c ba87 afbd
00000050: 4755 873d 5392 86bd 721c 18bd fc9d a9bc
00000060: 04ce d5bc 6d41 84bd 0a52 7ebb 29c4 d0bd
00000070: 9313 98bd d90b 073c 2df2 833d 3a66 d2bd
00000080: a31f 143d 3d3a 80bd 8b2a dfbd 706d ef3d
00000090: be3e 46bd 1e2a d43d 360f 053d a535 a9bc
000000a0: a21c debc 5b60 aabd 785c 12bd 67d3 18bd
000000b0: cd7d 27be 14a1 183d 7ed5 a7ba f203 cf3c
000000c0: f42d b43c 244d c3bd 8d9f b8bb feef a43c
000000d0: 8229 6cbd 04fb 213c 0874 0c3e 36ee cf3d
000000e0: 63f5 9fbd a81f 943d d505 183c 014e debd
000000f0: af12 f23d c04f ddbc e889 773d b7f4 303d
00000100: 672f 1cbd 64ea a2bd 6ea5 04bb 28b8 11bd
00000110: d2c7 ed3d 2814 6b3c 5179 aabb b38c ee3d
00000120: b86b ebbc 7174 c73c 835a b9bc 3429 ef3d
00000130: 07b6 583d b5f5 a13d e49d a2bb ff5b 93bd
00000140: fa12 de3b 1ee9 5e3d cdb0 3c3d fe4e b2bd
00000150: 162d bd3d 47b9 503c a676 b0bd 9454 c2bd
-0.037428703 0.0044196276 0.06292021 -0.06609746 0.04242102 -0.037390936 -0.0979453 -0.0017597051
0.14081617 -0.04491256 -0.051318035 -0.071288615 -0.04969642 -0.014398888 0.017433237 0.07469804
0.12750345 0.012790915 0.01026345 -0.0857081 0.06608062 -0.06570878 -0.037136503 -0.020705216
-0.026099212 -0.064577915 -0.0038806223 -0.101936646 -0.074256085 0.008242571 0.06442676 -0.102734044
0.036162984 -0.06261108 -0.10896786 0.116907954 -0.04839968 0.10359596 0.03248521 -0.020655463
-0.027113263 -0.083191596 -0.035732716 -0.037310984 -0.16356583 0.03726299 -0.0012804714 0.025270436
0.021994568 -0.09536198 -0.0056342543 0.020133968 -0.057656772 0.009886507 0.13716137 0.10152857
-0.07810476 0.072326005 0.009278734 -0.10854722 0.1181997 -0.027015567 0.060434252 0.04320213
-0.038131144 -0.07954863 -0.0020240205 -0.035576016 0.11610378 0.014348067 -0.0052024503 0.1164793
-0.028737888 0.024347516 -0.022626167 0.11677781 0.05290797 0.07908193 -0.0049626697 -0.07195281
0.0067771645 0.054421537 0.046067048 -0.08706473 0.09237115 0.012739486 -0.086163804 -0.09488788

weight f4 [44, 88]
00000000: ee88 b03c 3114 45bd d926 883d 79f4 633d
00000010: 3fe2 5a3d 66f8 233e c4d0 b0bc 3637 1a3d
00000020: a8d7 0eba 067c adbd 8c94 8b3d eed9 e83c
00000030: bab6 f5bc cc10 903d 3455 d43c 24eb 5f3d
00000040: bf94 063e 3096 b33d 3007 7cbd 5f03 2cbd
00000050: 7443 a0bd 49af 073e 5e3a 973d 5a9f 88bd
00000060: 6970 a03c 0252 91bc c44e c3bc 4f17 a93d
00000070: 237e 27bd cf08 7bbd 048b 6d3d 88f7 023d
00000080: 7bb5 163c cdac ae3c 66f4 8f3c ee77 febc
00000090: fe04 df3d decd 103e 93ce 963d 0fdc 7abd
000000a0: 0b53 aa3d f981 013e feb5 133e 8b72 8c3d
000000b0: 0b3a 103b 3f40 d03d 8a51 96bd f43d b03d
000000c0: 9d6c e23d e28b b63d c78f 003e cec1 c2bc
000000d0: 4597 d03d e6e1 d6bc d3fd d53d 6746 d13b
000000e0: 72c5 a73c 86d1 a8bb 3a9c 11bc 7633 313d
000000f0: e690 46bd 4244 90bd dbab 8d3d ae51 173e
00000100: 0035 9cbb f993 c0bb 0e7d 1e3d 943d b13c
00000110: 73c2 303e ac61 153d d2e5 59bd 9a8f f73b
00000120: 3a71 51bd 70c0 e9bb b0b7 b1bb e53b 6d3c
00000130: 9744 3b3d c71d 3ebd dba6 2b3d 4f56 0a3e
00000140: a085 8d3d 2d00 a0bc 2cc7 c23c ff01 603d
00000150: f426 983d 089c 12bd c8a8 79bd 9ef3 2b3d
00000160: 25a8 c6bb 9ba3 003e 8464 0f3b 4468 a5bb
00000170: b4ee 353c e7e9 2a3e bbaf 513d 3b37 ec3d
00000180: b073 cbbd f992 de3d 6759 fe3d a624 38bc
00000190: d0f5 ef3d 96af 043e 7f38 e23d 060a 343c
000001a0: 4c4d cdbd 8e73 69bc 1983 bd3d 4de5 68bc
000001b0: 996f c53d b3b8 9f3d 6f2a 0f3d a166 853d
000001c0: b2ff 5d3b c0f5 76bb cc98 33bd 2952 75b9
000001d0: 5c86 763d 05d7 8dba f7a8 67bd 0be2 b23d
000001e0: ae2e 203c 4bea 213d c344 32bd f556 ccbc
000001f0: a941 0f3e c486 8b3d 7cb7 803d afe0 90bd
00000200: 3ec3 b93d 66cc b53d 9a6e 893d 6158 ab3d
00000210: dbae d13d e3f0 09bd 9ad1 673d c193 acbc
00000220: fa6c f53d 8f2e b23d 1b08 13bd 72e7 e63d
00000230: b9b0 6b3d 8fe5 cc3c 2acf dfbc f12b babd
00000240: 0a85 e73d 9311 67bd e31f ce3c 4480 d13d
00000250: eae1 52bd c64a b23d b29b e53d 3cba 103e
00000260: 869b 133e b8ad 103e 5ca8 b63d 4904 9e3c
00000270: c1ef 1bbc 9744 5fbd 931d 8c3d 5682 2c3d
00000280: dc6d 3abc 7bee fe3d d6d9 07bc 76d5 81bd
00000290: cdce cabc 6a97 26bd e73c 4cbd 321b 9b3d
000002a0: 3d34 edbc c018 bb3d 08f1 333d abfe 9f3d
000002b0: 678b 32bd 77e3 d8bc 605b 553d 8454 5e3d
000002c0: 4ee9 003d 5c65 64bd eeb0 3f3d aaec ae3d
000002d0: d8ac 063e f3df 54bb c9a4 053e 52bc d5bc
000002e0: fd48 6dbb bda3 b93c 219f ee3d dca3 28bc
000002f0: f3d4 233d e7e4 0c3e eae4 223e 49a4 133e
00000300: 94cc 793d 669e 833d bf6e 1abd e610 a43d
00000310: bc64 4a3b 93c9 be3d 3994 1ebd 2d7d dc3d
00000320: c9d4 fd3c 7445 9e3c a958 a33d a468 dc3d
00000330: fb1d 0d3d 9d18 153c faf8 083e a388 013e
00000340: 504e a23d d94c 733d e27b a03d 9a94 2fbd
00000350: d024 583d 9aa1 c63d 5723 57bd b2fd a63d
00000360: 9a73 773d c55f bf3c 86f8 0c3d 10ef ff3c
00000370: f615 31bc 35bf 673d 1c40 773c f89e 253d
00000380: 4094 133e 24a0 fe3d d595 803d 7e7e c9bc
00000390: b998 c03d 1b34 8b3b cd38 2a3e 3475 3abc
000003a0: 5dfc a43c 9727 3cbc 1c00 ce3c 7767 84bd
000003b0: 9280 b53c fc3d e33c cd07 c1bc cb9f 36bc
000003c0: af8e 133e 5055 d33c 405e 443d 6a77 ab3d
000003d0: 7f19 0b3e fd5f 69bc 7be2 9f3c 0b0d 0a3e
000003e0: ee77 ecbc 772c b63a 9247 fd3d d14d e63c
000003f0: bd2d 05bb 0517 4c3e ee58 d9bc 1fdd 8c3d
0.021549668 -0.04811496 0.066480346 0.05565307 0.05343842 0.16012725 -0.021583922 0.03765031
-0.00054490054 -0.08470921 0.068154424 0.02842423 -0.029994357 0.07034454 0.025919534 0.054667607
0.1314268 0.0876888 -0.061530292 -0.041995402 -0.07825366 0.1325046 0.073841795 -0.06671019
0.019584851 -0.0177393 -0.02384127 0.08256399 -0.040891778 -0.061287697 0.057993904 0.031974345
0.009198542 0.021322632 0.017572593 -0.031063046 0.10889624 0.14141032 0.0736362 -0.06124502
0.083166204 0.12647237 0.14424893 0.06857785 0.0022007253 0.10168504 -0.07339771 0.086055666
0.110558726 0.08913399 0.12554847 -0.023774054 0.101851024 -0.026230764 0.10448804 0.0063865664
0.020479891 -0.0051519303 -0.008887345 0.043261968 -0.04847803 -0.07044269 0.069175445 0.14777252
-0.0047670603 -0.0058770147 0.03869348 0.021635808 0.17261676 0.0364701 -0.05319769 0.0075549604
-0.051133372 -0.007133536 -0.0054235086 0.014479612 0.04571971 -0.046415117 0.041907173 0.13509487
0.069102526 -0.019531334 0.023776613 0.054689404 0.07429305 -0.035793334 -0.060951978 0.04198038
-0.006062525 0.1256241 0.002187998 -0.00504783 0.011104275 0.16690789 0.05119298 0.11533972
-0.09934175 0.108678766 0.12419396 -0.011239206 0.11716807 0.12957606 0.11045932 0.010988718
-0.10024509 -0.014248742 0.092535205 -0.014214826 0.09640426 0.077989005 0.034952577 0.065137155
0.003387433 -0.00376831 -0.04384689 -0.00023395628 0.06018673 -0.0010821527 -0.05655762 0.087345205
0.009776754 0.03953008 -0.043522608 -0.024943808 0.13989891 0.06812814 0.06284997 -0.07074105
0.090704426 0.088768765 0.06710549 0.08366466 0.10238429 -0.033676993 0.056596376 -0.021066548
0.11983676 0.087002866 -0.0358964 0.112746134 0.057541583 0.025011806 -0.027320463 -0.090904124
0.11304672 -0.056413244 0.02516169 0.10229543 -0.05148498 0.08705668 0.11211337 0.14133543
0.14414796 0.14128768 0.08918831 0.019289153 -0.009517611 -0.05450877 0.06841578 0.042116486
-0.011378732 0.1244783 -0.008291682 -0.063395426 -0.024756813 -0.040671743 -0.04986277 0.075735465
-0.028955573 0.0913558 0.043931037 0.07812246 -0.043589976 -0.026475651 0.052089095 0.05427982
0.031472497 -0.055760726 0.046799593 0.08541234 0.13151872 -0.0032482117 0.13051142 -0.026090775
-0.0036206834 0.022661084 0.11651445 -0.010292973 0.039998006 0.13759194 0.15907636 0.14418139
0.060986117 0.064266965 -0.037703272 0.080110356 0.0030882796 0.09315791 -0.038715575 0.10766063
0.030985253 0.019320227 0.07975895 0.10762146 0.03445242 0.009100107 0.13376227 0.12649779
0.07925093 0.05939946 0.07836129 -0.042866327 0.052769482 0.09698792 -0.052523937 0.08153857
0.06041298 0.023361096 0.034416698 0.031241924 -0.010808459 0.056578834 0.015090968 0.040434808
0.14412022 0.12432888 0.06278578 -0.024596449 0.094041295 0.004248155 0.1662323 -0.011380482
0.020139867 -0.011484048 0.025146537 -0.06465047 0.022156034 0.027739517 -0.02356329 -0.011146496
0.14409898 0.025797516 0.047941446 0.08372386 0.13583945 -0.014244077 0.019517174 0.13481538
-0.02886578 0.001389875 0.123671666 0.028113278 -0.0020321452 0.19930656 -0.026531663 0.06878113

bias f4 [44]
00000000: 2193 973d 2999 0fbe d41f 0ebe 88a9 163d
00000010: 8c8f e73c 64ab 43bc aa67 b6bd 06fa 1ebe
00000020: 0f0c 1ebd 3fbe 463d ee5c c6bd f432 4b3d
00000030: 927a 083c 5494 213d 7e84 4b3d f701 f33d
00000040: 0d70 afbc 3810 6d3d c45c 343d ac6e c53d
00000050: 20aa 38be 99d3 8ebd 3aac e13d 5e63 c4bc
00000060: 7bf1 553d f2aa 5bbd 15cf 73bd a79c ec3d
00000070: 58a1 5ebd e240 27be f2d5 7d3d 7f30 fcbd
00000080: fbe7 143e e6b6 963d 0b97 083e 56d8 18be
00000090: d1a4 943d 779e e6bd 8806 cf3c 976e 253c
000000a0: 6393 64bd d9cc 88bc bfe5 33be fe66 0fbe
0.074011095 -0.1402327 -0.13879329 0.03678277 0.02826669 -0.011942718 -0.08906491 -0.15525064
-0.03858572 0.048521277 -0.09685694 0.04960914 0.008330004 0.039448097 0.0496869 0.11865609
-0.021415735 0.057876796 0.04403378 0.096402496 -0.18033648 -0.06973953 0.11019178 -0.023973163
0.052232247 -0.053629823 -0.05952366 0.115533166 -0.05435309 -0.16333345 0.061971612 -0.123139374
0.14541619 0.07359104 0.13338868 -0.14926276 0.07257999 -0.112606935 0.025271669 0.010097167
-0.05580462 -0.016699241 -0.1756811 -0.14004132

weight f4 [22, 44]
00000000: 6b36 123e 523a 253e cc15 0c3e 5c60 653d
00000010: 2e1a 563e b234 0f3e 48bf 3fbd ff64 813d
00000020: cdf6 163e 0265 d83b f0ed 0c3d 72b6 833e
00000030: eda5 0c3e 2a6c f93d aa0a 39bd 2397 3c3e
00000040: 3848 273e 7c55 50bd c8b6 12bc abcd 303e
00000050: 5b7c a2bd a0c5 a6bd 2674 833c dd1a a5bb
00000060: c30d ae3c 3935 c9bd 2c03 c0bd 6603 a23c
00000070: 1984 053d 444c 253e dc49 7d3d 4bb4 d83c
00000080: ee53 653e 1a3b 46bc 68d7 5b3e e275 d0bd
00000090: 06e6 713e 91cd 8cbd d631 e7bc 8990 65bd
000000a0: b2a8 ff3c a3af bfbd fdf4 dd3d 079c d53d
000000b0: d9d2 a93d ae1e 243e f220 56bc f360 913d
000000c0: 5ae3 283d 4183 f73a b86a 3b3e 8ee2 ecbd
000000d0: 620a 513e 4824 f23d 97bb d5bd af68 363d
000000e0: 126a 193e cc00 b3bb 595c 933d fae7 023d
000000f0: 73d3 59bd 5eaf c7bd 6246 adbb 8a58 e03c
00000100: c3b4 183e 26f4 993d 50f7 adbd 89bc f33c
00000110: 10d4 3f3d fcb8 fcbb dbd5 483d e2bf f13d
00000120: 79ef 613d 6316 8d3d fd95 d13d b716 8d3d
00000130: a2bb cd3d aa3d 64bc e9b7 d43c b029 913d
00000140: 1aeb 993c 25e9 67bd 8d36 b53d 7d8d 193e
00000150: 234b 7d3e c902 07be 5a8e ddbd b02c 913c
00000160: d4cd ddbd 9c40 88bd acc9 6cbd 76f1 963c
00000170: 93d7 66bd 3ecb ac3d 69b2 12be 898f 87bd
00000180: 79df a1bb 6d95 ea3c 0560 643d 08f3 dabd
00000190: 6fb4 5ebd 96fd b9bc a7a5 59bd a0ba e1bd
000001a0: 962b 95bd 7406 9ebc 4a32 1a3d a49c 2dbc
000001b0: 4e61 e8bd 45cf 4cbd e758 c4bd 9e61 04be
000001c0: 31cc bc3b a6d9 3c3d ba11 d4bd decb a2bc
000001d0: 0ac5 1bbe 61ef f3bd 7f72 09be 8092 5dbc
000001e0: d265 a73d 2484 01bd a91e 36bd 410d ebba
000001f0: d44b b23d 0a81 bcbd 718c a5bd 4c8a f2ba
00000200: 6f3d 03bb a81e ccbd 218b d5ba 105c b6bd
00000210: 602e 563d fe14 253d 2966 ac3d d0d6 363b
00000220: c08c 0bbd 2fd8 30be a50b ef3d 1c44 e93d
00000230: 2c44 aabd d909 93bd aa7f 71bc af9c 27be
00000240: b553 003e a9ce 343e fbac 363e c53b 35be
00000250: 000c c33d b6f1 453e 0fda a53c 26bb 0abe
00000260: dfe6 17be 74ea 57bd c8d0 8b3e 0f8f 98bd
00000270: 5167 fc3d ba80 c33d e853 8f3d fe19 4a3e
00000280: f56d 16be 26e6 d4bd 5ab7 273e dec6 b73c
00000290: 4524 1abe c54c f03d 7c81 8bbe bf65 37be
000002a0: 6ebd fbbd 5d43 1abe bd18 36bd 5ce5 a03d
000002b0: 6b35 38be aa4f c73d 8501 eebd c361 e93d
000002c0: 8dc3 a3bb 198d 27bd 166b 0d3d 9c64 8fbe
000002d0: 9971 123e 5213 263e c361 f1bd 20e1 d6bd
000002e0: ade6 193d 665e 363e f504 0abe 6578 1b3e
000002f0: 50cb 10be b3e8 82be 80a7 7cbe ca73 073e
00000300: 71e1 0cbe d3e0 16be 7ca6 cdbd 98c6 5f3e
00000310: 90e8 08be b64f a0bd 20cb 4ebd b846 73be
00000320: 85d6 c6bd a1f1 e6bd 9f83 3dbd 29fd 95bd
00000330: 1255 79bd 532d ccbd 62a1 aebd f33e 16be
00000340: 8f4c f63d e399 003e d3fa d13d c1b2 2ebe
00000350: 1b77 24bc e9be 02bd a6bb 8dbe 23d7 a9bd
00000360: 77ef 5a3d 19d9 87be b59d 28be 9845 5c3d
00000370: 404d 383e fe3d f53c cc90 0c3e a7d1 7fbe
00000380: d4a4 0b3e a7b7 c33d 5332 90bd b38c 793d
00000390: db27 253d 66e3 613e 7195 6cbd e34a ed3d
000003a0: 516a 9ebd 53ea 8abc c07b 6abe fb97 f63d
000003b0: ec95 61be e626 25be e2e8 6ebe 75b4 6b3e
000003c0: d244 e4bd 4625 6abe 34ec 02be 13cd 58be
000003d0: b0a2 cebd 2b0a 5f3b 3c81 e9bd 4bd3 13be
000003e0: 6e5f adbc 8313 e9bd 47d2 19be ba6e ffbd
000003f0: 16d0 c13c d98f 2a3e fa86 f43d abcd c2bb
0.14278571 0.16135529 0.1368019 0.0560001 0.20908424 0.13984945 -0.04681328 0.063180916
0.14742585 0.006603838 0.034406602 0.25725132 0.1373517 0.12178834 -0.045176186 0.18417029
0.16336143 -0.050862774 -0.008954711 0.17265956 -0.07933875 -0.08143163 0.016046595 -0.0050386027
0.021246796 -0.098246045 -0.09375605 0.019777011 0.03259668 0.16142374 0.061838016 0.026453158
0.22395298 -0.012099052 0.2146889 -0.10178734 0.23622903 -0.06875146 -0.028222006 -0.056046043
0.03120837 -0.09359672 0.108377434 0.104301505 0.08292169 0.16027328 -0.013069378 0.0709857
0.041232444 0.0018883721 0.18302429 -0.115666494 0.20414117 0.11823326 -0.104361705 0.044533428
0.14981869 -0.0054627415 0.07195348 0.03195951 -0.05318017 -0.097502455 -0.0052879313 0.027385969
0.14912705 0.07517271 -0.08494437 0.029752987 0.046833098 -0.0077124815 0.049032073 0.11804177
0.05516002 0.068890356 0.10233686 0.06889098 0.10045554 -0.0139307175 0.025966601 0.070880294
0.018788863 -0.05661883 0.08848295 0.1499538 0.24735694 -0.13184656 -0.10818167 0.017721504
-0.10830274 -0.06652948 -0.057809517 0.018425684 -0.05635793 0.08437203 -0.1432587 -0.06619174
-0.00493997 0.028635705 0.055755634 -0.10690886 -0.054371294 -0.022703927 -0.053136494 -0.11021924
-0.07283704 -0.019290186 0.037645616 -0.010596428 -0.113466844 -0.050002355 -0.09587269 -0.12927863
0.005761646 0.046106003 -0.103549436 -0.019872602 -0.15211883 -0.11910892 -0.13422583 -0.013523698
0.081737176 -0.03162016 -0.044462834 -0.0017933027 0.08705869 -0.092043 -0.08083428 -0.001850435
-0.002002563 -0.09966785 -0.0016292074 -0.08904278 0.05229032 0.040303223 0.08417923 0.0027899034
-0.034069777 -0.17269967 0.11672143 0.11389944 -0.08313784 -0.07179613 -0.01473991 -0.16368364
0.12531932 0.1765696 0.17839424 -0.17698582 0.09523773 0.19330487 0.02024558 -0.13547954
-0.14834164 -0.052713826 0.27307725 -0.07449161 0.123243935 0.09546037 0.06998426 0.19736478
-0.14690383 -0.1039546 0.16378537 0.022433694 -0.15052898 0.117333926 -0.27247226 -0.17909907
-0.1229199 -0.1506476 -0.044457186 0.07856247 -0.17989127 0.097319916 -0.116213836 0.113956
-0.0049976767 -0.040906046 0.034525953 -0.28006446 0.14301147 0.16218308 -0.11786225 -0.10492158
0.037573505 0.17809448 -0.13478453 0.15182646 -0.14140058 -0.2556816 -0.24673271 0.13227764
-0.13757874 -0.14734201 -0.1004152 0.21853101 -0.13369966 -0.07827704 -0.050486684 -0.23757446
-0.09708885 -0.11276556 -0.0462681 -0.07323677 -0.060872145 -0.099695824 -0.08526875 -0.1467245
0.12026321 0.12558703 0.10252919 -0.17060377 -0.010038163 -0.031920347 -0.27682227 -0.08292987
0.053451028 -0.2653282 -0.1646641 0.053777307 0.17998219 0.029936787 0.1372711 -0.2498232
0.13637096 0.09556513 -0.070408486 0.060925197 0.040321212 0.22059402 -0.057759706 0.11586549
-0.07735122 -0.016957438 -0.2289877 0.12040707 -0.22029847 -0.1612812 -0.23331025 0.23018058
-0.11145939 -0.22865781 -0.12785417 -0.2117198 -0.10089624 0.003403316 -0.114016026 -0.1443607
-0.021163668 -0.11380675 -0.1502162 -0.12472291 0.023658793 0.16656436 0.11939807 -0.0059449277

bias f4 [22]
00000000: 45c3 0cbe 9bf3 b6bd 5b21 25be f254 e73e
00000010: c736 c53e f9de 723e 6056 36be 76d5 8b3e
00000020: 4745 dfbc 262a c83e fcb7 57be b854 7b3e
00000030: 874f 5b3e b880 42be 3091 35be a220 853e
00000040: b84d eb3e 1ec1 83bd 10e2 bdbd 8703 c43e
00000050: a802 e4bc 1b09 723b
-0.13746364 -0.08933183 -0.16126005 0.45181996 0.38518354 0.2371787 -0.17806387 0.27311295
-0.027254714 0.39094657 -0.21066278 0.24544036 0.21417056 -0.18994415 -0.17731166 0.2600146
0.45957732 -0.064333186 -0.092716336 0.3828394 -0.027833298 0.0036931697

weight f4 [3, 22]
00000000: e524 85be 43cd 54be 5004 95bc 11aa 243e
00000010: f6b4 47be bfc7 a7be 12ef 0fbe 83e7 813e
00000020: 1fde 7cbd aa6a 7bbe ab96 6bbe 8fc0 84be
00000030: 1830 1c3e fef4 61be 51bd e6bd f28c 90be
00000040: ce3f 90bd 980f aa3d 9171 9bbd fb52 01be
00000050: cfd4 f13d 037e a23d 798a 1a3e e222 cdbc
00000060: 6814 84bd 7535 0dbd 9dd9 08be e155 89bd
00000070: 083b 8e3e 14f7 4a3e 3730 273e af08 78be
00000080: 306b 183d 9383 63be d2b2 4b3e f647 bdbc
00000090: 2ddf 643e 8ced 90be 80ca 6bbe f468 4b3e
000000a0: be08 953d e07a e1bd 2e55 b13c 83a7 2e3e
000000b0: 6987 3d3e ee5a 38be 5e72 c03a 9414 9dbe
000000c0: d384 a43e e6e3 103e b732 273e e3ab 64bc
000000d0: 836d c43d 9922 9c3e 4b95 6ebd 0b7d 473e
000000e0: d443 64be 9cd3 21bd 7d3a 263e 4cea 9e3e
000000f0: 06a6 9b3e a084 b43d 8a50 56bc 1f95 c93e
00000100: 98b4 e8bd a031 a93d
-0.2600471 -0.20781426 -0.018190533 0.160805 -0.19502625 -0.32769582 -0.14056042 0.25371942
-0.06173527 -0.24552408 -0.23006694 -0.2592816 0.15252721 -0.22066113 -0.11266578 -0.28232533
-0.0704342 0.083037555 -0.075900204 -0.12629311 0.11808168 0.07934191 0.15091886 -0.025041047
-0.06449205 -0.03447481 -0.13364263 -0.06705833 0.27779412 0.19820815 0.16326986 -0.24222063
0.037211597 -0.2221816 0.19892433 -0.023105603 0.2235076 -0.28306234 -0.23026466 0.19864255
0.07277058 -0.11009765 0.021647062 0.17056088 0.18508686 -0.18003437 0.0014682522 -0.30679762
0.32132587 0.14149436 0.1632794 -0.013956997 0.095912 0.30495146 -0.058247846 0.19481294
-0.222915 -0.039508447 0.16233249 0.3103813 0.30400103 0.08814359 -0.013080725 0.39371583
-0.113625705 0.08261418

bias f4 [3]
00000000: 7ac5 033f 3cf9 fbbe 6bb3 88be
0.514732 -0.49213588 -0.26699385
