Dublicate Questions Detection/Deeplearning/models/three_branch_full.pth (torch, 462741 bytes, 39 tensors)

weight_ih_l0 f4 [200, 50]
-0.15196499 -0.06479444 0.12399677 -0.011304386 -0.025932442 -0.036899257 0.02200535 0.061267003
0.06660316 -0.008123497 -0.0644545 0.04787606 8.28771e-06 -0.03046033 0.013760486 -0.03270996
0.03891003 0.05935814 -0.19652346 -0.054432828 0.025068548 -0.056042697 -0.010999735 -0.086283945
-0.06267255 -0.040203065 -0.03175407 -0.034357984 -0.099185064 -0.123009786 -0.15730888 -0.16457838
-0.16265042 -0.028109463 -0.030410642 -0.06644573 -0.018540183 0.036283776 -0.08614166 0.12256851
-0.10232335 0.08390775 0.06409197 -0.08837765 -0.0103113875 0.091436416 0.032661363 0.1283
-0.09082303 -0.07465989 -0.001496584 -0.113757156 0.1741191 0.06717034 -0.071216576 -0.20370945
0.00020853641 -0.0022631064 0.04194265 0.12361433 0.11539914 -0.07870969 0.105529755 -0.08331297
0.053893913 -0.051826596 0.23175742 -0.010640913 0.009541975 -0.10548094 0.24573189 0.08113783
0.17893024 -0.03996283 -0.08170147 -0.08441414 -0.010126893 -0.02593502 0.03396647 0.14867601
-0.05587509 -0.07949193 0.029172426 0.005899275 0.014751533 0.100554414 -0.13100764 0.036577005
0.10914687 -0.020020828 -0.04853792 -0.113530986 -0.08361389 -0.004541886 0.070797704 0.13460484
-0.026911931 0.016625287 0.18320893 0.08488145 -0.16027743 0.07081625 0.0049154744 0.027295183
-0.17771794 0.12273755 0.13154693 0.03600446 -0.004651678 0.07646978 0.15889502 0.11693249
0.11427847 -0.0090143895 0.040985327 -0.12649193 0.13362725 0.0830993 -0.010546892 0.11013887
-0.0932821 0.08773063 -0.12399514 0.13448244 0.08682411 0.14960763 0.04619454 -0.019827362
0.1748447 0.018185508 0.10031797 0.009961767 -0.020578843 -0.036309466 -0.031759404 -0.04168301
0.008718286 -0.1424611 0.1637109 -0.012879647 0.009395384 -0.09965745 -0.15665817 -0.11344565
0.11317246 0.044164065 0.13242127 -0.04209023 -0.06941126 0.18445954 0.015088802 0.042317767
-0.08721176 0.081004985 0.16676101 0.010206812 -0.013740252 0.017014474 -0.13812149 0.058161188
0.04619588 -0.058971595 -0.1416137 -0.10743535 -0.014629434 -0.08491338 0.051855918 0.1262503
-0.036734216 -0.022737047 -0.05300955 -0.15088649 0.09336195 -0.09580667 -0.012406528 -0.01496234
0.03943043 -0.1276572 0.14234428 -0.07580772 -0.049897086 -0.20020255 0.11068162 0.14006269
-0.027735576 -0.09052549 0.0094529865 -0.13817489 0.06693011 0.064504534 -0.09847009 -0.11553299
0.0034950846 0.09845828 0.03312203 -0.16059603 -0.0050540776 -0.05705496 -0.01954699 0.036327686
0.023173133 0.0966181 0.016093133 -0.1479997 -0.00045209462 -0.03430823 -0.15444472 -0.0022875005
0.0373439 0.092008345 -0.1468613 -0.0681599 0.08002719 0.04830188 0.08804685 0.0065372684
-0.17279096 0.09394437 -0.056244962 -0.030142168 0.14457649 0.107821934 -0.108483 0.05811045
-0.07885191 -0.106552675 -0.07937082 0.14974762 -0.037111785 0.116267376 -0.018397188 0.13646968
-0.1395811 -0.033339273 0.13434353 -0.058071546 -0.09292936 -0.0026616843 0.10047964 0.07430139
0.04227373 0.0063853376 0.042354126 -0.015258731 0.014279076 0.003444062 -0.08896643 -0.028519534
-0.037516866 -0.042549603 0.08662321 -0.07409165 0.012442556 0.023999972 0.12817319 0.035773944
00000000: b69c 1bbe f3b2 84bd 05f2 fd3d 0836 39bc
00000010: 4670 d4bc ad23 17bd 9044 b43c 1cf3 7a3d
00000020: 3d67 883d 6a18 05bc b900 84bd b019 443d
00000030: 720b 0b37 f187 f9bc a973 613c e1fa 05bd
00000040: 2060 1f3d 8521 733d 723d 49be f5f4 5ebd
00000050: 8e5c cd3c 078d 65bd 3c38 34bc a3b5 b0bd
00000060: 775a 80bd f8ab 24bd 8e10 02bd f5ba 0cbd
00000070: 8a21 cbbd 8eec fbbd 9415 21be 3c87 28be
00000080: d58d 26be d145 e6bc bd1f f9bc b314 88bd
00000090: 95e1 97bc 4c9e 143d 0a6b b0bd 3305 fb3d
000000a0: e88e d1bd d4d7 ab3d a742 833d 57ff b4bd
000000b0: 18f1 28bc 0443 bb3d ecc7 053d 1361 033e
000000c0: 6d01 babd 49e7 98bd 0729 c4ba 83f9 e8bd
000000d0: 474c 323e 9a90 893d ffd9 91bd 3699 50be
000000e0: 91aa 5a39 a050 14bb 0ecc 2b3d 8329 fd3d
000000f0: 6256 ec3d 8c32 a1bd fc1f d83d fe9f aabd
00000100: ddbf 5c3d 2048 54bd d151 6d3e 3957 2ebc
00000110: f255 1c3c 6406 d8bd 24a1 7b3e 972b a63d
00000120: 7d39 373e 10b0 23bd 1a53 a7bd 52e1 acbd
00000130: 45eb 25bc ae75 d4bc 6d20 0b3d 863e 183e
00000140: 47dd 64bd aacc a2bd 03fb ee3c b54e c13b
00000150: 6ab0 713c 79ef cd3d de26 06be c5d1 153d
00000160: 6588 df3d b802 a4bc b3cf 46bd ef82 e8bd
00000170: c23d abbd 1ad4 94bb 63fe 903d dad5 093e
00000180: 6976 dcbc c131 883c 1f9b 3b3e 53d6 ad3d
00000190: c41f 24be 1c08 913d fd11 a13b 269a df3c
000001a0: b1fb 35be d35d fb3d 3db4 063e 6a79 133d
000001b0: 1a6d 98bb 309c 9c3d 60b5 223e 4d7a ef3d
000001c0: d50a ea3d 17b1 13bc 3be0 273d 1a87 01be
000001d0: 95d5 083e f72f aa3d dfcc 2cbc 7d90 e13d
000001e0: b00a bfbd 1eac b33d 2af1 fdbd c4b5 093e
000001f0: d7d0 b13d be32 193e 7c36 3d3d fe6c a2bc
00000200: 7d0a 333e c6f9 943c 8273 cd3d ae36 233c
00000210: f694 a8bc 3cb9 14bd 2616 02bd cebb 2abd
00000220: 24d7 0e3c 53e1 11be d5a3 273e 2805 53bc
00000230: 19ef 193c 3519 ccbd 006b 20be 3156 e8bd
00000240: f6c6 e73d 61e5 343d 7199 073e ce66 2cbd
00000250: 7e27 8ebd f6e2 3c3e 0637 773c 6555 2d3d
00000260: 149c b2bd f1e5 a53d 66c3 2a3e 793a 273c
00000270: cb1e 61bc f061 8b3c b86f 0dbe 6d3a 6e3d
00000280: e437 3d3d 338c 71bd 2f03 11be 1107 dcbd
00000290: 4bb0 6fbc 11e7 adbd df66 543d c247 013e
000002a0: 9e76 16bd 0b43 babc 8b20 59bd fd81 1abe
000002b0: 8d34 bf3d 4a36 c4bd c044 4bbc 9a24 75bc
000002c0: cd81 213d 92b8 02be b3c2 113e 1441 9bbd
000002d0: e360 4cbd e601 4dbe 0cad e23d 986c 0f3e
000002e0: b835 e3bc 6e65 b9bd b3e0 1a3c b87d 0dbe
000002f0: a712 893d f41a 843d b0aa c9bd 8f9c ecbd
00000300: ca0d 653b 7fa4 c93d f7aa 073d 4973 24be
00000310: ad9c a5bb 76b2 69bd 0221 a0bc 57cc 143d
00000320: 95d5 bd3c b6df c53d bfd5 833c 3c8d 17be
00000330: 1d07 edb9 c986 0cbd c226 1ebe e4e9 15bb
00000340: ebf5 183d df6e bc3d cf62 16be 6b97 8bbd
00000350: 4ce5 a33d 31d8 453d e851 b43d 9536 d63b
00000360: 1df0 30be e865 c03d 1e61 66bd b5ec f6bc
00000370: dc0b 143e bfd1 dc3d 562c debd 3905 6e3d
00000380: 1c7d a1bd 4a38 dabd 2b8d a2bd 7157 193e
00000390: 8702 18bd 971d ee3d b3b5 96bc b5be 0b3e
000003a0: 59ee 0ebe c38e 08bd 5a91 093e 6edc 6dbd
000003b0: c051 bebd a76f 2ebb 45c8 cd3d 542b 983d
000003c0: 3827 2d3d 183c d13b 857b 2d3d c2ff 79bc
000003d0: c9f2 693c c6b5 613b 0834 b6bd cca1 e9bc
000003e0: 49ab 19bd 7e48 2ebd 8267 b13d 5dbd 97bd
000003f0: dddb 4b3c 979b c43c d53f 033e b387 123d

weight_hh_l0 f4 [200, 50]
-0.11480546 -0.14927863 0.055514786 -0.085257046 -0.15801072 -0.22502454 -0.19523272 0.13563979
-0.24630162 0.15392798 0.17090228 0.06312492 -0.022377267 0.16571227 -0.26877257 0.12440507
0.09568073 0.084855646 0.058356505 -0.14610437 0.24197415 0.037698522 0.18792926 -0.0884668
-0.023848211 -0.12418927 -0.07270221 0.14834258 -0.023006227 -0.2399359 0.015176757 0.19990925
0.03245604 -0.13630787 -0.04579628 -0.26682264 -0.1070869 0.14126459 0.13359745 -0.15532811
0.12727295 -0.15022282 0.13124035 -0.05517407 -0.10795532 -0.041394804 0.022033252 0.06928459
0.110850476 0.015739921 -0.14916869 -0.011339066 0.21312574 0.03819778 -0.034075603 -0.22216605
-0.0054934686 0.1778122 0.23704545 0.19661653 0.078369014 0.032131974 0.241196 0.021657703
0.078824185 0.036393624 0.17421001 -0.0051697935 -0.14157775 0.075668626 -0.017725766 0.090426214
0.15012178 -0.20303462 -0.06100315 0.080913946 0.08221376 0.02768929 -0.018154336 0.12120365
-0.027271658 0.16926992 0.009508539 -0.08987024 0.11630196 -0.085853696 -0.020112557 -0.08209222
-0.13461362 0.16345508 0.034966547 -0.0792047 -0.06819467 -0.08612226 0.07310453 0.12998854
-0.09475932 -0.007196559 -0.16521768 0.12868282 -0.057155274 0.27243158 -0.16699284 -0.17155956
0.020068862 -0.074751705 -0.12350628 0.0036927168 0.21325786 0.1322081 0.022623679 -0.039339595
-0.057252496 -0.005380112 -0.1259013 0.061081298 0.07239227 0.109002285 0.004838364 0.004190957
0.0773597 -0.2474668 0.13589998 -0.18152757 -0.084243864 0.061681546 0.13411954 0.13576838
0.01967939 -0.041589264 -0.16516499 -0.06966582 0.022684507 -0.05251617 0.07946991 0.08662271
-0.20768033 0.11766439 -0.1491264 0.024972957 0.01864358 -0.31308407 0.15118942 0.038281266
0.038750987 -0.1530584 -0.0064902594 0.108584836 0.04691517 0.14540665 0.07965355 0.029957099
-0.056129504 -0.063398615 -0.16936806 -0.12062038 -0.089216836 0.07736291 0.09740208 0.07960678
0.025847752 0.028543243 -0.14151932 0.009394638 -0.02172028 -0.11326917 -0.057955537 -0.026884077
-0.030711185 -0.06417943 -0.24771246 0.08855894 -0.0044146837 -0.19756494 -0.055090938 -0.17995577
0.005697466 0.05760328 0.17450902 -0.0038719485 -0.058570776 -0.041863445 -0.11540644 0.06713914
0.18816225 -0.0048718187 -0.061268125 0.0072429143 -0.042388126 0.058881946 -0.15038522 -0.048290867
0.0230163 -0.059846167 0.004579738 -0.14395851 0.10615508 0.18884537 0.020885916 -0.1468277
-0.039685275 -0.030754423 -0.036532167 -0.05447156 -0.058937524 0.046633415 0.06644644 0.112207115
0.17238115 0.28282067 -0.11232154 -0.10120756 -0.05081064 0.03721074 0.04090614 0.011138776
0.069383316 0.23489378 0.07054281 -0.038811043 -0.17456797 -0.05785521 0.18904147 -0.0243356
-0.06920609 -0.0753148 -0.1154085 0.14992985 -0.13958187 -0.12505098 -0.04165346 0.05426048
-0.014899746 -0.05850282 0.09440804 0.08129411 0.084365994 0.056526307 -0.051140677 0.14373451
0.21220785 -0.057299715 -0.085346185 -0.056958076 0.13623533 -0.10604571 0.06460328 -0.09775739
0.046179444 -0.030567938 0.032310452 -0.19431281 -0.1411884 -0.058029797 -0.025444545 0.07113299
00000000: 201f ebbd 7fdc 18be 7963 633d 3f9b aebd
00000010: 90cd 21be d56c 66be 16eb 47be 28e5 0a3e
00000020: 7e36 7cbe 4c9f 1d3e 0201 2f3e a347 813d
00000030: 8850 b7bc 7ab0 293e 8f9c 89be 16c8 fe3d
00000040: 42f4 c33d ccc8 ad3d 3b07 6f3d 629c 15be
00000050: 12c8 773e c469 1a3d 8770 403e 152e b5bd
00000060: 535d c3bc f256 febd e5e4 94bd 1ee7 173e
00000070: 8e77 bcbc c2b1 75be efa7 783c 03b5 4c3e
00000080: a0f0 043d 4a94 0bbe e194 3bbd fa9c 88be
00000090: 6050 dbbd aaa7 103e c5cd 083e 550e 1fbe
000000a0: d753 023e 03d4 19be df63 063e 35fe 61bd
000000b0: ae17 ddbd 998d 29bd 147f b43c 14e5 8d3d
000000c0: 9305 e33d 02f1 803c adbf 18be 7dc7 39bc
000000d0: a23d 5a3e 4675 1c3d dc92 0bbd 7f7f 63be
000000e0: 8e02 b4bb 6714 363e 0bbc 723e d855 493e
000000f0: ef7f a03d d19c 033d 16fc 763e 7f6b b13c
00000100: 936e a13d 7b11 153d 1c64 323e 5f67 a9bb
00000110: c2f9 10be 27f8 9a3d a035 91bc 6131 b93d
00000120: 86b9 193e 4fe8 4fbe 70de 79bd 36b6 a53d
00000130: b05f a83d a6d4 e23c 67b8 94bc 9f39 f83d
00000140: d068 dfbc 1855 2d3e b4c9 1b3c e30d b8bd
00000150: b92f ee3d 10d4 afbd 17c3 a4bc f71f a8bd
00000160: 27d8 09be c560 273e 1539 0f3d 1336 a2bd
00000170: a6a9 8bbd de60 b0bd d4b7 953d b71b 053e
00000180: 2d11 c2bd 1dd1 ebbb d32e 29be 6ec5 033e
00000190: a61b 6abd 277c 8b3e 2c00 2bbe 4fad 2fbe
000001a0: 7467 a43c 6c17 99bd dcf0 fcbd 8201 723b
000001b0: 4560 5a3e 8f61 073e 4b55 b93c 8e22 21bd
000001c0: 9881 6abd a74b b0bb 45ec 00be 6230 7a3d
000001d0: 6642 943d 973c df3d 248b 9e3b 4c54 893b
000001e0: c36e 9e3d f067 7dbe 5d29 0b3e 5de2 39be
000001f0: 0c88 acbd caa5 7c3d a256 093e de06 0b3e
00000200: ac36 a13c 8159 2abd 0321 29be f4ac 8ebd
00000210: dcd4 b93c 321b 57bd 1fc1 a23d 3f67 b13d
00000220: 27aa 54be 07fa f03d 97b4 18be 1694 cc3c
00000230: 6cba 983c 8e4c a0be 66d1 1a3e d1cc 1c3d
00000240: 5bb9 1e3d 57bb 1cbe 3eac d4bb ba61 de3d
00000250: 1f2a 403d 7be5 143e 6721 a33d 9768 f53c
00000260: 0de8 65bd 22d7 81bd d26e 2dbe d107 f7bd
00000270: 51b7 b6bd 7270 9e3d be7a c73d e108 a33d
00000280: aabe d33c 85d3 e93c 71ea 10be f8eb 193c
00000290: bbee b1bc abf9 e7bd c962 6dbd ff3b dcbc
000002a0: 0696 fbbc 8170 83bd 56a8 7dbe 645e b53d
000002b0: 0da9 90bb 774e 4abe 09a7 61bd 5346 38be
000002c0: cfb1 ba3b 6bf1 6b3d 7eb2 323e 84c0 7dbb
000002d0: e9e7 6fbd 0179 2bbd 365a ecbd 3f80 893d
000002e0: 9bad 403e c7a3 9fbb 49f4 7abd f855 ed3b
000002f0: 2c9f 2dbd 322e 713d 95fe 19be a5cc 45bd
00000300: ae8c bc3c 4121 75bd a011 963b dc69 13be
00000310: d667 d93d ae60 413e f118 ab3c 005a 16be
00000320: 078d 22bd b3f0 fbbc c1a2 15bd 921d 5fbd
00000330: 7968 71bd ae02 3f3d 1215 883d d8cc e53d
00000340: af84 303e dfcd 903e d608 e6bd e945 cfbd
00000350: d11e 50bd 4a6a 183d 328d 273d 6a7f 363c
00000360: d718 8e3d ff87 703e c078 903d 54f8 1ebd
00000370: f2c1 32be 96f9 6cbd 1694 413e 745b c7bc
00000380: ecbb 8dbd a53e 9abd 4b5b ecbd 3687 193e
00000390: 8dee 0ebe 5d0d 00be d29c 2abd 3d40 5e3d
000003a0: 101e 74bc a7a0 6fbd 0159 c13d 877d a63d
000003b0: 14c8 ac3d 2188 673d e378 51bd 242f 133e
000003c0: 044d 593e 1bb3 6abd fbc9 aebd df4c 69bd
000003d0: 4681 0b3e 7e2e d9bd b94e 843d 0735 c8bd
000003e0: a826 3d3d 9d69 fabc f757 043d f0f9 46be
000003f0: b193 10be a7b0 6dbd 1471 d0bc 2cae 913d

bias_ih_l0 f4 [200]
-0.04704933 -0.059576128 -0.017399607 0.15725407 -0.05470126 -0.10456948 -0.065546535 -0.09048708
-0.015334551 -0.11355987 -0.009315097 0.1319455 -0.13293341 0.15925938 0.1999146 -0.07784112
0.08427472 -0.04699402 -0.00761923 0.14697026 -0.040331736 0.11155936 -0.10507364 0.1058777
0.11543765 0.09939527 -0.029544748 0.16426939 0.09945783 0.105485305 -0.010845553 -0.035850745
0.10974277 0.08043923 0.06295234 0.028632715 -0.0069824876 0.0119688865 0.15367718 0.065821245
0.0474653 0.12226424 -0.018632235 -0.024352321 0.025356969 0.038199548 0.14124104 -0.026438694
-0.04988664 -0.025250845 -0.04742342 -0.113550134 -0.014893808 0.10084291 0.17355046 0.105443016
0.012822828 0.12188687 0.017726913 0.022504663 0.025060542 0.105664864 0.09692037 0.18238044
0.058842458 0.045940552 0.05920375 0.1920934 0.171782 0.129265 0.1962812 -0.07866583
-0.0516934 0.036895603 0.07728298 0.09883556 -0.10731727 0.09806673 -0.019803876 0.06132183
0.18229999 0.08756659 0.15997067 0.0016489116 -0.004935102 -0.084889516 0.08782058 0.14517625
0.036902834 0.057053775 0.09573945 0.031458173 0.18842898 0.1616826 0.14101388 0.02048886
0.059394818 0.030320384 0.19741504 0.13030028 -0.0065770177 -0.086550094 0.039358057 -0.1399781
0.051048055 0.028345462 -0.06387284 -0.0077292086 0.03637759 0.118546456 0.018912064 -0.15329869
0.08246069 0.01557904 -0.053109728 -0.024053417 0.12124373 -0.00664803 -0.14432864 -0.13881946
0.04619401 0.026813503 -0.041539825 -0.0043343846 -0.03864743 -0.092390634 -0.01657741 0.100427255
-6.1429615e-05 -0.08392952 -0.026080532 0.13590084 -0.10839137 -0.07569207 0.12411606 -0.11585314
-0.11946728 0.09160529 0.0030846195 -0.093324006 -0.100767866 -0.08992616 0.020840188 0.0032895254
0.14055261 0.10427698 0.07894488 0.1068806 0.008496669 0.15547135 0.019195514 -0.0018919305
0.08600774 -0.0301735 -0.045072924 -0.004449951 0.041953374 0.04816084 -0.07754422 0.06089059
-0.051260285 -0.049211245 -0.00991967 0.0707677 0.1784843 0.04150025 0.13631013 0.14375687
0.21547937 0.15140061 0.04925762 -0.07111097 -0.011626746 -0.12471943 -0.087496035 -0.063990004
-0.07983725 0.10037997 0.021900263 -0.037838828 0.02222994 0.034329485 -0.02653301 0.11717767
-0.004497937 0.014556917 -0.0713833 0.06873572 -0.00850981 -0.09134904 0.18454519 -0.0955256
0.06615967 0.056945663 0.04005266 -0.08356789 0.18073623 0.12040827 0.015602524 -0.044228822
00000000: ccb6 40bd 1906 74bd 9f89 8ebc 3607 213e
00000010: 6e0e 60bd 8628 d6bd 433d 86bd 4a51 b9bd
00000020: c53d 7bbc 1492 e8bd 599e 18bc b91c 073e
00000030: b21f 08be e414 233e 6ab6 4c3e 2a6b 9fbd
00000040: 3998 ac3d cd7c 40bd bcaa f9bb 5f7f 163e
00000050: e432 25bd 3c79 e43d d930 d7bd 68d6 d83d
00000060: 936a ec3d bf8f cb3d d407 f2bc 3c36 283e
00000070: 8cb0 cb3d ae08 d83d 8cb1 31bc 3bd8 12bd
00000080: d1c0 e03d 53bd a43d 28ed 803d 288f ea3c
00000090: 5acd e4bb 2619 443c 8d5d 1d3e 4acd 863d
000000a0: f96a 423d ad65 fa3d a1a2 98bc 857e c7bc
000000b0: 6bb9 cf3c 2177 1c3d 7ea1 103e f695 d8bc
000000c0: ef55 4cbd dcda cebc 0f3f 42bd f98c e8bd
000000d0: 2905 74bc ba86 ce3d 36b7 313e 82f2 d73d
000000e0: d716 523c d39f f93d 0838 913c b35b b83c
000000f0: c44b cd3c d266 d83d 307e c63d f0c1 3a3e
00000100: ca04 713d 292c 3c3d a27f 723d 22b4 443e
00000110: 9fe7 2f3e 0b5e 043e f0fd 483e 8d1b a1bd
00000120: 75bc 53bd d81f 173d 8a46 9e3d 4c6a ca3d
00000130: 28c9 dbbd 36d7 c83d bd3b a2bc 992c 7b3d
00000140: d9ac 3a3e 1d56 b33d 5acf 233e 4b20 d83a
00000150: a3b6 a1bb 8eda adbd 47db b33d 15a9 143e
00000160: 6d27 173d 38b1 693d 0b13 c43d 49da 003d
00000170: 87f3 403e 2090 253e f165 103e 41d8 a73c
00000180: fb47 733d 7462 f83c 2b27 4a3e 706d 053e
00000190: 0684 d7bb 2d41 b1bd ea35 213d 6b56 0fbe
000001a0: c417 513d be34 e83c c3cf 82bd 4d45 fdbb
000001b0: ab00 153d 7cc8 f23d 79ed 9a3c 55fa 1cbe
000001c0: 26e1 a83d 3b3f 7f3c 9689 59bd ac0b c5bc
000001d0: a24e f83d b8d7 d9bb e3ca 13be b026 0ebe
000001e0: ee35 3d3d fea7 db3c aa25 2abd 7407 8ebb
000001f0: c44c 1ebd 4d37 bdbd 59cd 87bc ceac cd3d
00000200: c6d3 80b8 3de3 abbd d7a6 d5bc 9729 0b3e
00000210: 4bfc ddbd 7204 9bbd 9030 fe3d 6944 edbd
00000220: 43ab f4bd 8e9b bb3d 5427 4a3b a820 bfbd
00000230: 625f cebd 352b b8bd 0bb9 aa3c 1495 573b
00000240: 06ed 0f3e 2b8f d53d daad a13d 37e4 da3d
00000250: 9d35 0b3c e233 1f3e e93f 9d3c a7fa f7ba
00000260: d324 b03d 6a2e f7bc 639e 38bd e5d0 91bb
00000270: 4dd7 2b3d 4d44 453d 81cf 9ebd 6968 793d
00000280: 4ef6 51bd bb91 49bd 1d86 22bc a8ee 903d
00000290: 97c4 363e 2bfc 293d e294 0b3e 0035 133e
000002a0: a0a6 5c3e c308 1b3e 5cc2 493d a1a2 91bd
000002b0: 1b7e 3ebc e76c ffbd 1f31 b3bd 310d 83bd
000002c0: b681 a3bd 0494 cd3d 2e68 b33c e3fc 1abd
000002d0: 901b b63c 139d 0c3d c15b d9bc d9fa ef3d
000002e0: 6e63 93bb 2380 6e3c 6831 92bd 50c5 8c3d
000002f0: bb6c 0bbc 3515 bbbd 6af9 3c3e eda2 c3bd
00000300: b97e 873d db3f 693d 420e 243d a425 abbd
00000310: eb12 393e 9c98 f63d bba1 7f3c 4829 35bd

bias_hh_l0 f4 [200]
0.21915741 -0.08441247 0.0629574 0.06841579 0.15903874 -0.122284204 0.105475344 0.12579575
0.03078581 0.0641677 0.020493183 0.09139439 0.036836997 0.079204924 0.015567209 0.16975154
0.16088982 0.021651058 0.0104611 0.060928747 0.03483169 0.13706589 0.1344717 -0.05918079
-0.10425301 -0.012939872 -0.029610856 -0.013029901 -0.009846548 0.16868757 0.07922328 0.06864839
0.12794353 0.15480128 -0.07771325 0.04069984 -0.04219927 -0.076591864 0.2384917 0.05284394
-0.060922194 0.12808697 0.12000072 -0.02616125 0.14237554 0.0022007036 -0.018861422 0.026581671
-0.010988221 -0.065618284 0.016282082 -0.0016613388 0.16079472 0.13563868 -0.06808047 0.033238612
0.13020782 -0.048212074 0.0046423683 -0.082510255 0.15603551 0.14476503 0.026668064 0.22957242
0.011464082 0.1973859 -0.013949119 -0.013615828 0.0409011 0.009759381 -0.013685785 -0.0068156603
0.11006614 -0.008441732 0.17336746 -0.099631906 0.070502475 0.19285695 0.18585634 -0.02523862
0.13021591 0.08259768 -0.0015405536 0.10896281 0.15086749 0.17432763 0.09622598 0.11666571
0.22942759 0.05062757 0.19974759 0.038373325 -0.032852627 0.001442741 0.18105426 0.022029579
-0.09768695 -0.019468669 -0.03948516 0.01061093 -0.1006049 0.15971014 0.09276026 -0.09911338
0.0015163425 -0.006535414 0.021294069 0.10854268 0.06959722 0.029649926 -0.07455558 -0.05302339
-0.13705906 -0.08799044 -0.04447032 -0.020370627 -0.06590525 0.06945459 0.016850831 -0.106182314
0.08660705 -0.13151278 0.07270079 2.9149998e-05 -0.064855255 -0.0527283 -0.056311235 -0.09661802
-0.13066372 0.013201868 0.15170693 0.018753387 0.08827119 -0.13470875 -0.02247189 0.06847496
-0.1506954 0.041031025 0.041307587 -0.051340252 0.13411869 -0.04016541 0.061536353 0.04145103
0.12811959 -0.023591613 0.04858011 -0.042672522 0.11947787 0.10740392 -0.03294662 0.19084036
0.030785995 0.05470896 0.06077564 0.12920752 -0.021403223 0.033795547 0.005751988 0.024123041
0.16434284 0.053322624 -0.05566122 0.18513004 -0.04009458 0.13552353 0.06715577 0.044925768
0.010786484 -0.00045346585 0.06022954 0.17746411 -0.08136614 0.050155073 0.12657678 -0.0702459
0.13915943 0.10783687 0.14596976 0.15148802 0.20204888 0.15803857 0.10198391 0.047199253
-0.07010796 -0.019249018 -0.086430095 0.12839486 0.06875233 0.054851994 0.11274331 0.007145418
0.1610725 0.0034510104 0.03437474 0.13596511 -0.06486449 0.12293446 0.0052334536 -0.10853074
00000000: cd6a 603e 72e0 acbd cfef 803d 941d 8c3d
00000010: 0ddb 223e 2470 fabd 7503 d83d 9ad0 003e
00000020: 8632 fc3c 5b6a 833d 52e1 a73c fb2c bb3d
00000030: 64e2 163d 3136 a23d 9b0d 7f3c 59d3 2d3e
00000040: 4dc0 243e 8f5d b13c 0965 2b3c 6c90 793d
00000050: adab 0e3d 005b 0c3e f3b2 093e 8e67 72bd
00000060: 9a82 d5bd c201 54bc 7792 f2bc 5e7b 55bc
00000070: 6a53 21bc 6fbc 2c3e d13f a23d 8797 8c3d
00000080: a103 033e 3a84 1e3e 2028 9fbd e0b4 263d
00000090: 24d9 2cbd 32dc 9cbd 2b37 743e e372 583d
000000a0: 8d89 79bd 3b29 033e f0c2 f53d 1e50 d6bc
000000b0: e5ca 113e ae39 103b 4583 9abc cec1 d93c
000000c0: f007 34bc e162 86bd 0062 853c 48c1 d9ba
000000d0: 5fa7 243e dee4 0a3e c66d 8bbd 3625 083d
000000e0: 3355 053e 067a 45bd 021f 983b 23fb a8bd
000000f0: c6c7 1f3e 493d 143e fc76 da3c 0815 6b3e
00000100: d8d3 3b3c 881f 4a3e d88a 64bc ec14 5fbc
00000110: e987 273d d0e5 1f3c 583a 60bc e755 dfbb
00000120: 5b6a e13d 314f 0abc 3d87 313e d00b ccbd
00000130: 9a63 903d 4b7c 453e 2051 3e3e 39c1 cebc
00000140: 5257 053e f928 a93d 67ec c9ba e527 df3d
00000150: 027d 1a3e f182 323e 2012 c53d 6fee ee3d
00000160: 11ef 6a3e db5e 4f3d a28a 4c3e 592d 1d3d
00000170: 7a90 06bd 5b1a bd3a 4a66 393e 6077 b43c
00000180: 1810 c8bd c27c 9fbc 31bb 21bd 77d9 2d3c
00000190: f109 cebd 0e8b 233e 17f9 bd3d f5fb cabd
000001a0: 03c0 c63a 0727 d6bb e670 ae3c a04b de3d
000001b0: fd88 8e3d 67e4 f23c 99b0 98bd 0e2f 59bd
000001c0: 3659 0cbe 5534 b4bd 8326 36bd 4de0 a6bc
000001d0: 55f9 86bd 353e 8e3d c10a 8a3c 1d76 d9bd
000001e0: 095f b13d 49ab 06be 27e4 943d 2587 f437
000001f0: d5d2 84bd a1f9 57bd 9ca6 66bd abdf c5bd
00000200: b6cc 05be a64c 583c 1059 1b3e b4a0 993c
00000210: 87c7 b43d 17f1 09be f816 b8bc 9a3c 8c3d
00000220: e54f 1abe 2610 283d 2532 293d 284a 52bd
00000230: 6956 093e 7c84 24bd 8b0d 7c3d 8ec8 293d
00000240: c831 033e 3343 c1bc f0fb 463d 62c9 2ebd
00000250: d0b0 f43d 96f6 db3d 09f3 06bd a86b 433e
00000260: e932 fc3c 8116 603d e1ef 783d fa4e 043e
00000270: d055 afbc 336d 0a3d 2c7b bc3b af9d c53c
00000280: 7d49 283e d368 5a3d 05fd 63bd bb92 3d3e
00000290: 373a 24bd aec6 0a3e f788 893d 1504 383d
000002a0: cbb9 303c 28bf edb9 40b3 763d 27b9 353e
000002b0: 4aa3 a6bd 686f 4d3d 589d 013e 15dd 8fbd
000002c0: cf7f 0e3e 94d9 dc3d 1979 153e ad1f 1b3e
000002d0: e7e5 4e3e ddd4 213e f1dc d03d 0154 413d
000002e0: c394 8fbd 1eb0 9dbc 4302 b1bd f179 033e
000002f0: 06ce 8c3d 7cac 603d f7e5 e63d 1c24 ea3b
00000300: 30f0 243e 592a 623b 87cc 0c3d 703a 0b3e
00000310: acd7 84bd 10c5 fb3d 647d ab3b 5d45 debd

weight_ih_l1 f4 [200, 50]
0.023022579 0.10799178 0.0012337869 -0.09301921 -0.22772484 -0.06980649 0.06681774 0.1404899
0.07957005 0.05307541 -0.013353114 -0.057315573 -0.102835834 -0.067201704 -0.20630196 0.005674157
0.13104692 0.14552015 -0.14383328 -0.077799976 0.07574228 0.016144373 0.1321038 0.10331778
0.15415557 0.08985459 -0.13547815 -0.0259087 -0.09039587 -0.07361836 -0.091488145 -0.108750306
-0.01793651 -0.08635179 0.02894518 -0.07920887 -0.022474647 -0.12067465 0.035993222 -0.008114482
0.048277814 0.10108326 -0.15859942 -0.17254195 0.031552106 0.12998477 0.043054994 -0.026176432
-0.043569822 0.16378902 -0.20198521 0.044580624 0.010065925 -0.08793746 -0.096140094 0.06087558
0.048564684 -0.039985307 -0.07999706 0.061140917 0.13525045 0.0016682184 -0.03624741 -0.18722703
-0.08224656 0.038176738 -0.007230844 0.14678875 -0.06291945 0.06633268 0.038851216 -0.013458756
0.0648879 0.06747112 0.19427514 0.040711377 -0.12394928 0.103728525 0.22388946 0.05353206
-0.016387038 0.079502806 0.0900399 -0.10203197 0.15465175 -0.022203362 0.05120682 0.05218613
-0.09986672 -0.015892917 -0.1359262 -0.042925157 -0.022594595 0.104897775 -0.20482683 -0.00894608
0.069330804 0.01268768 -0.050548516 0.16620694 0.007302473 0.0721625 -0.21861756 -0.09532657
-0.06702686 -0.15560102 -0.0741259 0.07536668 -0.0669992 0.118653476 -0.07991817 -0.23565479
0.20850608 0.07657312 -0.06990964 0.009971766 0.18141636 0.018793937 -0.077211626 -0.20870815
0.045816835 -0.06984741 0.0063190996 0.016531685 0.3198429 -0.025379622 0.089592 0.0789554
-0.11799212 -0.11085719 -0.26772478 0.123410285 0.07114004 -0.043054998 0.048018623 -0.0137095945
0.16350374 0.12935369 -0.09450538 -0.25311846 0.048473027 -0.0626939 -0.07263621 -0.01549628
-0.009567011 0.07481853 -0.15767528 -0.106217325 0.10290673 0.039848354 0.1486219 0.0118350405
-0.14516191 0.02441086 -0.12653682 -0.0008798422 -0.002026749 -0.09028936 0.12523629 0.08311346
0.06505025 0.092083134 -0.07987037 -0.03539342 0.047193255 0.080186196 0.07045988 -0.010303656
0.119624294 -0.14238639 -0.13277234 0.06951677 0.08071055 -0.06287142 0.041911937 0.026248168
-0.12781143 -0.042927243 0.04493293 -0.16166104 -0.03365127 0.08253448 -0.13719328 -0.09926047
0.08582208 0.117301926 0.101292394 -0.08605757 0.026962362 -0.10273521 0.024057798 -0.060201854
0.020835996 -0.02967373 0.018753381 0.011726917 -0.064699546 -0.17122176 -0.10179597 -0.020778004
0.100341365 0.16202618 0.049488157 -0.03667914 0.032765213 0.06281615 0.13344215 -0.07125568
-0.027188437 -0.011695688 0.022977844 -0.006056307 -0.1173135 0.082884 -0.12686664 -0.095746115
-0.16139595 0.10644067 0.13241516 0.0027664034 -0.007890958 -0.06100615 0.13706326 -0.04505822
-0.08807464 0.09583233 -0.0035881 0.055948712 0.0053725056 0.11453613 -0.026531786 0.036982205
0.016419383 0.006992414 0.016152212 0.010100135 -0.03110619 0.025248265 -0.13125691 0.026084306
0.062505744 -0.021358803 -0.008117259 0.15620051 0.007634928 -0.10365889 -0.07854097 0.0049902136
0.09964475 0.00068574835 -0.15959357 -0.10104581 0.09135673 0.10040234 -0.16250677 -0.020548575
00000000: d999 bc3c cb2a dd3d 05b7 a13a db80 bebd
00000010: b330 69be b4f6 8ebd bdd7 883d 96dc 0f3e
00000020: 9ff5 a23d 9a65 593d 05c7 5abc bcc3 6abd
00000030: 989b d2bd 0ca1 89bd d240 53be 47ee b93b
00000040: 2a31 063e 3c03 153e 0849 13be 9855 9fbd
00000050: c51e 9b3d 3441 843c 3846 073e 4698 d33d
00000060: f5da 1d3e af05 b83d c9ba 0abe 7b3e d4bc
00000070: 7821 b9bd 39c5 96bd 235e bbbd 7bb8 debd
00000080: 96ef 92bc 35d9 b0bd 711e ed3c 4338 a2bd
00000090: c01c b8bc 4524 f7bd a16d 133d 9bf2 04bc
000000a0: f5be 453d bd04 cf3d e367 22be d6ae 30be
000000b0: c83c 013d ba1a 053e 6f5a 303d f56f d6bc
000000c0: 4576 32bd 4fb8 273e 36d5 4ebe 2c9a 363d
000000d0: 8deb 243c 8e18 b4bd 19e5 c4bd ac58 793d
000000e0: c3eb 463d a2c7 23bd 80d5 a3bd e66e 7a3d
000000f0: 187f 0a3e 1fa8 da3a 2a78 14bd 71b8 3fbe
00000100: e270 a8bd 365f 1c3d b7f0 ecbb ca4f 163e
00000110: eadb 80bd 6ed9 873d 7422 1f3d 1d82 5cbc
00000120: f3e3 843d 4c2e 8a3d 10f0 463e f9c0 263d
00000130: 1fd9 fdbd 9f6f d43d 4743 653e 6f44 5b3d
00000140: 1c3e 86bc 5ed2 a23d d766 b83d 23f6 d0bd
00000150: 075d 1e3e d3e3 b5bc 3ebe 513d 20c1 553d
00000160: ec86 ccbd dd31 82bc 3d30 0bbe 4ad2 2fbd
00000170: 4d18 b9bc a5d4 d63d 20be 51be 9492 12bc
00000180: 4ffd 8d3d fddf 4f3c f60b 4fbd 2732 2a3e
00000190: 9549 ef3b efc9 933d 48dd 5fbe 943a c3bd
000001a0: 6145 89bd e055 1fbe 52cf 97bd d959 9a3d
000001b0: e036 89bd 9800 f33d 23ac a3bd 7d4f 71be
000001c0: 9e82 553e 5ed2 9c3d c92c 8fbd 9e60 233c
000001d0: 36c5 393e bef5 993c 2121 9ebd 97b7 55be
000001e0: 6faa 3b3d 290c 8fbd 7310 cf3b 756d 873c
000001f0: 73c2 a33e ede8 cfbc 037c b73d 5eb3 a13d
00000200: daa5 f1bd 1809 e3bd 3913 89be 88be fc3d
00000210: dfb1 913d 705a 30bd 2daf 443d 359e 60bc
00000220: 866d 273e 4b75 043e 098c c1bd be98 81be
00000230: a78b 463d a965 80bd 4bc2 94bd 1ce4 7dbc
00000240: f4be 1cbc 753a 993d a175 21be 7888 d9bd
00000250: c3c0 d23d 0738 233d 5730 183e c2e7 413c
00000260: 53a5 14be 49f9 c73c de92 01be 36a5 66ba
00000270: 35d3 04bb a1e9 b8bd f13d 003e 6437 aa3d
00000280: 1139 853d 1596 bc3d 1493 a3bd b1f8 10bd
00000290: b74d 413d a938 a43d 454d 903d aad0 28bc
000002a0: 95fd f43d bdcd 11be 79f5 07be cf5e 8e3d
000002b0: 934b a53d bbc2 80bd daab 2b3d 6606 d73c
000002c0: 00e1 02be 7ad4 2fbd 980b 383d 798a 25be
000002d0: ead5 09bd d607 a93d 657c 0cbe 1349 cbbd
000002e0: 7dc3 af3d fe3b f03d 6372 cf3d f43e b0bd
000002f0: 2ce0 dc3c d666 d2bd dc14 c53c 3896 76bd
00000300: 40b0 aa3c 5216 f3bc b1a0 993c 4122 403c
00000310: 3281 84bd c254 2fbe 687a d0bd a236 aabc
00000320: c67f cd3d 31ea 253e 18b4 4a3d de3c 16bd
00000330: d134 063d c1a5 803d 0fa5 083e 7fee 91bd
00000340: 49ba debc 459f 3fbc 083c bc3c fc73 c6bb
00000350: 0f42 f0bd 16bf a93d 54e9 01be 8a16 c4bd
00000360: fb44 25be 91fd d93d d797 073e 8c4c 353b
00000370: 1449 01bc 96e1 79bd 505a 0c3e f88e 38bd
00000380: 7a60 b4bd be43 c43d 5426 6bbb 7a2a 653d
00000390: d80b b03b eb91 ea3d 3059 d9bc a77a 173d
000003a0: f181 863c 9f20 e53b a551 843c 097b 253c
000003b0: 69d2 febc 73d5 ce3c 3668 06be c1ae d53c
000003c0: 0303 803d a8f8 aebc 40fe 04bc 07f3 1f3e
000003d0: 6b2e fa3b 1d4b d4bd 17da a0bd f284 a33b
000003e0: 8c12 cc3d cbc3 333a 7f6c 23be 1bf1 cebd
000003f0: 3d19 bb3d be9f cd3d 2d68 26be 7c55 a8bc

weight_hh_l1 f4 [200, 50]
-0.029372945 -0.090937264 0.03118254 -0.08537945 -0.12819918 0.08031453 -0.061617285 -0.019630067
0.053863738 -0.14324935 0.09797792 0.05496072 -0.058153726 -0.12215295 -0.0018552392 0.052430585
0.010500363 -0.10161927 -0.15488653 -0.060865767 -0.04651177 -0.09253671 -0.11052744 -0.026441408
0.006665526 -0.13517494 0.01761862 -0.11398373 0.046271935 0.00034903377 0.16261412 0.04728029
-0.00022701596 -0.11753217 0.08462613 -0.062452458 -0.16670239 -0.04127901 -0.013828638 0.074922875
-0.17488699 -0.031056488 0.004637721 0.13679086 0.015863454 0.08218202 -0.015371868 -0.081972174
-0.14565381 -0.055935565 0.15290391 -0.18152064 -0.022654109 0.14901468 0.07131752 -0.031821717
-0.09516976 -0.11389136 0.06081813 -0.031920627 -0.021590943 0.022131402 -0.049449738 -0.091048844
0.13919544 0.051012665 0.04477652 -0.0017943156 0.08339661 0.06912028 0.029708318 -0.03180935
-0.1324452 -0.03799151 0.10361882 0.060777903 -0.031638008 0.03759041 0.0045308494 0.14681402
0.08932383 0.09679469 0.075914785 0.17437199 -0.16042945 -0.12318514 -0.06820105 0.027198136
0.043196134 0.1811129 -0.009495166 0.031840313 -0.0395912 0.009131432 -0.073343635 -0.14913742
0.041043036 0.17524098 0.09408316 0.06804882 0.27999905 -0.06741071 0.13355327 0.051463034
-0.10545179 0.16082174 0.07363027 -0.030897554 -0.056241237 -0.31991395 0.05883012 -0.06400896
0.21402791 -0.03590161 0.0754721 -0.036267024 -0.22804265 -0.024099005 -0.0002751361 0.109238654
-0.29761246 -0.17094049 0.062386096 -0.22927506 0.14904782 -0.0937675 -0.29996055 0.124280035
0.1327532 0.03285686 0.2644965 0.22485054 0.25351974 0.2203297 -0.023862824 0.27312815
-0.10526889 -0.14754912 0.048047498 -0.0060848105 -0.18635373 -0.0644945 0.27279106 -0.047635283
-0.035582725 -0.07366304 0.07355037 0.27284297 -0.09944132 0.095369816 0.12220243 -0.09366043
-0.07314065 -0.04454894 0.087014526 0.121756814 -0.080765 0.04376374 -0.14163981 -0.0339036
-0.0053811297 -0.12347954 0.03538309 -0.046984833 -0.021657916 -0.079764724 -0.034126945 0.06417868
0.08580263 -0.08842055 -0.041303013 -0.119329564 0.030503413 -0.06693788 0.06168198 -0.11344183
0.030573184 0.17156364 0.0044518495 0.11170425 -0.10121535 0.13184735 -0.046484027 0.095554315
0.090521544 0.01798803 -0.033054672 -0.13037905 0.098475166 -0.025161495 -0.035059515 -0.12103367
-0.058489844 0.039328847 0.018357987 -0.092670314 -0.1515246 -0.12086528 -0.091348186 -0.015500011
0.07080888 -0.070259094 0.12874418 0.17656943 -0.0028361501 -0.03819077 -0.0054833423 -0.13153541
-0.012317143 -0.1755401 0.112339966 -0.028617242 -0.08731867 0.046389915 0.12839454 0.021491488
-0.012511291 -0.113227814 -0.13751853 0.064264074 0.062250003 -0.08356376 -0.104016386 0.013066472
-0.013513343 0.004657613 -0.026607208 0.09157964 0.1445587 -0.033602726 0.06468105 0.092188716
0.14311484 -0.009350953 0.014875138 0.19035606 0.0023048879 -0.16446994 0.12694399 0.10587596
-0.00629232 -0.14734349 -0.009532242 -0.1257745 -0.06940617 0.028361155 -0.0893236 -0.0023738062
-0.07509529 -0.07121366 0.12384267 -0.15010366 0.1038582 -0.023004126 -0.107078485 -0.050162148
00000000: 889f f0bc 513d babd 8772 ff3c 6cdb aebd
00000010: a546 03be f27b a43d 6862 7cbd 3ccf a0bc
00000020: 39a0 5c3d f5af 12be a6a8 c83d 7e1e 613d
00000030: 9a32 6ebd 532b fabd 7f2b f3ba 74c1 563d
00000040: b709 2c3c c41d d0bd 939a 1ebe 624e 79bd
00000050: 2083 3ebd e383 bdbd 365c e2bd a79b d8bc
00000060: 7c6a da3b 4d6b 0abe ed54 903c 4d70 e9bd
00000070: a487 3d3d 85fe b639 5184 263e faa8 413d
00000080: 220b 6eb9 b5b4 f0bd 7750 ad3d 26ce 7fbd
00000090: 08b4 2abe 2e14 29bd 8391 62bc 2a71 993d
000000a0: 9315 33be 2d6a febc 06f8 973b e712 0c3e
000000b0: 13f4 813c 0c4f a83d 4ada 7bbc 07e1 a7bd
000000c0: 4626 15be b11c 65bd d892 1c3e 8ce0 39be
000000d0: 1c95 b9bc 4e97 183e ec0e 923d 7d57 02bd
000000e0: 5de8 c2bd e03f e9bd 6e1c 793d 34bf 02bd
000000f0: 7ddf b0bc ea4c b53c cf8b 4abd d177 babd
00000100: 4089 0e3e a8f2 503d 9667 373d 3e2f ebba
00000110: d8cb aa3d ef8e 8d3d dc5e f33c 854a 02bd
00000120: b79f 07be fc9c 1bbd 1b36 d43d 40f2 783d
00000130: db96 01bd 67f8 193d 8577 943b 6a56 163e
00000140: 6aef b63d 4b3c c63d 3679 9b3d 928e 323e
00000150: 9e47 24be 7e48 fcbd feac 8bbd a0ce de3c
00000160: 6eee 303d a975 393e 9d91 1bbc fd6a 023d
00000170: 622a 22bd 009c 153c 3035 96bd 7bb7 18be
00000180: be1c 283d 5f72 333e acae c03d 2e5d 8b3d
00000190: 095c 8f3e a00e 8abd 30c2 083e e7ca 523d
000001a0: 1cf7 d7bd 74ae 243e 78cb 963d de1c fdbc
000001b0: 365d 66bd c3cb a3be daf7 703d 2117 83bd
000001c0: 222a 5b3e 910d 13bd 1e91 9a3d bb8c 14bd
000001d0: 0384 69be 476b c5bc 2440 90b9 84b8 df3d
000001e0: a960 98be 060b 2fbe 9088 7f3d 15c7 6abe
000001f0: fe9f 183e 2d09 c0bd 6e94 99be 8886 fe3d
00000200: 74f0 073e ea94 063d 166c 873e 383f 663e
00000210: 57cd 813e 1c9e 613e f87b c3bc 74d7 8b3e
00000220: 3797 d7bd 1e17 17be 74cd 443d 1763 c7bb
00000230: 83d3 3ebe b115 84bd 45ab 8b3e 371d 43bd
00000240: 31bf 11bd a6dc 96bd 94a1 963d 13b2 8b3e
00000250: e4a7 cbbd 4051 c33d 4545 fa3d 0ad1 bfbd
00000260: c4ca 95bd f378 36bd ac34 b23d a35b f93d
00000270: 1f68 a5bd 9c41 333d 070a 11be 80de 0abd
00000280: 3054 b0bb d7e2 fcbd dced 103d 2b73 40bd
00000290: f16b b1bc b05b a3bd b2c8 0bbd 1d70 833d
000002a0: 4ab9 af3d d515 b5bd 592d 29bd 0f63 f4bd
000002b0: 4be2 f93c ba16 89bd 3ea6 7c3d 3154 e8bd
000002c0: 9d74 fa3c 61ae 2f3e d2e0 913b 33c5 e43d
000002d0: fe49 cfbd fe02 073e 0966 3ebd fbb1 c33d
000002e0: 5c63 b93d a25b 933c 5664 07bd 1682 05be
000002f0: 59ad c93d 7b1f cebc 919a 0fbd 80e0 f7bd
00000300: 0c93 6fbd 4917 213d 7d63 963c efc9 bdbd
00000310: 4429 1bbe 3788 f7bd c214 bbbd c2f3 7dbc
00000320: 3f04 913d 00e4 8fbd 84d5 033e 9ece 343e
00000330: b4de 39bb ed6d 1cbd 9cad b3bb 38b1 06be
00000340: d8cd 49bc c9c0 33be 7f12 e63d b56e eabc
00000350: 21d4 b2bd 5a03 3e3d dc79 033e eb0e b03c
00000360: 28fc 4cbc fce3 e7bd a8d1 0cbe e29c 833d
00000370: dcf9 7e3d 7a23 abbd 8b06 d5bd c114 563c
00000380: 1267 5dbc e49e 983b 5cf7 d9bc 1b8e bb3d
00000390: 3207 143e 03a3 09bd 8077 843d 70cd bc3d
000003a0: b28c 123e bd34 19bc dab6 733c b3ec 423e
000003b0: 9a0d 173b cf6a 28be 9bfd 013e 7fd5 d83d
000003c0: ce2f cebb 36e1 16be 1f2d 1cbc 08cb 00be
000003d0: d224 8ebd a755 e83c 4bef b6bd dc91 1bbb
000003e0: 8fcb 99bd 78d8 91bd 3aa1 fd3d c6b4 19be
000003f0: 9cb3 d43d 2673 bcbc f74b dbbd d376 4dbd

bias_ih_l1 f4 [200]
-0.014754103 0.17473078 0.09765441 -0.14370768 0.039318338 0.049953796 0.12711143 -0.09339487
0.024817495 0.1398115 0.13933456 0.034184992 0.03631292 0.1536883 -0.0151831 0.011473151
0.11525848 0.12969962 0.091189794 0.14579174 -0.0052580596 -0.028727707 0.02225981 -0.04069205
0.051086683 0.13449553 0.13611275 0.16735329 -0.03108157 -0.11729543 0.04270864 0.13167012
-0.103110656 -0.059362773 0.14100552 0.07998073 -0.04846059 0.10608491 -0.11103924 0.17912374
0.09056628 -0.065237775 0.038762532 0.089614876 -0.0028652763 0.14230108 0.025631292 0.17566936
0.1314024 0.08763165 0.07961763 -0.09864397 0.1858352 0.13406283 0.049089376 0.15301064
-0.00469556 0.10519043 -0.081902556 0.17725344 0.05727873 -0.03335817 0.14142914 0.013662726
0.017877907 -0.066128224 0.08113338 0.12563525 0.0074030966 0.1704104 0.17287013 0.13278338
0.10865903 0.02819616 -0.080554046 -0.03868177 0.05957417 0.16477253 0.12582116 0.08256521
-0.0630512 -0.021477437 0.0137487585 0.018947285 -0.02333399 -0.0079086125 -0.018247863 -0.022717863
-0.0015197691 0.07845093 -0.027025942 -0.09357927 -0.03826047 -0.08222972 -0.064716004 0.11499792
0.107511915 0.07770743 -0.027772343 0.12648557 0.10644891 -0.10089133 -0.042800542 0.04058619
-0.11938301 0.11808671 0.11746638 0.07072995 0.05144118 0.062099688 0.077514626 0.012150696
0.10717564 0.020864896 -0.13349457 -0.093802586 0.11682374 -0.12805127 -0.029759139 -0.08835153
0.023895126 0.07980169 -0.11294219 -0.054584928 0.13497354 0.032809775 0.06282735 -0.11073785
-0.025398372 -0.051005043 0.10591115 -0.17364778 0.014720147 0.03378844 -0.11850929 -0.050964862
-0.08873771 0.055214476 0.10893045 0.10412638 -0.109689735 -0.012136616 0.048130944 0.08338398
-0.039585058 -0.10082336 -0.018272309 -0.005206659 -0.0715661 0.07875546 0.022241991 0.14283657
-0.022924853 0.06685203 0.051865317 -0.015816212 -0.0442648 -0.032885518 0.04954382 0.060110163
0.036975753 0.11516897 0.14711353 0.086213775 0.11315158 0.094425894 -0.030589523 0.028336314
0.15825643 0.0052616317 0.057310317 0.17657937 0.057408288 0.13936059 -0.008656136 -0.025874112
0.15168002 -0.045998555 -0.09700517 0.11752816 -0.038899984 -0.0548515 -0.07389101 0.13770266
0.050143573 0.112794526 -0.081587926 0.15750779 -0.026470093 0.15907428 0.024614755 0.03595066
-0.08868325 0.05441026 0.16873197 0.17606051 -0.05010453 0.13515204 -0.039376542 -0.13733906
00000000: 31bb 71bc a0ec 323e 09ff c73d 1b28 13be
00000010: 440c 213d 5a9c 4c3d 8029 023e cf45 bfbd
00000020: 0f4e cb3c bf2a 0f3e b8ad 0e3e 9005 0c3d
00000030: dbbc 143d 7760 1d3e 89c2 78bc e2f9 3b3c
00000040: a30c ec3d facf 043e b7c1 ba3d 6e4a 153e
00000050: cd4b acbb 5e56 ebbc 345a b63c b5ac 26bd
00000060: 4540 513d 32b9 093e 2461 0b3e a95e 2b3e
00000070: c79e febc 9638 f0bd 41ef 2e3d 88d4 063e
00000080: ae2b d3bd 6126 73bd c063 103e f0cc a33d
00000090: 9d7e 46bd 0c43 d93d 8b68 e3bd 376c 373e
000000a0: d07a b93d 629b 85bd 76c5 1e3d 0188 b73d
000000b0: 5cc7 3bbb 60b7 113e b7f8 d13c abe2 333e
000000c0: 5a8e 063e 3978 b33d 910e a33d da05 cabd
000000d0: 954b 3e3e c447 093e f111 493d d2ae 1c3e
000000e0: 36dd 99bb 156e d73d 87bc a7bd ed81 353e
000000f0: 1a9d 6a3d 94a2 08bd cdd2 103e a0d9 5f3c
00000100: b074 923c 3c6e 87bd 4229 a63d 87a6 003e
00000110: ad95 f23b 1080 2e3e de04 313e 5ef8 073e
00000120: a088 de3d a2fb e63c 85f9 a4bd c770 1ebd
00000130: 0b04 743d 21ba 283e 43d7 003e f317 a93d
00000140: fd20 81bd 73f1 afbc 7942 613c 5637 9b3c
00000150: ec26 bfbc 2093 01bc 8b7c 95bc d01a babc
00000160: fd32 c7ba e2aa a03d 8265 ddbc 7da6 bfbd
00000170: 03b7 1cbd 0e68 a8bd d389 84bd 0884 eb3d
00000180: 352f dc3d 1325 9f3d d382 e3bc 6f85 013e
00000190: e301 da3d 1da0 cebd 9f4f 2fbd b43d 263d
000001a0: 147f f4bd 72d7 f13d 3792 f03d ddda 903d
000001b0: fdb3 523d 3e5c 7e3d fdbf 9e3d b613 473c
000001c0: e77e db3d dcec aa3c cdb2 08be 921b c0bd
000001d0: 4941 ef3d df1f 03be 70c9 f3bc a6f1 b4bd
000001e0: b6bf c33c 126f a33d 3c4e e7bd 7294 5fbd
000001f0: 8136 0a3e 8b63 063d a0ab 803d 87ca e2bd
00000200: 3f10 d0bc aaea 50bd f2e7 d83d b9d0 31be
00000210: c52c 713c bf65 0a3d 00b5 f2bd 88c0 50bd
00000220: 1ebc b5bd 9328 623d ee16 df3d 3640 d53d
00000230: 03a5 e0bd a8d8 46bc f424 453d 38c5 aa3d
00000240: f123 22bd 7a7c cebd cfaf 95bc 9f9c aabb
00000250: 3f91 92bd 8b4a a13d d634 b63c c043 123e
00000260: e7cc bbbc b8e9 883d ba70 543d 0091 81bc
00000270: 024f 35bd f7b2 06bd 76ee 4a3d 1336 763d
00000280: e373 173d b5dd eb3d eea4 163e d990 b03d
00000290: 04bc e73d 5d62 c13d e196 fabc 8f21 e83c
000002a0: f90d 223e c469 ac3b 39be 6a3d 39d1 343e
000002b0: f424 6b3d 8bb4 0e3e 77d2 0dbc f2f5 d3bc
000002c0: 0252 1b3e fb68 3cbd a6aa c6bd 9bb2 f03d
000002d0: 9755 1fbd f7ab 60bd 2b54 97bd ed01 0d3e
000002e0: 5963 4d3d d100 e73d 9217 a7bd b949 213e
000002f0: cfd7 d8bc 5ee4 223e e2a4 c93c 0041 133d
00000300: 909f b5bd 4bdd 5e3d 13c8 2c3e 3549 343e
00000310: 683a 4dbd 4c65 0a3e 4c49 21bd 9ca2 0cbe

bias_hh_l1 f4 [200]
0.08669787 -0.0062838728 0.0065385466 -0.14240706 -0.07459908 0.0238079 0.092301816 -0.016147966
0.09156897 0.005662211 0.085992485 0.010085677 -0.015094513 0.10738696 -0.07741317 0.01798693
0.2546259 0.10371471 0.16192776 -0.08412585 -0.037876304 0.092515126 0.066797644 0.035408214
0.046382062 0.1023008 0.0052768206 0.07614327 -0.02415824 0.074885465 0.06282952 0.06804855
-0.025928972 0.05696031 -0.0071952846 0.12546511 0.13596563 0.10758962 -0.034102533 -0.07285719
-0.091416076 0.14441271 0.040408354 0.033198364 0.2063515 0.11200064 -0.032231763 0.073468044
0.11690477 -0.0036515235 -0.041793782 -0.00038761858 0.016675564 -0.11413469 -0.051464226 0.059987836
-0.06577478 0.022677384 0.09888032 -0.086621 0.004538257 0.030046526 0.08461557 0.0023451156
0.058587685 0.06575261 0.06992677 0.11680315 -0.05445328 0.0059973914 -0.0053311326 -0.09251084
0.12088002 0.11780865 -0.109889 -0.055103727 0.03816764 0.055137828 0.09852791 -0.004484018
-0.09492484 -0.036415648 0.020630784 -0.08871044 -0.06990723 -0.114147976 0.09202032 -0.06215581
0.1190577 -0.083520465 0.08994437 0.17740075 0.109564744 -0.08733969 0.035658576 0.13806799
-0.065853626 -0.014523506 0.060233034 -0.05518032 -0.07008388 0.03985671 -0.015226939 -0.105111286
0.06954051 -0.06828395 -0.047789283 -0.029388202 -0.027579833 0.124330245 -0.11897103 -0.12241649
-0.13810799 0.029638989 0.113235325 -0.08735067 -0.1551607 -0.072124444 -0.048370775 -0.009717084
-0.032030035 -0.06528397 -0.105863616 -0.11856912 -0.031230284 -0.12897176 -0.086402625 0.062275626
0.09894051 0.09497384 0.046101224 0.10098483 0.12314895 0.043093555 -0.11103229 0.07226865
-0.10174829 -0.06065057 0.11252524 0.044940438 -0.1022347 -0.038891193 0.004303099 0.04075984
0.06877108 -0.018108983 -0.13942346 -0.036716245 -0.10352907 0.07887868 0.16286089 -0.04210729
-0.029997956 -0.06228936 0.0367588 0.038014468 -0.0040078536 0.003634323 0.08308167 -0.034054488
0.005417804 -0.10788437 -0.013513026 -0.0063608233 -0.11194304 -0.093009435 -0.06881576 0.036080536
-0.04431681 0.15620956 0.10490284 0.11066867 0.0382881 -0.1099269 -0.053547673 0.058446
-0.081949264 0.01785537 0.017483791 -0.058579404 0.10594858 0.12748295 -0.076816924 0.0062868064
-0.0044902754 -0.1001935 0.0065243584 0.057065684 -0.1297483 -0.0038839064 -0.072095074 0.09591323
-0.065484166 -0.011594754 -0.005358302 0.02255499 0.15271114 0.0033522504 -0.09457297 0.016325293
00000000: a78e b13d f2e8 cdbb 4e41 d63b 28d3 11be
00000010: 67c7 98bd c908 c33c bc08 bd3d bd48 84bc
00000020: 8388 bb3d 128a b93b d41c b03d 653e 253c
00000030: fa4e 77bc b2ed db3d cc8a 9ebd 5459 933c
00000040: 535e 823e 6168 d43d 64d0 253e 2c4a acbd
00000050: 2f24 1bbd 9278 bd3d 34cd 883d 3408 113d
00000060: 1efb 3d3d 1583 d13d 2ee9 ac3b 01f1 9b3d
00000070: 80e7 c5bc 8d5d 993d c3ac 803d 0a5d 8b3d
00000080: ff68 d4bc 374f 693d 6cc6 ebbb ed79 003e
00000090: 933a 0b3e f257 dc3d 19af 0bbd 2736 95bd
000000a0: 5a38 bbbd ede0 133e 3b83 253d 02fb 073d
000000b0: cf4d 533e 9760 e53d 7405 04bd 6a76 963d
000000c0: c56b ef3d 664e 6fbb f52f 2bbd 4939 cbb9
000000d0: 319b 883c 73bf e9bd 27cc 52bd ceb5 753d
000000e0: eeb4 86bd ecc5 b93c c481 ca3d 5a66 b1bd
000000f0: a9b5 943b 2224 f63c ee4a ad3d 83b0 193b
00000100: a4f9 6f3d 4ea9 863d c435 8f3d 7d36 ef3d
00000110: 670a 5fbd c485 c43b c8b0 aebb 5376 bdbd
00000120: f28f f73d a945 f13d 7c0d e1bd 72b4 61bd
00000130: ac55 1c3d 34d8 613d 00c9 c93d abee 92bb
00000140: f467 c2bd 9328 15bd e401 a93c d2ad b5bd
00000150: 862b 8fbd 6ac6 e9bd 2675 bc3d 1797 7ebd
00000160: 86d4 f33d c70c abbd c134 b83d 8ba8 353e
00000170: 7b63 e03d 27df b2bd ba0e 123d b261 0d3e
00000180: 44de 86bd 00f4 6dbc eab6 763d c204 62bd
00000190: 2388 8fbd ca40 233d 697a 79bc 9644 d7bd
000001a0: 416b 8e3d 75d8 8bbd b2be 43bd 87bf f0bc
000001b0: 1aef e1bc dba0 fe3d 15a7 f3bd 7fb5 fabd
000001c0: 2e6c 0dbe 77cd f23c ece7 e73d e8e4 b2bd
000001d0: 72e2 1ebe fbb5 93bd 6f20 46bd 6734 1fbc
000001e0: ed31 03bd 9ab3 85bd 06cf d8bd 5ed4 f2bd
000001f0: a7d6 ffbc 2c11 04be dcf3 b0bd ba14 7f3d
00000200: 52a1 ca3d a581 c23d a3d4 3c3d 22d1 ce3d
00000210: 8435 fc3d de82 303d e664 e3bd 9601 943d
00000220: 6861 d0bd bb6c 78bd a273 e63d 7713 383d
00000230: 6d60 d1bd 5f4c 1fbd 0301 8d3b caf3 263d
00000240: dad7 8c3d 4a59 94bc 06c5 0ebe c663 16bd
00000250: 0d07 d4bd 258b a13d 01c5 263e b278 2cbd
00000260: 46be f5bc 2123 7fbd 6590 163d 0fb5 1b3d
00000270: 5054 83bb d22d 6e3b b926 aa3d b87c 0bbd
00000280: d587 b13b 7bf2 dcbd bd65 5dbc 746e d0bb
00000290: 6442 e5bd bb7b bebd 47ef 8cbd 2fc9 133d
000002a0: 8b85 35bd 66f5 1f3e 4dd7 d63d 41a6 e23d
000002b0: fcd3 1c3d 5b21 e1bd ce54 5bbd 1365 6f3d
000002c0: 04d5 a7bd 6d45 923c 2b3a 8f3c f5f0 6fbd
000002d0: 92fb d83d e48a 023e 3152 9dbd 8e01 ce3b
000002e0: 2923 93bb 4032 cdbd 49ca d53b b5bd 693d
000002f0: bddc 04be 2389 7ebb 95a6 93bd 286e c43d
00000300: 901c 86bd ecf7 3dbc b294 afbb 3ec5 b83c
00000310: 4f60 1c3e 6eb1 5b3b 79af c1bd 9fbc 853c
