Sleep_Disorder/models/customFFN.pth (torch, 32778 bytes, 32 tensors)

weight f4 [32, 7]
000000 ad 1b 8a 3e c1 33 20 3e 8a a4 bf 3e b6 30 02 be
       0.2697424 0.15644743 0.3743022 -0.12713894
000010 fe 5e 1d be 91 66 f6 bd bc 86 4f 3e fa ce f0 3d
       -0.15368268 -0.12031282 0.20266241 0.11758228
000020 16 89 83 be 54 40 31 be ef 06 94 be df de 79 be
       -0.25690526 -0.17309695 -0.2891154 -0.24401425
000030 e6 9e 8a be b8 39 c7 3e 7c c5 8f bd d6 73 65 bd
       -0.27074355 0.38911223 -0.07020089 -0.056018673
000040 a2 db 89 3d e0 2e 96 be 56 b9 84 be 78 45 22 be
       0.06731345 -0.29332638 -0.2592265 -0.15846813
000050 11 7a 55 3d 5e 31 b1 be 98 7f 99 3d 8c 54 a5 be
       0.052118365 -0.34607977 0.0749504 -0.32291067
000060 bf 54 84 3e e2 4c 52 3d a5 60 0d be 90 b2 85 3e
       0.25845906 0.051342852 -0.13806398 0.26112795
000070 df 5e c3 be 0d a4 82 3d 17 b1 38 3e ea 71 f7 3c
       -0.38158318 0.063789465 0.18036304 0.030205686
000080 23 40 0e be 08 b4 b6 3c fa eb a6 bc 65 6e 8a be
       -0.13891654 0.022302642 -0.020376194 -0.2703735
000090 cd 8d 20 be a9 31 0a bc c6 c1 10 bd f1 71 21 3e
       -0.15679093 -0.0084346915 -0.035341047 0.15766121
0000a0 f6 0d 03 be 45 90 87 bd f1 8f 30 3e db 75 ac be
       -0.12798294 -0.06619314 0.1724241 -0.33683667
0000b0 ae f9 a4 3e c4 84 77 be f8 60 8f 3e 52 ec b9 be
       0.3222174 -0.2417174 0.2800367 -0.3631311
0000c0 fa 35 f3 bc b0 aa 7b 3c 9d d1 e5 3d fd a6 6c 3e
       -0.029688824 0.015360519 0.11221621 0.23110576
0000d0 1d ff 71 3e 4b 33 a7 bd 07 60 ac 3e d2 f9 1b 3d
       0.23632474 -0.0816408 0.33667013 0.038080044
0000e0 5d 67 1a 3e 21 cb 89 be 23 20 b5 3e 93 f9 6e 3d
       0.15078492 -0.26912788 0.3537608 0.05834348
0000f0 0b 58 bc 3e 36 d2 fa 3c d5 86 88 3e ca 78 84 3d
       0.3678592 0.030617815 0.2666537 0.06468351
000100 ad c0 22 be 15 f5 b7 be 09 44 c9 3d 00 2c 83 3e
       -0.15893812 -0.3592917 0.0982743 0.25619507
000110 a4 4c 97 3e 18 f8 4a bd 54 f0 50 be d6 1f 37 bd
       0.2955066 -0.049553007 -0.20404178 -0.044708095
000120 54 a1 7f 3e 48 91 5a be b0 fe 7a 3e ad 54 9b be
       0.24963886 -0.21344483 0.24511218 -0.3033804
000130 a1 26 90 bd 34 c0 48 3d 6b 5c b8 3c 9a d4 78 3d
       -0.07038618 0.049011424 0.022505006 0.060749628
000140 3f 04 55 3d 01 a3 29 be 73 c5 0f bc 69 a2 9a be
       0.052006003 -0.16566087 -0.008775103 -0.30202034
000150 4a d5 7b 3e 7f 66 87 3d 26 8b 25 be c5 d2 8f 3e
       0.24593082 0.066113465 -0.16166362 0.28090492
000160 e6 fc d1 bb 2f 4d bc 3e 88 a2 a9 3d b5 dd ce 3d
       -0.0064083217 0.36777636 0.082829535 0.10100881
000170 b6 36 97 be 1d d2 46 be e6 63 01 be a1 70 d2 bd
       -0.2953393 -0.1941609 -0.12635764 -0.102753885
000180 4f c0 0c be a6 0c 37 bc d2 01 ee 3d 44 45 f1 3d
       -0.13745235 -0.011172449 0.11621441 0.117807895
000190 09 3b 33 be 74 ce b3 bd 41 3e 9f be 26 80 9b bc
       -0.17502989 -0.08779612 -0.31102183 -0.018982004
0001a0 02 ad 12 be 8f 0e 5d 3e 27 8f 1b bd 73 66 81 3d
       -0.1432381 0.21587585 -0.037978318 0.06318369
0001b0 64 bf 90 3e 5b 77 d2 bd c5 78 8a be e2 d1 8a be
       0.2827102 -0.102766715 -0.27045265 -0.27113253
0001c0 e1 b8 c0 bc ea b5 41 3d 57 a9 b3 bd 83 af b4 bd
       -0.023525657 0.047292627 -0.087725334 -0.08822539
0001d0 4e 11 2b be 24 a7 97 3e 06 ac 8c 3e 32 60 20 3e
       -0.1670582 0.29619706 0.27474993 0.15661696
0001e0 ac bb 89 3e f5 46 02 3e bc 7f 6f 3e 6e e4 57 3e
       0.26900995 0.1272238 0.2338857 0.21083233
0001f0 96 ec e4 bd c3 aa 71 bd 78 ca c9 bd 85 b5 3a bd
       -0.11177938 -0.05900074 -0.09853071 -0.045583267
000200 04 67 ba be 88 e4 8b 3e 28 1a ac be 41 78 a4 be
       -0.3640672 0.27322793 -0.33613706 -0.32122996
000210 3f 56 8b 3e e0 23 97 3e ba bc 94 bd 1e bf 94 3e
       0.27214238 0.29519558 -0.07262559 0.2905206
000220 51 4b f6 bb c0 fe 31 bc 96 46 99 be 7f 9b 26 bd
       -0.0075163026 -0.01086396 -0.29936665 -0.040675636
000230 13 f8 7b be 03 de df 3d 53 9a d0 3c d9 53 32 3e
       -0.24606352 0.10931017 0.025464213 0.17414798
000240 10 f1 1b 3d 74 5a 12 3d c9 01 34 be 9c 18 8c 3e
       0.038071692 0.035730794 -0.17578806 0.27362525
000250 b5 b9 14 be 42 01 40 3e e7 36 10 be 00 76 c2 3d
       -0.14523967 0.1875048 -0.14083444 0.09495163
000260 be 9c 54 3e 4a 0a 82 3d 32 25 bd be 23 71 b1 3c
       0.20762917 0.06349619 -0.3694244 0.021660393
000270 ad 23 58 be d6 f3 c4 bd c5 2c c0 bc f3 fe 66 be
       -0.21107359 -0.096168205 -0.023458848 -0.22558193
000280 2d 42 5f 3e 84 8b a9 be e8 a9 a3 3e 71 2b 09 3e
       0.21802588 -0.33114254 0.31965566 0.13395478
000290 9f 7d 69 bd ca d5 97 3e f8 fc 1b be 93 cf a2 bc
       -0.057004567 0.29655296 -0.15233219 -0.01987437
0002a0 76 d5 82 be 1c cb 6c 3d 75 8d ad be 86 b2 06 3e
       -0.25553483 0.057810888 -0.33896986 0.13154039
0002b0 6d 3e 9b be e0 64 b1 3e 6c f2 63 3d 74 27 8e be
       -0.30321065 0.34647274 0.055651113 -0.27764475
0002c0 e9 59 98 be e2 f9 60 be 67 b6 32 3e fe e5 96 be
       -0.29756096 -0.21970323 0.17452393 -0.29472345
0002d0 1d fe 3c 3e b1 cd 2a 3e ed 79 84 3e 72 1c a1 3e
       0.18456312 0.16680028 0.25874272 0.31467015
0002e0 f2 83 cb be db b0 d0 bd c1 1a 8b be 0a 99 06 be
       -0.39749104 -0.101899825 -0.2716885 -0.13144317
0002f0 2c 90 2b 3d a3 58 f0 bd 63 ae 3f bd 09 e8 7a be
       0.04188554 -0.11735656 -0.046797168 -0.24502577
000300 e7 c4 1d 3d 01 1c fc 3d 4d 0f 7c 3d b5 00 84 be
       0.03851786 0.12310029 0.06153803 -0.2578179
000310 19 a2 45 be b8 96 93 3e d1 5d 47 3e 41 8e b5 be
       -0.19300117 0.28825927 0.19469382 -0.35460094
000320 9c f2 3d 3d 11 5b 01 be 9d 55 ec 3d ff 8c a2 be
       0.04637395 -0.12632395 0.11539767 -0.31748196
000330 42 fc 8c 3d 7f c3 9b bd 95 91 8a bd 3e 1f 8c 3e
       0.06884052 -0.07605647 -0.06766049 0.27367586
000340 e9 e5 11 be 25 80 cf bd d2 95 78 3e 9b f2 ca 3e
       -0.1424786 -0.101318635 0.24275902 0.39638218
000350 3e bb 37 be 12 91 9d 3e ef 45 ba 3e f6 bb e5 3d
       -0.17942521 0.30774742 0.3638148 0.11217491
000360 c2 d6 7c be 85 91 2c 3c 4a 54 47 3e 0f 4d 8f be
       -0.24691299 0.010532741 0.19465747 -0.2798848
000370 5f 04 bc be 13 67 8f be bf fc 16 bd 74 2a 99 be
       -0.36722085 -0.28008327 -0.03686213 -0.29915202

bias f4 [32]
000000 2b 60 0f 3e 2b db 14 be 1e 57 5b be 73 d1 17 be
       0.14001529 -0.14536731 -0.21419951 -0.14825992
000010 f1 fe 0d 3e c4 fc 6c bd a8 9f 80 3e 18 da 15 be
       0.13866784 -0.057858244 0.25121808 -0.14633977
000020 cc 11 41 be c9 5c ec 3b 6e ae 99 be 37 04 d4 3d
       -0.18854445 0.0072132093 -0.30015892 0.103523664
000030 fb d4 2d be fc 7f 0a bd 6b b7 0a bd 57 0a 42 bd
       -0.16975777 -0.03381346 -0.033866327 -0.047373142
000040 c8 c2 43 3e 87 8e a0 bd 8a d4 ba 3e 6c b4 4d 3e
       0.19117272 -0.07839685 0.3649028 0.20088357
000050 6a 97 76 3e 83 dc a1 3e 02 c8 a4 3e e6 4a 7c 3c
       0.24081197 0.3161355 0.32183844 0.015398717
000060 54 f7 88 be 33 7e 5b 3e d8 cc 45 3e 87 e8 70 be
       -0.26751196 0.2143486 0.19316423 -0.23526202
000070 b8 b3 20 be 55 05 e0 bc 82 3f 51 3e f9 74 0d be
       -0.15693557 -0.027346293 0.20434383 -0.13814153

weight f4 [32]
000000 68 52 80 3f fc ed 82 3f de 91 80 3f 21 ba 76 3f
       1.0025148 1.0228877 1.0044515 0.9637776
000010 ff 4a 78 3f 2e 5e 80 3f 6e ff 81 3f 9c 32 81 3f
       0.96989435 1.0028741 1.0156076 1.009357
000020 ac b6 79 3f 27 9b 83 3f 29 06 7e 3f 68 8a 7b 3f
       0.9754436 1.0281724 0.9922815 0.98258066
000030 36 61 83 3f 52 bc 82 3f a0 51 7c 3f 42 60 82 3f
       1.0264041 1.0213721 0.9856205 1.0185626
000040 0b d9 83 3f 3d 9c 75 3f e0 f4 7d 3f db 5c 81 3f
       1.0300611 0.95941526 0.99201775 1.0106462
000050 74 71 81 3f 81 41 82 3f 91 1d 80 3f 92 4a 7f 3f
       1.0112748 1.017624 1.0009023 0.9972316
000060 a9 86 80 3f c4 c0 7d 3f b4 47 80 3f 2b b9 82 3f
       1.0041095 0.9912226 1.0021882 1.0212759
000070 53 2c 78 3f 78 f8 7e 3f 21 d7 7e 3f e9 41 78 3f
       0.96942633 0.99597883 0.9954701 0.9697557

bias f4 [32]
000000 6c 3d bb bc 7c f2 52 bc 2b e6 d0 ba 41 dd c1 3b
       -0.022856437 -0.012875196 -0.0015937736 0.005916268
000010 8c 2e 77 bb 7f 2d f0 3c 01 84 cd 3b 38 d6 da bb
       -0.0037716953 0.02931857 0.0062718396 -0.006678369
000020 04 13 d0 bc 2a bf bb bc d4 47 3c 3b 84 08 0d bc
       -0.025399692 -0.022918303 0.0028729336 -0.008607987
000030 8e a4 7c bb f4 e5 5e ba d9 50 a7 bc fa 19 79 bc
       -0.003855023 -0.00085028936 -0.020424293 -0.015203947
000040 f9 aa 85 3d 90 d2 20 bd 35 4c 65 bc 99 84 04 bb
       0.06526751 -0.039263308 -0.01399522 -0.0020220636
000050 33 63 96 3d 3b 7a b3 3c 4e 0d 2a bc 1d 71 82 bc
       0.073431395 0.02190887 -0.010379149 -0.015923077
000060 9b 78 1b 3c 55 9a 95 3a 66 dc a7 3b fc 52 0b ba
       0.009489204 0.0011413792 0.005122709 -0.0005314795
000070 b0 af 83 bc 00 cb 28 3d 54 81 f3 bc 1d d5 49 bd
       -0.016074985 0.04120922 -0.029724754 -0.049275506

running_mean f4 [32]
000000 1e 49 06 3e a2 6c 12 be c9 d7 57 be 84 65 11 be
       0.1311383 -0.14299253 -0.21078409 -0.14198881
000010 18 c1 12 3e fe 0a 52 bd 25 62 81 3e d8 b5 1c be
       0.14331472 -0.051280014 0.2527019 -0.15303743
000020 72 da 4b be e2 22 5d 3b e4 c3 98 be ac 8c e4 3d
       -0.19907549 0.0033742716 -0.29836953 0.111596435
000030 49 d4 35 be 67 75 d2 bc e5 24 ee bc e5 7e 04 bd
       -0.17756762 -0.025690747 -0.029070327 -0.03234758
000040 cb 51 39 3e 72 6d a7 bd ae 34 c3 3e ce 11 51 3e
       0.18097608 -0.08175172 0.3812613 0.20416948
000050 c2 14 7c 3e 64 f7 9b 3e 49 5a a7 3e 7c 86 2f 3c
       0.24617293 0.30462182 0.3268607 0.010713216
000060 44 88 87 be 63 d8 65 3e 5b 82 45 3e 9e ef 6a be
       -0.2647115 0.22445826 0.19288008 -0.22942969
000070 fd b1 2a be 00 cc cc bc 15 f7 49 3e cf 88 09 be
       -0.1666946 -0.024999619 0.1972316 -0.13431095

running_var f4 [32]
000000 d0 83 af 3e 87 e5 7c 3e ce ce e7 3d 28 f5 61 3e
       0.34280252 0.24696933 0.11318742 0.22066176
000010 e3 f1 3b 3e 2f 29 3b 3e 3a 7a 71 3e df fb c1 3e
       0.18353991 0.18277429 0.23581782 0.37887475
000020 ce 74 e1 3e a5 8f 20 3e 78 87 de 3e 26 b3 90 3d
       0.44034427 0.15679796 0.4346273 0.0706542
000030 01 ad f2 3e 9d a8 46 3e 31 20 c5 3d 59 88 21 3e
       0.47397617 0.19400258 0.09625281 0.15774669
000040 8c 28 99 3e 8f b3 8d 3e e0 10 0b 3f f7 fb e5 3d
       0.29913747 0.27676055 0.54322624 0.11229699
000050 0e 53 05 3e 6c 87 a5 3e 00 7e 5d 3e 86 f4 0d 3f
       0.13019964 0.3232988 0.21630096 0.5545124
000060 ff 18 e0 3e 6b 82 66 3f f0 88 6d 3e fe 8b 41 3e
       0.4376907 0.9004275 0.23196769 0.18901059
000070 75 17 c1 3e f1 15 c3 3e 64 9c 0c 3f 90 4e f5 3e
       0.3771321 0.38102677 0.54926133 0.479115

weight f4 [16, 32]
000000 dc 95 08 be c6 f7 8d bc 97 e6 f3 3d 8f d3 ed bc
       -0.13338417 -0.017330062 0.11909216 -0.029031543
000010 ac cf b6 3d ce ca 1a be 29 cf 82 bd 47 b7 c6 bd
       0.08926329 -0.15116426 -0.06387169 -0.09702926
000020 3f 6a 0c be f5 59 25 3d 82 ae d0 3d 23 13 0a be
       -0.13712405 0.040368993 0.10189535 -0.13483863
000030 59 58 13 3e b4 2d 3b 3e ab 7b 04 ba a5 c9 e3 3d
       0.1438917 0.18279153 -0.00050538284 0.11122445
000040 1c 24 88 3d 79 9f 81 bd 14 2c 85 bd 3c 91 d6 bd
       0.06647512 -0.06329245 -0.06502548 -0.1047692
000050 7b 8e 8c bd f1 a1 a7 3d 6e 35 27 be fa 39 a7 3c
       -0.068631135 0.08185185 -0.16328976 0.020413388
000060 bf 25 19 3e 5f 53 a7 3d ea 68 2d 3e ea ff 18 bc
       0.14955805 0.08170199 0.16934553 -0.009338358
000070 ea db b3 3d 04 58 b1 bd 8d ec b2 bd 06 4d f4 bd
       0.0878218 -0.08659366 -0.08736525 -0.119287536
000080 20 a5 ed 3b 8b ee a7 3b bf 52 da bc 31 e5 13 bd
       0.0072523504 0.005124872 -0.026650785 -0.036107246
000090 aa f1 cf bd f7 82 cf bd 7c a6 e0 bd cf 18 bf 3d
       -0.10153516 -0.101324014 -0.109692544 0.09330904
0000a0 91 c4 06 3e 5d 3c 73 bd 25 71 09 be 2f cb 3c be
       0.13160922 -0.05938374 -0.13422067 -0.18436883
0000b0 fa 41 59 bd e4 fd 9a 3d 13 d1 e5 bd 8e 6f e6 bd
       -0.053041436 0.07567957 -0.11221518 -0.11251746
0000c0 8e a2 8b bd 3c b4 44 bc 86 70 7b bb 5c b5 43 3c
       -0.06818114 -0.012005862 -0.003836663 0.011945095
0000d0 dd 11 16 bc c6 55 34 3e ec 7a 9b 3c d0 81 0a bc
       -0.009159532 0.17610845 0.018979512 -0.008453801
0000e0 49 43 a9 bd 9c 86 b7 3d 8b 11 e4 bd b9 3b 14 be
       -0.08264787 0.089612216 -0.111361586 -0.14475907
0000f0 ce dd d3 3d 85 ff 9b 3d 45 46 92 3d 81 4e 2b be
       0.1034504 0.07617096 0.07142309 -0.16729166
000100 60 be 85 3d 5f 05 02 3e 78 df 07 be 9d 52 f9 bc
       0.06530452 0.12697361 -0.1326884 -0.0304349
000110 ae 71 82 3d 52 67 aa bc 65 6c c5 3d 59 c7 f0 bd
       0.06369339 -0.02080122 0.09639815 -0.117567725
000120 5b 12 86 3c dd 92 3e be c2 56 7c 3c 03 fa 09 be
       0.016366174 -0.18610711 0.015401544 -0.13474278
000130 6e 64 c2 bd a8 13 4f be ea 98 02 3e 67 30 95 3d
       -0.09491812 -0.20222342 0.12753645 0.07284623
000140 9f 59 1f 3d 46 d7 33 3b 9d 25 f9 3d f2 c1 2f 3e
       0.03890383 0.0027441545 0.12165377 0.17163828
000150 0b 2c 9b 3d d0 90 a6 bd 89 29 06 be 97 7f da 3d
       0.0757676 -0.081330895 -0.13101782 0.10668867
000160 e7 05 98 bd d3 92 13 be 54 2e c9 bc 28 42 db 3c
       -0.07423001 -0.14411478 -0.024558224 0.026764944
000170 dd 75 05 3e ee 11 a1 3d 33 90 a6 3d 7e bc 0d 3e
       0.13033243 0.07864748 0.081329726 0.13841435
000180 df 96 0b bc e0 1e 3f be bd a0 9a 3d 6a e7 2a bd
       -0.008519857 -0.18664122 0.0755019 -0.0417246
000190 5a 81 1a 3c b9 37 11 3e f6 0e a1 bd 93 db ac bd
       0.009430254 0.14181413 -0.07864182 -0.08440318
0001a0 c3 e1 24 3d a8 4d 2f be fb 95 1f 3e 28 e3 d1 bd
       0.040254366 -0.17119467 0.15584557 -0.10248405
0001b0 49 7a 0a 3e 77 15 2b be db 90 69 bd fd 02 c4 3d
       0.1352321 -0.16707407 -0.05702291 0.095708825
0001c0 d2 65 ff bc 50 d3 07 bb 5c 43 3e bd 00 aa 3a 3d
       -0.031176481 -0.0020725317 -0.046450958 0.04557228
0001d0 e7 1c 29 bb 60 9f ca 3d 4d eb fc bd 6b c4 9c bd
       -0.002580458 0.098936796 -0.123495676 -0.07654651
0001e0 5b 84 11 be 87 55 d9 3c b4 f2 c2 3c a4 af 23 3d
       -0.14210646 0.02653004 0.02379737 0.039962426
0001f0 3c 8c f1 3c 5f 74 a1 3d 90 94 f9 3c 20 85 0f 3e
       0.029485814 0.07883524 0.030466348 0.14015627
000200 16 4a 2c 3e 1f 2a 6e 3d 50 f3 ad 3d b0 5c d2 3c
       0.16825137 0.05814564 0.08493674 0.025678962
000210 4a d5 4f 3d e5 6f a2 bd bf c1 a2 bd 28 37 3a bd
       0.050740518 -0.079314984 -0.079471104 -0.045462757
000220 94 ab 1a be fe 48 0c bc ae 36 ac bd 2c c2 27 3e
       -0.15104514 -0.008562325 -0.08408867 0.16382664
000230 1a 7e 01 be 42 13 e0 bb 2d d0 4e 3c ab f9 cf 3d
       -0.1264576 -0.006838233 0.012622875 0.10155042
000240 98 5b 59 be d8 2c d1 bd 37 f9 16 3e 33 61 3d 3c
       -0.21226346 -0.102136314 0.14743505 0.011558819
000250 e0 ae 2d 3b da a2 26 be 85 ce 15 3e e0 45 c0 3d
       0.0026501939 -0.1627306 0.14629562 0.093883276
000260 4c f8 7f 3d fa ad c3 3d 71 1a 49 bc 29 74 d5 3d
       0.062492654 0.09554668 -0.0122743705 0.104225464
000270 dc 80 00 bd 5d b5 9c bd 1a 5e 13 be 5e f4 7d bd
       -0.03137289 -0.0765178 -0.14391366 -0.062000625
000280 5c 35 13 3e f6 31 8d bc 9b e8 03 be 85 ab 32 be
       0.14375824 -0.017235737 -0.128817 -0.17448242
000290 45 68 28 bd 6c 4e 1c 3d 31 71 f8 3c bf ce f6 3d
       -0.041115064 0.038160726 0.030327411 0.120511524
0002a0 cc 5e 14 3d ea a4 e0 3d c9 ec 9c 3d b8 ef 26 bd
       0.036223218 0.10968955 0.07662351 -0.040755957
0002b0 d0 eb c1 b9 fa d7 26 bd af 84 d6 3d cf 0f 78 bd
       -0.00036987523 -0.040733315 0.10474526 -0.06056195
0002c0 59 3d 34 3d 43 4f dc bd 8e 89 3d be d5 0b 12 bd
       0.04400382 -0.107573055 -0.18509504 -0.035655815
0002d0 25 26 df bd a5 2b 4f 3b 0b 61 95 bc 78 a8 0b 3d
       -0.10895947 0.0031611708 -0.01823475 0.03409621
0002e0 b0 14 b9 bd ee 78 62 bd bd c3 68 3d d7 90 4d 3d
       -0.09037149 -0.05529111 0.056827296 0.05018696
0002f0 f6 5e 50 3d 19 5d 62 3c 9b 6c 19 3e 14 4f b1 bd
       0.05087181 0.0138161415 0.14982836 -0.08657661
000300 d3 17 04 3e e9 85 fb 3d 87 fc a9 bd 01 95 f5 3d
       0.12899713 0.12281401 -0.08300119 0.11991311
000310 ce b7 31 3e 03 66 01 3e 84 a5 a3 bd f6 6f 2f 3c
       0.17355272 0.1263657 -0.07990554 0.010707846
000320 91 fb 62 3d 91 3c 0c bc b2 fb f9 bd 8e a5 10 3e
       0.055415694 -0.008559362 -0.1220621 0.14125654
000330 cc 91 ef bd a3 86 b9 3d 0f 5b 1e bd 96 fe 3c 3e
       -0.116977304 0.09058883 -0.03866106 0.18456492
000340 e9 af 02 be fc 9b 16 3e 69 56 78 bc 6f 41 11 be
       -0.12762417 0.14707941 -0.015157321 -0.14185117
000350 b1 44 0a 3e 81 df 65 bd d0 98 f6 3c f7 68 a7 bd
       0.13502766 -0.056121353 0.030102164 -0.08174317
000360 95 a7 df bd 7d 1c 94 3c 2c 9b 66 3d f6 95 54 3d
       -0.109206356 0.01807999 0.056300327 0.051900826
000370 e1 db 4e bb 43 23 7d 3b 32 2b 0d 3c 97 5d 95 bd
       -0.0031564164 0.0038625754 0.008616256 -0.072932415
000380 de 99 0d be 58 ef 1e be 79 6c 34 bd 96 67 fc bd
       -0.13828227 -0.1552099 -0.04404876 -0.12324445
000390 1a 88 aa bc 74 3c 01 3e 48 21 1b 3e d3 37 f3 bc
       -0.020816851 0.12620717 0.15149415 -0.029689705
0003a0 28 f0 87 bb 55 67 a4 bb ee ae 44 3d 70 6c 87 bd
       -0.004148502 -0.005017201 0.04801839 -0.0661248
0003b0 c3 05 6a 3c 26 26 6f bd 6d 49 fa bd 89 10 33 be
       0.0142836 -0.05838599 -0.12221036 -0.17486776
0003c0 9b 12 53 be 15 8d 51 3a f6 a8 98 3d 6b 88 0d be
       -0.20612566 0.000799374 0.07454102 -0.1382157
0003d0 3f 52 53 bc 96 53 90 bb 8b 34 7b bd d5 0a 3d 3d
       -0.012898027 -0.0044044955 -0.061329406 0.04615291
0003e0 0b 6b f8 bd 36 95 05 bd 7f 9c c1 3d 63 f7 af 3c
       -0.12129792 -0.032613 0.094536774 0.021480268
0003f0 bf c3 e4 bd 5f de 65 3d a2 7a 3a bc e9 6b 09 3e
       -0.11170148 0.056120273 -0.011381777 0.1342007

bias f4 [16]
000000 00 e4 cf bd b1 14 db bc 5b c6 b7 3d 39 cc bf 3d
       -0.101509094 -0.026743265 0.0897338 0.09365124
000010 c8 5b 52 bd 8e 65 2d 3e 45 50 0c 3e 44 df 1f be
       -0.05135706 0.16933271 0.13702495 -0.15612513
000020 43 38 15 be ad 4a a9 bc b0 58 99 3c ef a1 0d be
       -0.14572243 -0.020665491 0.018719047 -0.13831304
000030 71 e5 f5 bd 5e eb de 3d ec 2c c3 3d 90 8f 1d 3c
       -0.12006653 0.108847365 0.095300525 0.0096167475

weight f4 [16]
000000 ed e8 7f 3f 2f ef 87 3f bd 1d 7b 3f 97 94 7b 3f
       0.9996479 1.0619868 0.9809225 0.98273605
000010 c5 6b 7d 3f 31 94 78 3f fd 2d 85 3f 8f 9e 82 3f
       0.9899257 0.9710112 1.040466 1.0204638
000020 a0 5f 7d 3f 5c fd 7d 3f 1d 7e 84 3f ad e5 7b 3f
       0.9897404 0.9921472 1.0350987 0.9839733
000030 2f fb 74 3f 1c 80 86 3f 5e 24 81 3f 92 87 82 3f
       0.95695776 1.0507846 1.0089223 1.0197623

bias f4 [16]
000000 3e c6 0e 3b 0e 14 2e 3d 56 23 e1 3c e1 41 c1 3a
       0.0021785642 0.042499594 0.02748267 0.0014744365
000010 93 38 ba bc 06 ae 94 bc 8b f1 33 3d 09 a3 fd 3c
       -0.022732055 -0.018149387 0.043931525 0.03096153
000020 a8 e4 81 3c 5e c8 39 3d 3d 1b b2 3b 96 76 3b 3b
       0.015856102 0.0453571 0.005435376 0.0028604618
000030 ce e8 dd b8 d3 74 85 3d 8e 74 67 3b 81 6c fd 3c
       -0.000105814644 0.06516423 0.0035317275 0.030935528

running_mean f4 [16]
000000 e2 d5 e8 bd 82 3c a7 be 68 ff 1e 3e 9a 00 8b 3c
       -0.1136892 -0.3266335 0.15527117 0.01696806
000010 04 99 b9 bd 17 a2 f9 3d 14 9d b0 3e ff d5 06 bf
       -0.090623885 0.12189119 0.3449484 -0.5267028
000020 34 22 f0 be 42 53 30 bf 78 c8 2d bd 79 c8 12 be
       -0.46901095 -0.6887704 -0.04242751 -0.14334287
000030 b1 4c 51 be 26 4e 2c be da 51 84 be 4b 8a a4 3e
       -0.20439412 -0.16826686 -0.25843698 0.3213676

running_var f4 [16]
000000 4b cd 1a 3e 2b e1 9c 3e c4 64 5a 3e 9b 5d 41 3e
       0.15117376 0.3064054 0.21327502 0.18883364
000010 09 6a c7 3e cf b6 88 3e 77 bc 02 3e c9 7b 35 3e
       0.38948086 0.26701972 0.12767206 0.17723002
000020 66 c9 0a 3e db 79 4f 3e e0 ba 2b 3e 49 98 15 3e
       0.1355339 0.20261328 0.16770506 0.14608873
000030 01 66 a7 3e 0b 2e 61 3e ad 28 01 3e 6c 2a 6b 3e
       0.3269501 0.2199022 0.12613173 0.22965401

weight f4 [48, 11]
000000 9e b0 1f bd ad c0 c1 3d 1f a4 60 be 78 f4 06 be
       -0.038986795 0.09460578 -0.21937607 -0.13179195
000010 42 b5 2c 3e 50 cb 24 3d f1 96 10 be c1 f6 1b be
       0.1686602 0.040232956 -0.1412008 -0.15230848
000020 68 c1 1a 3e 81 a5 00 be 1e 0f 84 3e d6 70 8a bd
       0.15112841 -0.12563135 0.25792783 -0.06759803
000030 7e e3 0a 3d 05 6e 84 be 1a 55 89 be 1e b3 26 3e
       0.03390836 -0.25865188 -0.2682274 0.16279265
000040 e4 ef 63 bc 62 36 eb bd 69 98 9a bd 35 82 20 be
       -0.013912175 -0.11484982 -0.07548601 -0.1567467
000050 ef 6d 62 3e 89 cc 84 be db 49 85 bd 3b b4 69 be
       0.22112249 -0.25937298 -0.065082274 -0.22822659
000060 b0 25 25 be 03 e9 70 3d d2 4f 95 3e e1 d9 9d 3e
       -0.16127658 0.058815967 0.2916246 0.3083029
000070 08 71 aa bc 9e 85 02 3b 60 af 49 3c a6 f5 12 be
       -0.02080585 0.0019916068 0.012309879 -0.1435152
000080 0d f7 24 3e a5 06 80 3d 3f 5a 2d bc 9e d7 a4 bd
       0.16109867 0.06251267 -0.010580598 -0.08048938
000090 7a 25 59 3e 17 0c 4d be bc 15 1a bd 61 0b 5f 3e
       0.21205702 -0.20024143 -0.037618384 0.21781684
0000a0 78 d3 37 3e d3 26 97 be db 2d 1e 3d f2 98 a8 3d
       0.17951763 -0.29521808 0.03861795 0.08232297
0000b0 24 b3 c4 3d a4 80 10 be f6 7b df 3d 6e 47 20 3e
       0.09604481 -0.14111573 0.109123155 0.15652248
0000c0 ef b3 9b be 2a 7e 5d bb 2c fa 4b 3e c9 36 80 be
       -0.30410716 -0.0033797123 0.19919652 -0.25041798
0000d0 14 d7 a2 bd fc 7b 78 be 06 af 6c bd 59 25 cf bd
       -0.07951179 -0.24266046 -0.057784103 -0.101145454
0000e0 b1 ff a9 3e 13 8d 87 be 88 b9 4e bc 97 19 8b 3e
       0.3320289 -0.2647482 -0.012617476 0.2716796
0000f0 0d 0b 92 3e 5d 04 89 be 4d eb 99 3d eb 99 99 bd
       0.28524056 -0.2676114 0.07515583 -0.07500061
000100 07 70 6b be 05 70 15 be 8d 71 93 be 0c 44 95 3e
       -0.22991954 -0.14593513 -0.2879757 0.29153478
000110 22 25 08 be ae e0 10 3e 8a 37 36 3e 16 19 29 3d
       -0.13295415 0.14148208 0.17794624 0.04128369
000120 d1 16 96 3e f6 3e 7a 3e 4c d1 39 be bd d6 a3 be
       0.29314283 0.2443808 -0.18146247 -0.3199977
000130 22 47 2e be 1e 32 1b 3e 2b d7 8a be ca 67 01 bc
       -0.17019323 0.15155837 -0.27117285 -0.00789828
000140 ec 53 11 be c8 4a 1e be 1b 59 65 3e 0b b1 8f bc
       -0.1419217 -0.15458214 0.22397272 -0.017540475
000150 3c 9e 06 be 94 73 87 3e 56 f2 9a 3d ef 38 ad bd
       -0.13146299 0.26455367 0.07565753 -0.08458125
000160 ea 62 ff bd 73 7c a2 3d da 64 4a be 40 df 4e 3d
       -0.12470038 0.07933893 -0.19765034 0.050505877
000170 6b 81 9e 3e e7 c1 93 3e c9 43 95 bb 23 1d 05 3e
       0.30958113 0.28858873 -0.0045551998 0.12999396
000180 a4 c1 5c 3d cd 4e 32 bc e1 f2 d6 3d 5f 69 1c 3e
       0.053895608 -0.010883045 0.10495544 0.15274571
000190 ae 3d 9b bc b3 49 70 be 90 21 fa 3d 81 a9 15 be
       -0.01895031 -0.23465614 0.12213433 -0.14615442
0001a0 86 9a c6 3d 75 90 8d 3e 06 13 ed bd af 61 8b 3e
       0.09697442 0.27649274 -0.11575894 0.27222964
0001b0 8d 02 3d 3e 41 6f 81 be 3a 35 46 be dc 38 97 3d
       0.18458004 -0.25280192 -0.19356242 0.07383892
0001c0 6b ff 68 bd 95 d3 12 3e 13 b2 99 3e 11 32 ab 3e
       -0.05688421 0.14338525 0.30018672 0.33436635
0001d0 5e 1f 7a be 09 75 4a be 4e d3 61 3e 2f a3 47 3e
       -0.24426028 -0.19771208 0.22053263 0.19495843
0001e0 1b be 0c be db 83 83 3e 4a ee 8e be d5 c3 ae bd
       -0.13744394 0.25686535 -0.27916175 -0.08533446
0001f0 2e 7f 37 3e 21 fb 17 bd ff c2 95 3e fd 86 4e 3e
       0.17919609 -0.03710473 0.29250333 0.20168681
000200 68 56 59 bd e5 66 ea bd 4e af 89 3e ad 46 ad 3c
       -0.05306092 -0.11445407 0.2689156 0.021151865
000210 33 fb 36 be 82 40 58 be f0 82 b0 bd f9 7e cc 3d
       -0.17869262 -0.21118358 -0.08618724 0.099851556
000220 61 77 05 be a9 96 20 be 7a 33 44 be d9 89 15 3e
       -0.1303382 -0.15682472 -0.19160262 0.14603366
000230 dd 0b 9e 3e 3a 9a c9 3d b6 a5 8c 3e 7c 97 83 3e
       0.30868426 0.098438695 0.27470177 0.2570151
000240 95 8e 98 bc f9 f6 79 3e dd 10 2d 3e 23 93 8c bc
       -0.018622676 0.24410619 0.16900964 -0.017160004
000250 52 3a 60 be 83 89 a4 be e1 e7 41 3e a4 e8 85 3e
       -0.21897247 -0.32136163 0.18936111 0.26154053
000260 dd 6d 0f 3e 57 bd 51 3d f5 19 88 be b8 7f 0a be
       0.14006753 0.05120596 -0.26582304 -0.13525283
000270 35 9b 73 3e e2 e6 97 3e af 2e 53 be d6 6f c4 3b
       0.23789676 0.29668337 -0.20623277 0.005994777
000280 1b 59 27 3e f5 9d 09 3e 73 97 d7 bd d0 72 32 3e
       0.16342585 0.13439162 -0.105269335 0.1742661
000290 4e 0b 22 be e9 87 1a 3e e0 e9 cf 3d c2 b9 9a bc
       -0.15824625 0.15090908 0.1015203 -0.018887404
0002a0 9e eb 90 3e ed 64 15 3e 62 6a 43 3d 75 bf 9c 3e
       0.28304762 0.14589281 0.047708876 0.3061482
0002b0 fc 8e a2 3c bb 2e 5a bd 26 52 ae 3d 07 c3 cc 3d
       0.01984357 -0.053267222 0.08511762 0.09998136
0002c0 d6 37 86 3e 53 8b d5 bd 6d 6c 4b be ef 72 50 3e
       0.26214474 -0.104269646 -0.1986558 0.20356344
0002d0 93 6a 64 be fb cb 0f be f2 c2 3c be 95 e1 6f be
       -0.2230628 -0.14042656 -0.1843374 -0.23425896
0002e0 3b 76 7f be 15 61 15 3e 0f de 29 3e c4 90 23 3e
       -0.24947445 0.14587815 0.16588615 0.15973192
0002f0 d6 90 df 3d 6f 5b d1 bd b8 b4 72 3d 60 10 c3 3c
       0.10916297 -0.10222518 0.059254378 0.02381152
000300 d2 e1 8b be 94 56 8c be 98 e8 24 be ee 84 c0 3d
       -0.27320725 -0.27409804 -0.16104352 0.09400354
000310 48 45 94 3e 9e b2 95 be 50 59 08 3e 47 bc d7 bd
       0.28959107 -0.29237837 0.1331532 -0.10533958
000320 f2 8b 9d be 12 15 e0 bb eb d4 40 3d e6 0c 30 3d
       -0.30770832 -0.0068384493 0.047078054 0.04298105
000330 fe c7 c9 3a 2a 0d 21 3e f0 34 10 3e d0 77 4c be
       0.0015394685 0.15727678 0.14082694 -0.1996758
000340 26 e8 8c be 5f 28 ab 3d fc 87 bf 3d fb dd 80 3c
       -0.27520865 0.083573096 0.09352109 0.015730849
000350 b5 28 50 be 76 03 63 3c 53 33 97 3d d3 24 12 3e
       -0.20328029 0.013855806 0.07382836 0.1427186
000360 ac e4 20 be 7f 9d 58 be 5c ec f9 bd ff 15 e8 bd
       -0.15712231 -0.2115383 -0.12203285 -0.113323204
000370 54 92 35 3e ac 7a 25 be 75 61 1b 3e f8 64 72 bd
       0.17731601 -0.16160077 0.15173896 -0.059178323
000380 56 21 24 3e 84 4d 3f be a7 1b 61 3d 79 8a be bd
       0.16028342 -0.18681914 0.054958012 -0.09303755
000390 ca 8c 6e be 7b fa 31 3e 2e 5d 86 3e a6 0a 8f be
       -0.23295894 0.17380707 0.26242965 -0.27937812
0003a0 5d 40 46 bd 04 76 a4 bd 30 8a 7f 3e bb 4f 8c 3e
       -0.048401225 -0.08030322 0.24955058 0.2740458
0003b0 d2 50 7b 3d a0 c9 4f 3e 0e 37 99 be 6b 66 4b be
       0.061356373 0.20291758 -0.29924816 -0.19863288
0003c0 c9 11 a2 be 76 06 86 3d 07 21 94 3d 07 a0 9d bd
       -0.31654194 0.06544201 0.07232862 -0.076965384
0003d0 65 0b 0d be 63 16 73 be 1d 9b fa bd 1b 6a 7f 3e
       -0.13773878 -0.23739009 -0.12236617 0.2494282
0003e0 88 b7 cd bd 92 9a 39 3e 0f 2d 11 bc 10 da 2b be
       -0.100447714 0.1812537 -0.00886084 -0.16782403
0003f0 9c 24 5f be 40 21 91 be fa 02 14 be f9 7e 17 be
       -0.21791309 -0.2834568 -0.1445426 -0.1479453

bias f4 [48]
000000 61 27 d6 bc 3c 7f 93 bd 47 59 d2 3c 1e 03 d9 3d
       -0.026141824 -0.072020024 0.025677336 0.10596298
000010 bc 38 17 bd 48 6a 2e 3e 78 40 94 be cb 05 d5 bc
       -0.03691934 0.1703273 -0.28955436 -0.026003739
000020 91 fe 21 3c fd 3b c5 bd ea 3b 5b 3e df 41 18 3c
       0.0098873535 -0.096305825 0.21409574 0.009293049
000030 26 cc d1 3c 40 1f 39 3e 3f 70 97 3e 9c 4d 8a be
       0.02561004 0.18078327 0.29577824 -0.27012336
000040 14 7a 18 3d e1 df 85 3e 1e b5 f7 bd 66 ba 1e 3c
       0.037225798 0.2614737 -0.12095092 0.009687996
000050 45 bf 00 3e eb b1 8e be 46 97 0f be 36 3c 4c bd
       0.12572964 -0.27870116 -0.1402255 -0.04986211
000060 dd 99 61 3e 48 4d 09 bd 2c 12 c4 3d a6 4c c3 bc
       0.2203135 -0.033520967 0.095737785 -0.02384026
000070 fb 11 8b be ad 1c 9b 3e 52 c2 8d 3d 6d c3 4a 3e
       -0.27162156 0.30295315 0.06921829 0.19801112
000080 d1 fb 07 3d 0e 2b 1a be 50 66 d4 3d ab ae 8b 3e
       0.033199135 -0.15055487 0.10371077 0.272817
000090 15 9a 61 3e da 6d 2c 3e 45 27 5c be 17 28 e1 bd
       0.22031434 0.1683878 -0.21499355 -0.10993975
0000a0 f9 7a 98 be ad f3 e6 bd a2 db 44 3e ab fa 7c bd
       -0.2978132 -0.11276946 0.19224408 -0.061762493
0000b0 34 6f 22 be de 81 6c 3e 3a a0 5e be 19 1d 24 bd
       -0.15862733 0.23096415 -0.21740809 -0.040066812

weight f4 [48]
000000 9e e0 76 3f d7 75 78 3f fa 34 84 3f c3 33 7a 3f
       0.9643649 0.9705481 1.0328667 0.9773523
000010 c4 b7 82 3f cf 48 7c 3f f6 92 82 3f b2 4e 81 3f
       1.0212331 0.985486 1.0201099 1.0102141
000020 98 66 7f 3f 43 cd 81 3f 62 b2 7a 3f c0 5d 80 3f
       0.9976592 1.0140766 0.9792844 1.002861
000030 59 76 83 3f db 48 7b 3f de c1 80 3f dc 63 82 3f
       1.0270492 0.98158044 1.0059164 1.0186725
000040 80 cc 7b 3f 09 ec 7c 3f 0f 10 80 3f 8d 52 7f 3f
       0.9835892 0.9879766 1.0004901 0.9973534
000050 e9 63 7f 3f c5 dc 7b 3f 49 7b 7d 3f 4d 54 7d 3f
       0.99761826 0.9838374 0.99016243 0.9895676
000060 f4 7b 75 3f 52 0e 83 3f 49 a8 81 3f bd e0 80 3f
       0.9589226 1.0238745 1.0129482 1.0068585
000070 f1 8a 77 3f 08 0f 81 3f d2 b2 80 3f 2b 9a 86 3f
       0.9669638 1.0082712 1.0054572 1.0515798
000080 cc ff 7a 3f 7a 59 84 3f 54 be 81 3f ad 52 81 3f
       0.98046565 1.0339806 1.0136209 1.0103356
000090 d7 34 77 3f fa 45 7a 3f f3 a2 82 3f ff 73 7d 3f
       0.96565 0.97763026 1.0205978 0.9900512
0000a0 cd 14 81 3f 56 4c 78 3f ed ed 7e 3f 4f 18 81 3f
       1.0084473 0.9699148 0.99581796 1.0085543
0000b0 97 5a 82 3f ed a4 81 3f 74 06 81 3f 01 91 81 3f
       1.0183896 1.0128456 1.0080094 1.0122377

bias f4 [48]
000000 af b6 0b bd c8 fc 0f bd e6 9b 08 3b 62 39 dc bc
       -0.034109768 -0.03515318 0.0020844876 -0.026882831
000010 09 4c 95 bc ce 35 3a bd 6f cb 27 3c 3a fb 21 bd
       -0.018224733 -0.04546147 0.010241373 -0.03954623
000020 5d f0 9b bc 72 ff 93 3b 0e ec b8 bc 06 a0 44 ba
       -0.019035513 0.0045165354 -0.022573497 -0.0007500652
000030 48 e8 b9 3c 76 a5 0d 3b ca 28 06 bd a3 82 29 3c
       0.022693768 0.0021613515 -0.032753743 0.010346088
000040 ce 19 94 3c 93 c6 8f bb 33 3e 8e bb dd ca 5c 3b
       0.01807871 -0.0043876856 -0.004340911 0.0033690252
000050 30 9e 9b ba ef 81 53 bc 5c 03 c8 bc 99 0b d7 3b
       -0.0011872705 -0.012909397 -0.024415664 0.006562662
000060 91 45 34 bd 22 ec d7 bc 6d 59 6b bc cd 93 35 bc
       -0.044011656 -0.026357714 -0.0143645825 -0.011082602
000070 b7 a1 e7 bb 29 ec 63 3c 25 8a 5e bc ef b5 1c 3d
       -0.0070688385 0.013911285 -0.013582741 0.038259443
000080 d6 78 84 bc 94 11 b7 3c 8d d1 0a 3c 8e da d5 bc
       -0.0161709 0.02234725 0.008472812 -0.026105192
000090 32 08 b8 bc 27 3a 7c bc f0 36 36 bd 5b 15 a9 bc
       -0.022464845 -0.015394724 -0.044485986 -0.020640066
0000a0 2b 45 4a bc 4f 4b 73 bc af 01 2c bc 7f 3f 78 3c
       -0.0123455925 -0.014849498 -0.010498448 0.015151857
0000b0 0f 1c 1c 3c 9c 03 15 3c 2e 0e 32 3b 88 4c 88 bc
       0.009528174 0.009095099 0.0027169096 -0.016638055

running_mean f4 [48]
000000 bf d2 e9 be 87 35 ac bf 08 ab 15 c0 21 90 a1 be
       -0.456686 -1.3453835 -2.338564 -0.31555274
000010 fe 43 17 bf 5e 6d 89 3f 53 00 5f 3f 9e cc f8 bf
       -0.5908812 1.0736501 0.8710987 -1.9437444
000020 17 c8 9c be 93 54 b8 bf 23 7f 03 3f 64 4e 06 c0
       -0.30621406 -1.440081 0.5136587 -2.0985346
000030 88 72 fc bf 76 8e bf 3f 47 14 f4 3e 1f 40 24 3f
       -1.9722452 1.4965351 0.4767172 0.6416034
000040 50 a6 d3 bf 37 38 cb 3e b9 40 2b c0 17 09 39 3f
       -1.653513 0.39691326 -2.6758254 0.72279495
000050 db 0a e4 3b 3f cf 9a bf 83 26 c4 bf 3f de 02 c0
       0.006959302 -1.2094496 -1.5324253 -2.0448148
000060 cf 75 53 bf 91 12 95 bf 92 71 09 3f b1 5b 2a c0
       -0.82601637 -1.1646291 0.5368892 -2.6618464
000070 9a ff cc 3d 0d 1c 1a 40 b7 26 04 40 72 7d 84 3f
       0.1000969 2.407962 2.064863 1.0350783
000080 0c 2f e8 bf a4 20 6d 3f 39 98 94 bd fd 57 73 3f
       -1.8139358 0.9262793 -0.07255597 0.95056134
000090 6e 72 b0 bc 2c 53 aa 3e ce d3 92 bf 88 9f 01 c0
       -0.02153894 0.3326658 -1.1470888 -2.025362
0000a0 8b fa 7b c0 81 63 aa 3f 6d 94 41 bf 4f aa 81 3e
       -3.937167 1.3311616 -0.75617105 0.25325248
0000b0 8b e4 a9 bf b7 72 89 3f 0e ce 82 3f d1 4e d0 bf
       -1.3272871 1.0738133 1.0219133 -1.6274053

running_var f4 [48]
000000 9b 5e bd 3e 42 5e 9a 3e 1f 7e 27 3d 22 4e 0b 3d
       0.3698624 0.30150038 0.040891763 0.03401006
000010 b2 b9 32 3e 9b 73 49 3f 81 94 e3 3e 62 87 3d 3e
       0.1745365 0.78692025 0.44449237 0.18508676
000020 ad 7d 72 3e df b6 1c 3e e3 c3 0d 3e ab b0 f4 3d
       0.23680754 0.15304135 0.13844256 0.11947759
000030 ca e7 2e 3d a9 1c 96 3e e7 9f e4 3e 60 96 31 3d
       0.04270152 0.2931874 0.44653246 0.0433563
000040 8d dc 8f 3d d9 23 17 3e 29 68 30 3e 62 8f ed 3c
       0.070244886 0.14759769 0.17227234 0.028999034
000050 5c d8 55 3e cc c7 fd 3d 9e b8 06 3d 6c 7a 9e 3d
       0.20883316 0.12391624 0.03289091 0.07738194
000060 d2 00 69 3e 7c 0e 4a 3d 0d 2d 88 3e 15 6b 23 3e
       0.22754219 0.04933022 0.2659687 0.15958817
000070 b8 0f c5 3e ff 72 22 3d 74 c9 54 3d b1 9a 6f 3d
       0.38488555 0.03966045 0.051949933 0.058497135
000080 8d 8c 09 3e b3 ff 89 3d 04 b5 0f 3d 34 d2 1d 3f
       0.13432522 0.06738224 0.03508474 0.6164887
000090 f4 b5 33 3f 20 02 cf 3e 2b e7 e7 3e e7 2c 1c 3d
       0.70199513 0.4043131 0.45293555 0.03812876
0000a0 37 e5 ac 3d 2f b3 28 3e b5 53 ad 3e 3b 74 af 3d
       0.08442157 0.16474603 0.33852926 0.08567091
0000b0 c0 0f 07 3e ea ac 4c 3d f3 61 94 3e cd 5e f1 3d
       0.13189602 0.04996959 0.2898098 0.1178566

weight f4 [16, 48]
000000 01 de d0 3d 70 ff af bd c8 21 0a be 60 f1 2f 3d
       0.10198594 -0.08593643 -0.13489449 0.042954803
000010 88 4f be bd 73 83 ac 3c a1 63 09 3e a5 2f af bd
       -0.09292513 0.021058774 0.13416912 -0.08554009
000020 b3 60 db 3c cf 91 f3 3d c8 21 5f 3c 43 5d 17 be
       0.026779508 0.11893045 0.013618894 -0.1478167
000030 4a 58 da 3d 2d bf 0b be b2 38 fd bd 2b f9 eb 3d
       0.10661371 -0.13647147 -0.123643294 0.115221344
000040 43 d5 bd 3d b5 d3 c9 3d fe 76 fb bd 99 67 51 3d
       0.09269192 0.09854833 -0.12278555 0.05112419
000050 35 a9 23 3e f8 a4 b9 bc f2 02 eb 3d c7 bb 5a 3d
       0.15982516 -0.022661671 0.11475171 0.053401735
000060 53 1f a4 3c 38 f6 bc 3d 60 e7 b6 bd eb 53 08 bd
       0.020034468 0.0922665 -0.0893085 -0.033283155
000070 c6 4f 70 3d ff 82 e5 bb 05 87 d9 3c e2 a7 36 bd
       0.058669828 -0.0070041413 0.02655364 -0.0445937
000080 04 8f fa 3c a4 95 53 3d 91 f1 df 3d 60 82 9c 3d
       0.030585773 0.05165638 0.10934747 0.076420546
000090 fd 3a 85 bc 5c ea 8e bd 39 cf e2 bd 59 d9 db 3d
       -0.01626348 -0.06978294 -0.11074681 0.10734815
0000a0 c1 49 fe 3d a7 53 be 3c 85 15 46 3c 7f 7c 02 bd
       0.12416411 0.023233248 0.012090092 -0.03185701
0000b0 bd 3b 8d bd 2e 6c 93 bb dc 5b c8 3d bd f4 37 bd
       -0.0689616 -0.00449898 0.09783146 -0.044911135
0000c0 b3 0a e4 3d 9c b2 04 bc 6b ab 9b bd cd 9e aa 3d
       0.11134853 -0.008099224 -0.07601055 0.0833107
0000d0 c0 3b f0 bd 20 95 64 3d 52 0f 14 be 71 3a a1 3d
       -0.117301464 0.05580628 -0.14458969 0.07872475
0000e0 78 c6 cd bd 51 2c b3 bd 65 c5 b7 bc 0d fd d9 bd
       -0.100476205 -0.08748687 -0.022432992 -0.10643969
0000f0 a3 ef 26 be 9c 65 e4 3d eb ab 04 be 21 d6 e3 bd
       -0.16302352 0.11152193 -0.12956207 -0.11124826
000100 8f 98 44 3d 77 f7 25 3d b2 18 1b be 0a e5 25 3d
       0.047997054 0.040519204 -0.1514614 0.04050163
000110 a5 31 7b 3d 7d fe 85 3d 78 3d 80 bd 2d 55 35 3d
       0.06132664 0.065426804 -0.06261724 0.044270683
000120 7d f5 e0 bc 29 a8 84 3d 18 9a e2 bd 47 e1 72 3c
       -0.027460808 0.064773865 -0.11064547 0.014824218
000130 97 76 8a 3d 61 9a bf 3d 72 36 84 3d 84 73 db 3c
       0.067609005 0.09355617 0.06455697 0.02678848
000140 44 92 15 bd e5 30 d4 bd 3d 14 0e be eb 5a ba 3c
       -0.036516443 -0.103608884 -0.13874908 0.022748431
000150 ca 5f dd bc 14 a6 a0 3d d4 fb 11 3d 55 d6 a8 3d
       -0.027023215 0.07844177 0.035640553 0.082440056
000160 a4 92 63 bd 02 e9 82 bb e9 a1 22 be 4c 14 9e 3c
       -0.05555977 -0.003995062 -0.15882076 0.019296788
000170 f4 74 93 3d 29 3d 8f bd 58 a0 91 3c 80 df de bd
       0.072000414 -0.06994087 0.017776653 -0.10882473
000180 87 3f 4d 3b 1c ec 93 3d 08 5c 68 bd bf fd 55 3c
       0.0031318383 0.07222769 -0.056728393 0.013060986
000190 28 9c a6 3d 5d 88 06 3d a3 7d d5 3c 9b 9e f4 3d
       0.08135253 0.03284489 0.026060885 0.11944314
0001a0 b6 ce 20 bd 86 1c 4b bd 8f 3d b0 3d 23 a5 ac bd
       -0.039259635 -0.04958775 0.08605491 -0.08429935
0001b0 cd 38 38 3d 05 38 09 bd 22 0e 18 3e de 43 9e bd
       0.044976044 -0.03350069 0.14849141 -0.077277884
0001c0 17 a1 f3 3c 10 1c b8 3d 18 15 fa 3d 82 3d c0 3d
       0.0297399 0.089897275 0.122110546 0.09386732
0001d0 ca f5 26 3a 15 8b 1a be a4 db d6 3d 9e 37 a5 3d
       0.0006369023 -0.15092118 0.10491112 0.08067249
0001e0 92 22 82 bd 85 43 b2 3d 87 bc a8 3d 1a 02 ce 3d
       -0.0635425 0.087042846 0.08239084 0.100589946
0001f0 cb a6 54 bd 69 9d 2c 3d 74 49 87 3d 66 02 82 bc
       -0.05191688 0.042142306 0.06605807 -0.015870284
000200 c9 b4 17 bd 8c 86 f6 3d 35 a9 1f bd 4e f0 04 3e
       -0.037037645 0.120373815 -0.038979728 0.12982294
000210 2f 5a c3 bd 5c 8a 2e 3c 16 bb 1b 3e c8 fd 0c 3e
       -0.095386855 0.010653105 0.15208086 0.13768685
000220 54 22 e2 bd 4f b1 04 bc 3a b8 c9 bd 60 86 22 bc
       -0.11041704 -0.008098914 -0.098495916 -0.009919733
000230 99 20 e9 bd ba 9e 1c 3d 88 6f 2d 3c a3 4d 5d bd
       -0.11383171 0.03823731 0.010585673 -0.05402912
000240 e5 66 aa bc b1 95 9c 3c 00 48 66 3d 10 6d 31 bd
       -0.020801017 0.019114347 0.05622101 -0.0433169
000250 cf 79 83 bd dc 92 d9 bc ae d2 03 3c 70 62 df bd
       -0.064197175 -0.026559286 0.008045835 -0.10907447
000260 5b 24 45 bc c6 a2 ad 3d 6d cb af 3c 6e 88 66 bd
       -0.012032594 0.08478312 0.021459306 -0.056282453
000270 38 a5 e9 bd c8 f9 b6 bd c5 09 b5 bd 91 27 f1 bd
       -0.11408466 -0.08934361 -0.08839754 -0.11775125
000280 70 6c 8a bd f2 2c 5f bd 62 40 4b 3d 26 b4 1b 3e
       -0.06758964 -0.054486223 0.049621947 0.1520544
000290 d2 59 b6 3d 18 5b 8e bc c3 97 e1 bd cf 2a b5 3d
       0.089038506 -0.017377421 -0.110152744 0.08846056
0002a0 f6 4c a2 3d 4a 63 c4 bb 2c c2 fd bd c5 87 11 3d
       0.079248354 -0.0059932815 -0.12390551 0.03552987
0002b0 f5 05 d3 3d b3 73 82 bd 75 a5 fd bd 66 03 80 bd
       0.103038706 -0.06369724 -0.12385074 -0.06250648
0002c0 ff 40 3e 3c d3 c8 b9 bd fb 17 05 3d 8c 91 96 bc
       0.011612176 -0.09071507 0.032493573 -0.018379949
0002d0 1f 1f e2 bd 93 4a 14 3d 17 5d ac bd 35 e0 07 3d
       -0.11041092 0.036203932 -0.08416193 0.033172805
0002e0 c6 11 bc bd 75 7d c6 3c 38 b7 70 bd 09 dd 84 3d
       -0.091830775 0.024229744 -0.05876848 0.064874716
0002f0 3a 4f 5a 3d f0 55 09 3d ad fc c6 bd dc d0 e1 bd
       0.053298213 0.033529222 -0.09716163 -0.11026165
000300 2d 5d 23 bc 11 28 00 bd 23 79 f9 3c 2f 9a 3e bd
       -0.009970945 -0.03128821 0.03045327 -0.04653376
000310 79 38 cd 3d 15 aa dc bc 2e 23 a3 3d 55 9b f8 3d
       0.10020537 -0.02693657 0.07965694 0.12139002
000320 03 ce a1 3d 02 84 e0 bd cb 99 bf 3d 8f f4 8d bd
       0.07900622 -0.109626785 0.093555056 -0.069314115
000330 91 9c 0b be fd c8 3e 3d 5b f3 46 3d 73 7e ff 3c
       -0.13633944 0.046578396 0.048571926 0.031188225
000340 66 01 1c bd 3f a6 b0 bc 80 14 da bd 46 86 f1 bd
       -0.03808727 -0.021563647 -0.10648441 -0.11793189
000350 b1 cf d5 3c a5 34 d9 bc c4 8f 9f bd d7 67 a3 bb
       0.026100012 -0.02651436 -0.07791093 -0.004986744
000360 a4 02 b6 bd 79 f0 ed bd 1a 43 41 3d 45 cc 77 3c
       -0.088872224 -0.11618132 0.047183134 0.015124385
000370 b4 14 39 bd b1 1f a2 3c a7 3e 10 3b bd 6b 6d 3d
       -0.04518576 0.019790502 0.002201 0.057964075
000380 af da df bd 09 fe 31 3d 5e 95 c7 bd 9d 31 6a 3d
       -0.109303825 0.043455157 -0.097452864 0.05717622
000390 04 84 02 3c 15 a7 59 bd 50 81 cf bc 84 9a 7c bd
       0.007966045 -0.053137857 -0.025330216 -0.061670795
0003a0 b0 d1 f1 ba 6a 1f 87 bd de 92 22 3e 21 bf c2 bc
       -0.0018449333 -0.06597789 0.15876338 -0.023772778
0003b0 c2 74 ba 3d 60 c8 8f 3c 83 a4 65 bd 76 d1 d0 bd
       0.09104301 0.017551601 -0.056065094 -0.101962015
0003c0 15 17 30 bd 7e f9 e5 3c da 1c cf bc a1 d9 c4 3b
       -0.042990763 0.028073069 -0.025282312 0.0060073887
0003d0 76 87 e9 3d 6c 16 80 3d 6d 8a df 3c 00 d8 0f be
       0.1140279 0.06254277 0.027287686 -0.14047241
0003e0 37 1c 84 bd b4 42 71 3d 22 b2 5d 3c a0 e1 d4 bd
       -0.06450694 0.058901504 0.01353124 -0.10394597
0003f0 82 88 a5 bc 8f 8d 48 3c aa cb dc bd 3d 98 fe 3d
       -0.020206694 0.012240781 -0.10781033 0.12431381

bias f4 [16]
000000 41 fe 01 3e 26 55 f3 bd 68 1a e2 3d df 77 89 3d
       0.12694646 -0.11881475 0.11040193 0.06712317
000010 9b 74 be 3d 93 9a 03 3e f6 d2 dc 3d 1f 56 f6 bc
       0.092995845 0.12851934 0.10782425 -0.030070363
000020 58 f7 8b bc 9d 97 08 3d 1e 03 05 bc 9c 91 83 3c
       -0.017085716 0.033347715 -0.008118419 0.016060643
000030 2f 4e 49 3d 16 97 b1 bb 39 86 fb 3c 9a 19 3c bc
       0.049146827 -0.005419622 0.03070365 -0.011480713

weight f4 [16]
000000 70 bc 7e 3f 12 af 80 3f 3d 6b 7a 3f c0 e6 7d 3f
       0.9950628 1.0053427 0.9781988 0.9918022
000010 c8 62 7a 3f 09 4c 79 3f 20 4d 81 3f 6b da 77 3f
       0.9780698 0.97381645 1.0101662 0.96817654
000020 c1 23 80 3f 47 1c 7a 3f 5d e1 74 3f df c0 80 3f
       1.0010911 0.976994 0.9565638 1.005886
000030 d6 0e 75 3f 4e 0a 84 3f d8 1d 82 3f 00 1b 80 3f
       0.9572576 1.0315645 1.0165358 1.000824

bias f4 [16]
000000 6b 03 fc bc 0a 5f 40 3d db 85 05 bd 67 19 03 3c
       -0.030763349 0.046965636 -0.032598358 0.008001662
000010 5e ff c7 bc 44 45 3b bc f5 8c b0 3c b4 f5 03 3b
       -0.02441376 -0.011430088 0.021551589 0.0020135464
000020 03 b7 24 3c db 1f fa bb 5b 2b a0 bb c7 31 83 3b
       0.010053399 -0.007633192 -0.004887981 0.0040037367
000030 f4 11 44 bc c5 90 ed 3c b6 83 9a bc 3b 07 ff 3c
       -0.011967171 0.028999696 -0.018861633 0.031131377

running_mean f4 [16]
000000 95 a1 bd 3e 74 18 db be 03 35 00 3f 7c 40 aa be
       0.3703734 -0.42792094 0.5008089 -0.33252323
000010 7d a6 a5 bd 5d d6 47 3e c4 11 99 bd 05 c6 0a be
       -0.08088396 0.19515367 -0.07474092 -0.13552101
000020 a5 96 16 3b bb 29 21 be 8a 90 8e be e8 82 e1 bb
       0.0022977975 -0.15738575 -0.2784465 -0.0068820603
000030 4b ed 5d 3e c6 f7 26 be ea 3e 06 3f ca fe 30 3d
       0.21672551 -0.16305456 0.5243975 0.043211736

running_var f4 [16]
000000 ff 84 0c 3f 49 59 06 3e 53 c4 30 3e 3d 9b fa 3d
       0.54890436 0.13119997 0.17262392 0.122366406
000010 22 3a 18 3e e1 0b 4c 3e 80 45 91 3e 52 67 8b 3e
       0.14865926 0.19926406 0.28373337 0.27227265
000020 e4 f5 0d 3e db 68 0c 3e c3 c3 6a 3e 83 d4 14 3e
       0.13863331 0.13711874 0.2292624 0.14534192
000030 bd 33 97 3e d8 da fb 3d 5f f4 81 3e 55 b4 93 3e
       0.2953166 0.122976005 0.25381753 0.2884852

weight f4 [32, 32]
000000 44 78 a2 3d 84 1d 2d 3e f6 fe e6 3d 24 85 90 bd
       0.07933095 0.1690579 0.11279099 -0.070566446
000010 37 36 1a be bb e2 a3 3d 00 44 92 3d d5 ba c4 3d
       -0.15059744 0.0800223 0.07141876 0.09605948
000020 6d 63 58 3d 3b 79 bc 3d 58 4f fe bc 51 5b a6 bc
       0.052829195 0.092028104 -0.031043693 -0.020307215
000030 2d 64 6a bc a4 08 db bc d5 16 3f bd ab ec ba bd
       -0.01430611 -0.026737519 -0.046652634 -0.09127172
000040 31 0a 23 3e 9a 63 9f 3c 6e c5 23 3e e0 50 ad bd
       0.15921856 0.019456673 0.15993282 -0.08462691
000050 85 0c 15 bc e4 a3 1d bd ab f2 19 3e cc db 19 bd
       -0.009097223 -0.038486376 0.15033977 -0.03756313
000060 ef 4a 33 3e 5c 14 e7 3d 5b d6 f2 bb 56 66 16 3e
       0.17509054 0.1128318 -0.007410807 0.14687476
000070 d8 f5 c2 3d c3 a0 02 be 96 ab ae 3d 19 07 23 3e
       0.09519547 -0.12756638 0.08528821 0.15920676
000080 d8 44 2d be 30 32 b0 bd d0 84 f7 3d 16 47 3b 3d
       -0.16920793 -0.086033225 0.12085879 0.04572209
000090 e4 93 40 bc 78 9f 14 3c 54 98 05 bd 65 81 64 bd
       -0.01175401 0.009071223 -0.032615975 -0.055787463
0000a0 43 9c 37 3e 83 ff 18 3e 17 61 2d be c0 d4 8c bd
       0.17930703 0.1494122 -0.16931568 -0.06876516
0000b0 d5 0e 20 3d 8d e7 f2 3d b7 e2 18 3e 3c 05 11 bd
       0.039076645 0.11860571 0.14930235 -0.035405383
0000c0 eb fc c9 3c 40 a4 95 bc 4d 6b e7 bb 7c f2 24 3e
       0.024656733 -0.018266797 -0.007062352 0.16108125
0000d0 2b 95 e1 bd 9a 1c 01 3d a4 88 90 bd 38 48 f6 3d
       -0.1101478 0.031521417 -0.07057312 0.120254934
0000e0 a1 c0 be bd bf 52 11 be 1d 6f eb bd 22 a4 59 bd
       -0.09314085 -0.14191721 -0.114958026 -0.053135045
0000f0 45 66 0f 3e 9c b3 b7 bd ce 20 06 be 52 25 8d bc
       0.14003856 -0.08969805 -0.13098451 -0.01722971
000100 5a c8 e3 bd 69 21 bc 3d b2 13 00 be 82 a1 a4 bd
       -0.111221984 0.0918606 -0.12507513 -0.08038618
000110 5b aa 9e 3d ef eb 14 be fc 68 0a be da a4 9c bd
       0.077473365 -0.14543127 -0.13516611 -0.076486304
000120 b5 b5 0e be 09 33 aa bd 58 a7 9e bd 59 78 b1 3c
       -0.13936503 -0.083105154 -0.07746762 0.021663832
000130 3f c9 c9 bd 53 0f 1e be 46 29 0f 3e 1f 87 25 be
       -0.09852838 -0.15435533 0.13980588 -0.16164826
000140 24 ea b3 bd d4 1b 92 bd 32 e7 07 be ed 37 2c be
       -0.08784893 -0.07134214 -0.13271788 -0.16818209
000150 f1 3d 8c 3d 0d 48 19 bc 19 46 75 3d d4 3c bb bc
       0.06847752 -0.009355557 0.059881303 -0.022856154
000160 3c 27 56 be 6a 38 07 be 32 72 43 be 0f 41 d0 3d
       -0.20913404 -0.13205114 -0.19086531 0.10168659
000170 43 99 41 bd 31 6c 8d bd 57 4e c0 bc b9 1b ec 3d
       -0.047265302 -0.069054015 -0.023474855 0.11528725
000180 fb 4c 38 be 2e 08 90 bd ca b6 d3 3d f6 77 fa bd
       -0.17998116 -0.0703281 0.103375986 -0.12229912
000190 70 fb 9e bd 8d 81 e5 bb 8f 54 f3 bd 70 3f ba 3d
       -0.07762802 -0.007003969 -0.11881363 0.09094131
0001a0 bf 17 c0 bd 07 69 d9 3c e3 ba 86 bd 76 b7 16 bd
       -0.09379529 0.026539339 -0.065786146 -0.036796056
0001b0 5e 4e 33 3c ca 25 54 3d f9 af bd bd 6f ba 32 3e
       0.010943977 0.05179385 -0.0926208 0.17453931
0001c0 3c 29 46 be 8c 71 ea 3d a1 b4 e5 3d 83 90 0b 3e
       -0.19351667 0.114474386 0.11216093 0.13629346
0001d0 6f 3e e4 3c 95 a8 84 3d 19 2f 97 3d d6 4e 78 bd
       0.027861802 0.06477467 0.0738203 -0.06062206
0001e0 75 b0 01 bc f2 04 17 3d ca 71 f1 b9 33 3b 32 be
       -0.007915606 0.03686995 -0.00046051882 -0.17405395
0001f0 39 47 2b be 0d 5e 5e bd 24 0f e0 3d 8b 8a 4c be
       -0.16726388 -0.054288913 0.10940388 -0.19974725
000200 90 5c e5 3d 61 ff 5a 3d 71 1b 4e 3d f7 02 82 bd
       0.111992955 0.053466205 0.05031914 -0.06348222
000210 6a 45 5b 3d 2f b3 05 3e 1a ef b8 3d d6 d4 7d bd
       0.053532995 0.13056634 0.0902998 -0.061970554
000220 20 43 40 3e 23 cc 68 3b ba 86 24 be 8b 66 43 3e
       0.18775606 0.0035522066 -0.16067019 0.19082086
000230 b2 2a af 3c 11 f4 ef 3d d7 c5 01 be 00 71 d0 bd
       0.021382663 0.11716474 -0.12673126 -0.10177803
000240 8c 26 f7 3d 05 66 e8 3d 52 c5 92 3d 48 2c cc bd
       0.12067899 0.11347584 0.07166542 -0.099693835
000250 bf 64 8f 3d b5 52 0b 3b 0c 0b 2a bd 05 61 00 bd
       0.07001638 0.0021259014 -0.04151444 -0.031342525
000260 2e 84 27 3e 33 aa 26 be d7 75 58 3d 39 40 6d bd
       0.16359016 -0.16275863 0.052846756 -0.057922576
000270 7f 2c c4 3d 56 29 20 3e 3e 8e 88 bc b5 ee 31 be
       0.095787995 0.15640768 -0.016669389 -0.17376216
000280 bf 19 c0 3c ed 8c 98 3d a6 51 0d be 90 c7 be bd
       0.023449777 0.074487545 -0.13800678 -0.09315407
000290 92 3a cc bd e4 cd c1 bd c8 5f 17 be 7c 38 23 bd
       -0.09972109 -0.09463099 -0.14782631 -0.03984879
0002a0 a7 83 12 3d 91 0f fe bd f7 2f dc bd 28 4e f9 3d
       0.035770085 -0.12405313 -0.10751336 0.1217311
0002b0 b8 7e f3 3d 1e 0f 46 be 12 6c af 3a 64 b4 dc 3d
       0.11889404 -0.19341704 0.0013383648 0.10776594
0002c0 33 8b 0c be ea 87 dd bd f6 cf 0a be 92 a5 ca bd
       -0.13724975 -0.10816939 -0.13555893 -0.09894861
0002d0 6a 4e 83 bc 93 3e ef bd 1a 87 05 be 92 32 c8 3d
       -0.016028602 -0.11681857 -0.13039818 0.097752705
0002e0 66 6d cb bd b1 65 0c 3e 9e 5a 14 be c1 b6 a5 bd
       -0.099329755 0.13710667 -0.14487693 -0.08091498
0002f0 18 24 f1 3d d7 19 d4 3d 87 df 5d bd f2 d6 6e bd
       0.117744625 0.10356491 -0.05416825 -0.058310457
000300 b8 66 c9 3d fe 60 32 be cc 6f 9e bd 34 58 b2 3d
       0.09834045 -0.17419812 -0.07736167 0.0870823
000310 b3 e2 10 be c6 3d 44 be 59 78 91 bd cc 1b 52 3d
       -0.14148979 -0.1916419 -0.071030326 0.05129604
000320 40 25 0c 3c ff 0a 54 be 92 be 0e be 50 71 0d 3e
       0.008553803 -0.2070732 -0.13939884 0.13812757
000330 3e cd 6b 3d a2 a0 82 bd ee 55 c1 ba 71 4e d1 bd
       0.05756878 -0.063782945 -0.001475034 -0.1022004
000340 14 25 5d bb 91 93 c0 bd 04 71 d5 3d cc 82 d6 3c
       -0.0033744024 -0.09403146 0.10421947 0.026185416
000350 9d a0 0e be 86 42 f1 bd dc dd 39 bd b1 e0 e3 3d
       -0.13928457 -0.117802665 -0.045377597 0.11126841
000360 f5 fc 8f bd e8 83 e5 3d 7f de a9 bd a7 e7 cb bc
       -0.070306696 0.112068 -0.08294391 -0.024890734
000370 e0 ed 04 bd 33 4c 12 3e 12 93 f3 3d 82 43 fd 3d
       -0.032453418 0.1428688 0.11893286 0.12366392
000380 62 88 a8 3d 86 8b d2 3d 3e e6 16 be fb de ac 3d
       0.08229138 0.10280518 -0.14736268 0.08440968
000390 91 f3 86 bd 3e a9 81 bd 79 a4 a6 3c 05 dd a3 3d
       -0.06589425 -0.063311085 0.020342099 0.080011405
0003a0 24 c4 c7 bc 41 bc c2 3d 96 68 5f bc 76 71 c5 bd
       -0.02438552 0.09508563 -0.013635775 -0.096407816
0003b0 93 b2 0f bd aa b4 31 be 72 70 19 bd 46 2b ac bd
       -0.03508241 -0.17354074 -0.03746075 -0.08406691
0003c0 11 09 a8 3d 33 1d a8 3d 55 2b 68 3e 17 6f 40 3d
       0.08204854 0.08208694 0.2267278 0.046980944
0003d0 0e 61 ae bc 60 b4 b6 bd db fe 3f 3e 00 eb b7 3d
       -0.021286514 -0.089211226 0.18749563 0.089803696
0003e0 c1 94 96 bd 07 aa 8e bd a5 e0 e4 bd 4f 55 a8 bd
       -0.07352591 -0.06966024 -0.1117566 -0.08219396
0003f0 2c 0a 14 3d ec ec 23 be 09 39 e5 3d e1 ec 89 3d
       0.036142513 -0.16008347 0.11192519 0.06734634

bias f4 [32]
000000 71 a6 31 3e f8 2a 0e 3c 40 b0 ad 3d 27 ea 42 be
       0.17348649 0.008677237 0.08480883 -0.19034635
000010 e8 6f 41 3e 0c 71 f4 bd b4 48 ce 3d 7f ba d7 bd
       0.18890345 -0.119356245 0.10072461 -0.10533618
000020 53 55 86 bc f2 f4 fc bc 70 42 17 3e 8c aa 07 be
       -0.016398108 -0.030878518 0.14771438 -0.13248652
000030 91 45 cd bd 60 a6 0e be 3f 8f 38 3d 34 bf 3b be
       -0.10023034 -0.13930655 0.045058485 -0.18334657
000040 fc f5 58 3b b5 71 99 bd aa a8 49 be c5 4a b0 3d
       0.0033105602 -0.07492391 -0.19693246 0.08608011
000050 b0 cb 60 bd e6 a9 89 bd 25 54 0e be 42 dc 62 be
       -0.05488175 -0.06721859 -0.13899286 -0.22154334
000060 43 59 de 3d 8d be 77 bc 15 f4 30 3d 8c 77 ed bd
       0.10856869 -0.015121114 0.043201525 -0.115950674
000070 ae 5e 50 3e 0e 6c b2 3c a7 37 34 3d bc 06 12 be
       0.20348617 0.02178004 0.043998387 -0.14260381
