Sleep_Disorder/models/simpleFFN.pth (torch, 55199 bytes, 14 tensors)

weight f4 [128, 18]
-0.015250368 -0.022429517 -0.16726032 -0.19242351 -0.09796569 -0.06585468 -0.19546437 0.23340435
-0.09404175 0.031067034 0.13275446 0.17719014 -0.18754056 -0.023642743 0.16150028 0.13769819
-0.04922742 -0.06288231 -0.15791175 -0.16212985 0.28703922 0.018705664 0.023304652 -0.18110038
0.019618336 -0.2072829 -0.15773791 -0.17036785 0.19949132 0.07231985 -0.046752214 -0.22527193
-0.17667454 0.11222194 -0.063208245 -0.13259672 -0.08999975 0.012664145 0.14660662 -0.10259103
0.07502275 0.058760833 -0.006379871 -0.07030814 -0.14762285 -0.20799202 -0.0017387937 -0.06509998
0.0830421 0.14027411 -0.36202136 0.08344693 -0.35736594 0.18591206 0.1534141 -0.25237927
0.24639168 -0.00826985 -0.08890622 -0.13732846 -0.05802346 0.1795025 0.014181421 -0.14001577
-0.15361242 -0.33343357 0.29881117 0.060166616 0.07684892 0.07118708 -0.14381936 0.060291097
-0.1301876 0.15457186 0.12510031 -0.11778109 0.03146708 -0.25639445 -0.15524384 0.13984618
-0.16379623 0.18353462 0.41648534 0.12344209 -0.0073453323 0.08529384 0.02027602 0.025246585
0.18958133 -0.041429825 0.021023935 0.015633786 0.18173277 0.15440795 0.12299477 -0.12329515
0.05439196 0.007842272 0.16101389 -0.21079989 -0.025260262 -0.14766143 -0.20221502 0.23431662
-0.0050032414 0.17489427 -0.23356727 0.15371364 0.035974633 0.1435477 -0.18513711 -0.42019087
-0.15198264 0.020549685 0.18716769 0.00040037275 0.19985977 0.16871715 0.16981894 -0.27846876
0.057020497 -0.06285601 0.1709696 0.013237728 0.11635556 -0.2760368 -0.14379466 0.07081691
0.011930492 -0.14096205 -0.13461386 0.02151874 -0.26443645 -0.0027170212 0.04340093 -0.2425328
-0.07496557 0.25667453 -0.12659101 -0.1737667 -0.33871517 -0.104152344 -0.20095275 0.16155402
-0.11980871 0.09893395 0.107980184 0.03498996 -0.01334364 -0.12516265 0.089920826 -0.11557912
-0.021778356 -0.29010943 0.23398244 0.07064437 -0.1364576 0.11889025 0.08730489 -0.18989128
0.10139461 0.07827418 -0.1943291 0.006784263 0.34551615 0.02803508 -0.083171524 0.07442137
-0.25363198 0.18746524 -0.03515655 0.08178861 -0.287348 -0.09036493 0.12762815 -0.026969599
-0.14158772 -0.10417091 0.11815612 0.012348856 -0.15005103 0.15086763 0.06776464 -0.07637422
-0.17143986 -0.17671289 -0.07832139 -0.08544468 0.15186018 -0.11982589 0.13633054 -0.0077551277
0.107737005 -0.2374752 0.22291845 -0.31141162 -0.06280981 -0.06321223 0.34171584 -0.1714224
-0.13676256 -0.08267541 0.08165154 -0.024849823 0.023890842 0.11203966 0.011209373 -0.12113986
-0.13932726 0.08313078 -0.30156216 0.008240185 -0.13635294 -0.061416283 0.08465489 0.21573032
-0.042637996 0.014797773 -0.07421792 0.048863113 -0.22269833 0.193709 0.0058420226 0.06787375
-0.021581369 -0.10029828 0.38641995 0.15142943 0.14357996 -0.17429243 -0.10890271 -0.055116788
0.16656345 0.10256933 0.17115138 0.2152268 -0.020020043 -0.14883356 0.21412183 0.16779158
0.025525702 -0.14261597 -0.13838206 -0.015077423 -0.031381555 0.09018343 -0.05220826 0.09161291
-0.24881774 0.14875011 -0.18972276 -0.029891657 -0.16366726 0.14317492 0.1522365 -0.07322196
00000000: aedc 79bc 1bbe b7bc 4a46 2bbe ab0a 45be
00000010: 3ca2 c8bd d2de 86bd d027 48be 8d01 6f3e
00000020: f698 c0bd 4b80 fe3c c9f0 073e 5571 353e
00000030: a20a 40be 6dae c1bc 5460 253e c100 0d3e
00000040: b1a2 49bd 71c8 80bd 9eb3 21be 5e05 26be
00000050: cef6 923e 9f3c 993c 66e9 be3c 6172 39be
00000060: a2b6 a03c f841 54be 0c86 21be e974 2ebe
00000070: 7447 4c3e 6e1c 943d 407f 3fbd afad 66be
00000080: 2cea 34be 9ed4 e53d 5373 81bd 6fc7 07be
00000090: ca51 b8bd 467d 4f3c 0c20 163e 3f1b d2bd
000000a0: 87a5 993d 33af 703d 3d0e d1bb b7fd 8fbd
000000b0: 722a 17be dcfb 54be 3ce8 e3ba 2353 85bd
000000c0: fa11 aa3d 04a4 0f3e dd5a b9be 39e6 aa3d
000000d0: abf8 b6be bb5f 3e3e 9618 1d3e db37 81be
000000e0: 1a4e 7c3e 447e 07bc 7714 b6bd d59f 0cbe
000000f0: 02aa 6dbd 81cf 373e 3159 683c 4b60 0fbe
00000100: 934c 1dbe ceb7 aabe c7fd 983e 4571 763d
00000110: f762 9d3d 88ca 913d 6245 13be ccf3 763d
00000120: e64f 05be 1648 1e3e 4c1a 003e 3637 f1bd
00000130: a0e3 003d 2246 83be 3ef8 1ebe d633 0f3e
00000140: 33ba 27be 80f0 3b3e 913d d53e 35cf fc3d
00000150: 1db1 f0bb 89ae ae3d e519 a63c edd1 ce3c
00000160: 9c21 423e 52b2 29bd 633a ac3c 6d12 803c
00000170: 2818 3a3e 1e1d 1e3e afe4 fb3d 2b82 fcbd
00000180: 1bca 5e3d df7c 003c d3e0 243e eddb 57be
00000190: 9cee cebc 8f34 17be 7411 4fbe b2f0 6f3e
000001a0: 3bf2 a3bb 7c17 333e 422c 6fbe 1c67 1d3e
000001b0: 235a 133d 2bfe 123e 9594 3dbe 4223 d7be
000001c0: 56a1 1bbe d057 a83c e3a8 3f3e 1fe9 d139
000001d0: 0aa8 4c3e 30c4 2c3e 04e5 2d3e 7593 8ebe
000001e0: 538e 693d a7ba 80bd a812 2f3e 0ee3 583c
000001f0: d34b ee3d b254 8dbe e83e 13be 7508 913d
00000200: 1c78 433c 5b58 10be 37d8 09be 1248 b03c
00000210: 3764 87be 0d10 32bb 2cc5 313d 855a 78be
00000220: 8c87 99bd d86a 833e 13a1 01be e6ef 31be
00000230: 136c adbe d34d d5bd 8fc6 4dbe 6b6e 253e
00000240: 455e f5bd e29d ca3d b724 dd3d a251 0f3d
00000250: 489f 5abc a32a 00be 6928 b83d bfb4 ecbd
00000260: 8668 b2bc 3989 94be 1899 6f3e ffad 903d
00000270: 8bbb 0bbe bb7c f33d e8cc b23d dc72 42be
00000280: faa7 cf3d 374e a03d 35fe 46be 864e de3b
00000290: 7ee7 b03e d3a9 e53c d555 aabd 3b6a 983d
000002a0: 0ddc 81be e3f6 3f3e 5100 10bd c980 a73d
000002b0: 471f 93be 4011 b9bd f4b0 023e 59ef dcbc
000002c0: 5ffc 10be 8f57 d5bd d6fb f13d db52 4a3c
000002d0: faa6 19be 0b7d 1a3e 30c8 8a3d 166a 9cbd
000002e0: ee8d 2fbe 39f4 34be f766 a0bd 9ffd aebd
000002f0: 3c81 1b3e 4767 f5bd 3c9a 0b3e ba1e febb
00000300: 38a5 dc3d b32c 73be bc44 643e 5871 9fbe
00000310: 6ea2 80bd 6a75 81bd 61f5 ae3e 5b89 2fbe
00000320: 7c0b 0cbe ba51 a9bd ec38 a73d db91 cbbc
00000330: bab6 c33c 0d75 e53d 85a7 373c 2d18 f8bd
00000340: ceab 0ebe 7840 aa3d 5b66 9abe d701 073c
00000350: 1ba0 0bbe a48f 7bbd 8b5f ad3d 69e8 5c3e
00000360: 2ea5 2ebd 5c72 723c 91ff 97bd b024 483d
00000370: 080b 64be a75b 463e 706e bf3b 6501 8b3d
00000380: 69cb b0bc 2f69 cdbd d6d8 c53e 5110 1b3e
00000390: a006 133e b779 32be 6208 dfbd 24c2 61bd
000003a0: 9c8f 2a3e de0f d23d 4f42 2f3e 6a64 5c3e
000003b0: 1301 a4bc d367 18be c142 5b3e 8ed1 2b3e
000003c0: 471b d13c ec09 12be 07b4 0dbe 4c07 77bc
000003d0: f289 00bd 17b2 b83d 54d8 55bd 8d9f bb3d
000003e0: 14ca 7ebe f351 183e af46 42be 59df f4bc
000003f0: 6498 27be 729c 123e e3e3 1b3e 65f5 95bd

bias f4 [128]
-0.22376637 0.22371042 0.18662316 0.05682451 -0.06633252 -0.13775893 -0.12258421 0.2130781
0.08307748 0.2333061 -0.0080984 -0.03754981 -0.14074396 -0.056943722 0.18327731 -0.062202327
-0.08783558 0.19134201 0.21357892 0.11261558 0.20524593 -0.008748984 0.007620317 -0.09858946
-0.05795397 -0.14943404 -0.104372464 0.060396623 -0.09340278 -0.122426435 0.15231948 -0.11322627
0.070238546 -0.13641977 0.026480865 -0.12754229 -0.10175258 -0.15862413 0.18353778 0.023981094
0.17372672 -0.03939345 -0.1446923 -0.15955232 -0.12035214 0.024884202 0.06603283 -0.20723568
0.16052224 -0.190341 0.17007503 -0.08757398 0.037956 -0.16118258 -0.09659731 0.14240427
-0.10306534 -0.1637661 -0.031446923 0.10570195 -0.1419635 0.16216244 0.17444175 -0.19004536
0.053403065 -0.1777554 0.15712695 0.080720305 0.015804237 -0.22465563 0.10692039 0.21301198
0.12538698 0.13461633 -0.10630843 0.1353824 0.007980469 0.22007999 0.13661881 0.07127926
-0.045719102 -0.12732455 0.1936653 0.037864286 0.13410072 0.22078176 0.18169437 0.14584632
-0.08108595 0.0066045877 0.13057262 0.22492883 0.105841 -0.06758886 -0.19761972 -0.06963344
0.009555528 0.09111422 0.020954829 0.21161807 -0.16351901 0.09072599 0.052800234 -0.076240584
0.08352421 0.17187412 0.011403771 -0.036785763 0.14646618 -0.12895493 -0.19768786 -0.20377508
-0.16228744 -0.21870527 -0.16606799 -0.10715689 -0.20805417 0.22803462 -0.13914087 -0.11186206
0.025098141 0.14960717 0.20585494 -0.17912482 0.050430823 0.0005278924 -0.09903654 0.025070101
00000000: 0323 65be 5814 653e 241a 3f3e d1c0 683d
00000010: 58d9 87bd ad10 0dbe 6e0d fbbd 2531 5a3e
00000020: 8724 aa3d cbe7 6e3e 27af 04bc d4cd 19bd
00000030: 2f1f 10be d23d 69bd 0cad 3b3e dec7 7ebd
00000040: 24e3 b3bd 29ef 433e 6fb4 5a3e ffa2 e63d
00000050: fd2b 523e e657 0fbc dab3 f93b 45e9 c9bd
00000060: 2461 6dbd 3d05 19be 3bc1 d5bd 7362 773d
00000070: f549 bfbd b6ba fabd a3f9 1b3e 2de3 e7bd
00000080: 3ad9 8f3d a0b1 0bbe 66ee d83c 729a 02be
00000090: a863 d0bd 5d6e 22be 54f1 3b3e 0074 c43c
000000a0: 6be5 313e 075b 21bd 382a 14be af61 23be
000000b0: 2f7b f6bd f4d9 cb3c 383c 873d 9735 54be
000000c0: f15f 243e c0e8 42be 2628 2e3e fd59 b3bd
000000d0: c077 1b3d 0c0d 25be cfd4 c5bd 6dd2 113e
000000e0: ec13 d3bd 4db2 27be 7dce 00bd 447a d83d
000000f0: e15e 11be e90d 263e dca0 323e 409b 42be
00000100: 2cbd 5a3d 8305 36be e3e5 203e b050 a53d
00000110: e377 813c 200c 66be 14f9 da3d d01f 5a3e
00000120: 7265 003e ddd8 093e 3cb8 d9bd afa1 0a3e
00000130: 83c0 023c a65c 613e cde5 0b3e dcfa 913d
00000140: f443 3bbd 5e61 02be 3250 463e 9517 1b3d
00000150: b351 093e 9d14 623e 170e 3a3e bd58 153e
00000160: 6410 a6bd 4c6b d83b d4b4 053e be53 663e
00000170: 2bc3 d83d 076c 8abd d35c 4abe fa9b 8ebd
00000180: ca8e 1c3c 189a ba3d 76a9 ab3c 68b2 583e
00000190: 8771 27be 8cce b93d 0f45 583d 0624 9cbd
000001a0: be0e ab3d c5ff 2f3e e2d6 3a3c abac 16bd
000001b0: 3bfb 153e c30c 04be b06e 4abe 6aaa 50be
000001c0: ae2e 26be 46f4 5fbe ba0d 2abe 1275 dbbd
000001d0: 270c 55be e881 693e f27a 0ebe f017 e5bd
000001e0: 9e9a cd3c 9f32 193e a3cb 523e 7f6c 37be
000001f0: 8d90 4e3d 4262 0a3a abd3 cabd d05f cd3c

weight f4 [128]
0.9399496 0.9621402 0.95431834 0.9565822 0.94922024 0.95997113 1.1515201 0.9540054
0.9322237 0.9548246 0.9212145 0.9582539 0.95205116 0.96500814 0.95815825 0.9462044
0.95073676 0.9474577 0.95106757 0.93097574 0.96468735 1.0468425 1.0858145 1.037421
1.0577484 0.9297615 0.9450161 1.0059723 0.9556002 0.93282175 0.94246984 0.9713868
0.9883468 1.031075 1.0790806 0.9604399 0.985646 0.97207963 0.952269 1.0762992
0.96865135 1.0423603 0.96137154 0.9509807 1.0534614 1.1342007 0.9490892 0.976658
0.93899626 0.9554007 0.94910485 1.0312543 0.9574841 0.9572347 1.0188037 0.9628104
1.1337779 0.95559883 0.963558 1.0066261 1.1105342 1.0626756 0.93137187 1.065715
0.9847759 0.94104636 0.93708235 1.0832982 0.971317 0.96726125 0.9739606 0.9528566
0.9708692 0.95051295 1.0605879 0.9435753 0.9413524 0.9262962 1.0198163 1.1203756
0.92924964 0.93276733 0.95786154 0.9694808 1.0110437 0.96623665 0.95476097 0.932216
0.9575122 0.9184029 0.94445115 0.95140845 1.0668935 0.93650436 0.96514094 0.9599756
0.97974867 0.94431746 0.9295174 0.9358169 0.94588864 0.9986383 1.1732061 0.9657304
0.9465994 0.9084221 0.96544385 0.94429606 0.9586454 1.0291537 1.0015721 0.94738
0.963929 0.94621646 0.94586706 0.9623712 0.94158256 0.95726854 1.1171408 0.9601557
0.96383506 0.9421511 0.95873743 0.9366824 1.1045388 0.97425765 0.93045676 0.9486481
00000000: 89a0 703f d24e 763f 354e 743f 92e2 743f
00000010: 1900 733f abc0 753f 0365 933f b339 743f
00000020: 36a6 6e3f 636f 743f b7d4 6b3f 2150 753f
00000030: a0b9 733f c60a 773f dc49 753f 743a 723f
00000040: 7c63 733f 968c 723f 2a79 733f 6d54 6e3f
00000050: c0f5 763f effe 853f f8fb 8a3f 36ca 843f
00000060: 4d64 873f da04 6e3f 93ec 713f b3c3 803f
00000070: 37a2 743f 68cd 6e3f b445 713f ceac 783f
00000080: 4c04 7d3f 44fa 833f 501f 8a3f 64df 753f
00000090: 4c53 7c3f 36da 783f e7c7 733f 2cc4 893f
000000a0: 89f9 773f 106c 853f 721c 763f 7973 733f
000000b0: d3d7 863f 7d2d 913f 83f7 723f 4206 7a3f
000000c0: 0f62 703f 2495 743f 89f8 723f 2400 843f
000000d0: ae1d 753f 550d 753f 2968 823f be7a 763f
000000e0: a21f 913f 20a2 743f bdab 763f 20d9 803f
000000f0: fc25 8e3f c105 883f 636e 6e3f 5969 883f
00000100: 461a 7c3f 6ae8 703f a1e4 6f3f 84a9 8a3f
00000110: 3ba8 783f 6f9e 773f 7b55 793f 69ee 733f
00000120: e28a 783f d154 733f 58c1 873f 278e 713f
00000130: 79fc 703f bf21 6d3f 5789 823f 7868 8f3f
00000140: 4ee3 6d3f d7c9 6e3f 6a36 753f e52f 783f
00000150: e169 813f 495b 773f 376b 743f b5a5 6e3f
00000160: 851f 753f 741c 6b3f 8dc7 713f 818f 733f
00000170: f78f 883f c0be 6f3f 7a13 773f f6c0 753f
00000180: cfd0 7a3f cabe 713f daf4 6d3f b291 6f3f
00000190: c225 723f c2a6 7f3f 9e2b 963f 1c3a 773f
000001a0: 5754 723f 5a8e 683f 5427 773f 63bd 713f
000001b0: c969 753f 4fbb 833f 8433 803f 7f87 723f
000001c0: 0dc4 763f 3e3b 723f 5824 723f f55d 763f
000001d0: 8e0b 713f 8d0f 753f 78fe 8e3f c4cc 753f
000001e0: e5bd 763f d130 713f d16f 753f 6bca 6f3f
000001f0: 8761 8d3f f368 793f 6a32 6e3f 9ada 723f

bias f4 [128]
-0.043945815 -0.082703196 -0.13056234 0.025355684 -0.02315309 -0.073571794 -0.11822493 -0.054569818
-0.09644651 -0.0059727663 -0.08042362 -0.07662862 -0.047363594 -0.102080606 0.041032948 -0.037491515
0.030993477 -0.073151514 -0.051566187 -0.05637262 -0.11523486 -0.03317169 -0.0105008 -0.07765737
0.1007282 -0.076062396 -0.070603386 -0.03469371 -0.020298032 -0.12669791 -0.0041402834 0.011151718
-0.041129492 0.032927766 0.077790104 -0.028119659 0.031152435 -0.03268545 -0.055948783 0.0073329564
-0.012024284 -0.088387705 0.07476431 -0.07725111 0.102322 -0.063468166 0.032351036 0.0019554317
-0.033027247 -0.016789708 0.012730998 -0.054099176 -0.028735813 -0.036926262 -0.021963907 0.032148726
0.0056703603 -0.08605477 0.01102287 -0.050402086 -0.017036427 0.017661836 -0.033576705 -0.059583105
-0.046685543 -0.056799196 -0.09505189 0.0065873177 -0.040132876 -0.01602616 -0.082295075 -0.016532792
0.016005848 -0.09213394 -0.15167493 -0.008142211 -0.063012876 -0.1210956 0.048316993 -0.06715042
-0.07984889 -0.012233836 -0.06723419 -0.011354559 -0.041105945 -0.024591506 -0.039258197 -0.040623374
-0.12210698 0.013360773 -0.09226787 -0.0382464 0.01096024 -0.02339906 -0.12681162 -0.0745649
0.04862604 0.07163054 -0.1270072 0.056683585 0.023486327 -0.04663394 -0.09355014 0.008272591
-0.02645569 -0.014885744 0.0018510772 -0.012909314 -0.055268478 0.048217643 -0.04125537 0.029387468
-0.0035853484 0.025705244 -0.060297128 -0.07089059 -0.020929748 -0.0034935034 -0.14285503 -0.097783424
-0.063338585 -0.052609876 0.008865903 -0.07566525 0.043783437 0.0418925 -0.07802332 0.07321473
00000000: 8700 34bd 4b60 a9bd 22b2 05be b9b6 cf3c
00000010: 8dab bdbc cfac 96bd e91f f2bd 9a84 5fbd
00000020: bf85 c5bd 32b7 c3bb 24b5 a4bd 77ef 9cbd
00000030: 5400 42bd a30f d1bd 2a12 283d b490 19bd
00000040: 08e6 fd3c 76d0 95bd 1137 53bd fae6 66bd
00000050: 4100 ecbd 0adf 07bd 8c0b 2cbc d40a 9fbd
00000060: 964a ce3d 9ac6 9bbd 8298 90bd fe1a 0ebd
00000070: 0f48 a6bc 19bd 01be 37ab 87bb b2b5 363c
00000080: 6677 28bd 44df 063d 6b50 9f3d 335b e6bc
00000090: 6433 ff3c 2ee1 05bd 8d2a 65bd 4c49 f03b
000000a0: 8101 45bc 9d04 b5bd 081e 993d d435 9ebd
000000b0: 328e d13d 99fb 81bd 8582 043d b326 003b
000000c0: 9447 07bd 928a 89bc ad95 503c 1997 5dbd
000000d0: 5e67 ebbc fe3f 17bd a7ed b3bc 62ae 033d
000000e0: 6ece b93b 7c3d b0bd 4599 343c 6b72 4ebd
000000f0: fa8f 8bbc 8eaf 903c ba87 09bd 6a0d 74bd
00000100: 5739 3fbd 46a6 68bd 91aa c2bd 6dda d73b
00000110: 5f62 24bd 4b49 83bc 528a a8bd c76f 87bc
00000120: b21e 833c b8b0 bcbd ac50 1bbe e866 05bc
00000130: e50c 81bd f800 f8bd 0ae8 453d 2986 89bd
00000140: d187 a3bd 6d70 48bc 14b2 89bd 7908 3abc
00000150: b55e 28bd 2074 c9bc 34cd 20bd b264 26bd
00000160: 3913 fabd 25e7 5a3c f0f6 bcbd 42a8 1cbd
00000170: 9492 333c 63af bfbc e8da 01be 7bb5 98bd
00000180: 192c 473d 08b3 923d 2d0e 02be 0c2d 683d
00000190: 6666 c03c 3b03 3fbd 3797 bfbd c389 073c
000001a0: 9ab9 d8bc 56e3 73bc d89f f23a 9681 53bc
000001b0: 3361 62bd dd7f 453d 64fb 28bd fdbd f03c
000001c0: 2af8 6abb ce93 d23c 1ffa 76bd 162f 91bd
000001d0: dd74 abbc 43f3 64bb 9748 12be ad42 c8bd
000001e0: a9b7 81bd 747d 57bd 4b42 113c 62f6 9abd
000001f0: 4356 333d 7897 2b3d b1ca 9fbd 9bf1 953d

running_mean f4 [128]
1557.6381 -1449.5323 -508.9056 1191.5205 943.1546 65.76216 50.739353 -56.974922
-804.03107 1260.947 -584.7281 751.4335 439.33884 -965.5231 1002.8473 467.86728
699.6433 686.3032 147.97676 -783.7728 -1318.8981 -62.710953 11.890265 62.60212
-28.232052 -676.1501 1264.4921 51.436874 1399.9393 -671.8581 -342.9767 969.6601
-42.22403 -49.264954 -55.437275 -1571.8716 487.76575 670.0143 437.5685 13.47113
1297.4636 16.045883 1049.9868 998.69434 -46.02029 54.527634 864.9057 4.6988134
-103.81978 205.81497 210.17902 28.973545 461.34738 1009.27765 26.997211 373.78232
54.525406 447.96234 1085.9027 -1.8334593 54.41295 -44.592197 -1262.9426 -1.659188
21.23896 -77.05838 1198.1648 4.0488462 426.72705 531.8504 941.2662 804.2361
106.95069 45.444416 -1.4770403 -501.4547 -1003.38983 -281.94882 -16.047188 -13.912107
-1069.3478 -1120.7728 -475.1311 -28.47539 -22.142717 -39.623196 -1005.55316 -1066.124
-2004.5027 -1308.3496 -352.922 -516.728 -21.210905 -451.01947 -9.818025 845.365
48.38732 739.8779 48.67128 857.8326 -651.4621 2.8828886 54.6946 177.52304
691.0702 -1912.4646 -576.33655 -275.53564 364.6593 19.669333 -36.196976 536.61945
86.89779 1258.9203 573.2484 179.14949 1153.9668 1105.2794 40.861217 -433.68533
111.21059 -848.4591 -35.4439 -480.41345 -28.858696 327.50378 1761.1392 1153.8182
00000000: 6bb4 c244 0931 b5c4 eb73 fec3 a8f0 9444
00000010: e5c9 6b44 3a86 8342 19f5 4a42 52e6 63c2
00000020: fd01 49c4 4e9e 9d44 992e 12c4 bedb 3b44
00000030: 5fab db43 7a61 71c4 3ab6 7a44 03ef e943
00000040: 2ce9 2e44 6893 2b44 0dfa 1343 76f1 43c4
00000050: bddc a4c4 04d8 7ac2 873e 3e41 9268 7a42
00000060: 3edb e1c1 9b09 29c4 bf0f 9e44 5cbf 4d42
00000070: 0ffe ae44 ebf6 27c4 057d abc3 3f6a 7244
00000080: 68e5 28c2 500f 45c2 c5bf 5dc2 e47b c4c4
00000090: 04e2 f343 ea80 2744 c5c8 da43 c089 5741
000000a0: d62e a244 f85d 8041 943f 8344 70ac 7944
000000b0: c714 38c2 4c1c 5a42 f739 5844 ae5c 9640
000000c0: baa3 cfc2 a2d0 4d43 d42d 5243 d2c9 e741
000000d0: 77ac e643 c551 7c44 4afa d741 23e4 ba43
000000e0: 041a 5a42 2efb df43 e3bc 8744 cbae eabf
000000f0: dca6 5942 695e 32c2 2ade 9dc4 4660 d4bf
00000100: 64e9 a941 e41d 9ac2 46c5 9544 2690 8140
00000110: 105d d543 6df6 0444 0951 6b44 1c0f 4944
00000120: c1e6 d542 15c7 3542 a80f bdbf 34ba fac3
00000130: f3d8 7ac4 73f9 8cc3 a460 80c1 fe97 5ec1
00000140: 21ab 85c4 bb18 8cc4 c890 edc3 99cd e3c1
00000150: 4924 b1c1 277e 1ec2 6763 7bc4 f843 85c4
00000160: 1690 fac4 308b a3c4 0476 b0c3 982e 01c4
00000170: efaf a9c1 7e82 e1c3 a116 1dc1 5c57 5344
00000180: 9e8c 4142 30f8 3844 64af 4242 4975 5644
00000190: 93dd 22c4 3f81 3840 45c7 5a42 e685 3143
000001a0: 7ec4 2c44 de0e efc4 8a15 10c4 90c4 89c3
000001b0: 6454 b643 cb5a 9d41 b4c9 10c2 a527 0644
000001c0: abcb ad42 735d 9d44 e64f 0f44 4526 3343
000001d0: f03e 9044 f128 8a44 e371 2342 b9d7 d8c3
000001e0: d26b de42 621d 54c4 8ec6 0dc2 ec34 f0c3
000001f0: 9cde e6c1 7cc0 a343 7424 dc44 2f3a 9044

running_var f4 [128]
141719.28 112860.68 12719.505 83197.36 51534.297 186.64066 15.919002 53.661423
35265.344 91556.51 20056.154 33251.203 11271.615 51581.004 54953.203 13722.657
25011.018 28534.787 701.89984 35473.12 96619.66 41.790714 23.378416 40.398003
8.786236 29297.45 83567.234 24.410912 109702.21 26075.012 5167.3647 54174.26
33.24237 18.178053 11.280939 140458.6 14581.218 25486.504 11786.759 4.748827
93875.64 3.1582737 60552.53 54074.867 29.287655 8.056809 44154.438 3.7558556
192.93613 3166.725 2968.006 12.003562 13106.827 60785.46 38.60095 9219.78
24.690905 12665.672 73827.19 9.041301 12.973106 19.126577 97205.35 1.4264891
24.031137 502.6333 75469.89 12.440722 13557.67 13958.146 47824.3 35706.082
254.79279 106.689316 15.821953 14830.573 56461.1 3587.1646 17.633009 11.421603
68171.43 70366.31 10229.395 4.383123 10.913944 14.283982 59351.605 64614.133
223407.61 95558.82 9844.17 13412.515 7.3324614 10868.4795 8.681855 42826.625
40.638725 30980.559 49.520367 43003.574 20248.773 24.75704 13.075133 1862.3356
30283.822 205768.28 20759.906 3725.0703 7302.055 21.766905 11.699421 16094.341
962.1461 93130.3 19662.135 2421.9868 80263.13 66830.64 10.023744 8897.116
369.6334 41212.707 7.2738533 12963.896 6.5545335 6616.4487 173713.83 74184.15
00000000: d265 0a48 576e dc47 05be 4646 ae7e a247
00000010: 4c4e 4947 02a4 3a43 3bb4 7e41 4ca5 5642
00000020: 58c1 0947 41d2 b247 4fb0 9c46 34e3 0147
00000030: 761e 3046 017d 4947 34a9 5647 a16a 5646
00000040: 0966 c346 93ed de46 9779 2f44 1f91 0a47
00000050: d4b5 bc47 b129 2742 ff06 bb41 8e97 2142
00000060: 6c94 0c41 e6e2 e446 9e37 a347 8c49 c341
00000070: 1b43 d647 06b6 cb46 eb7a a145 439e 5347
00000080: 30f8 0442 a76c 9141 ba7e 3441 a62a 0948
00000090: dfd4 6346 021d c746 092b 3846 64f6 9740
000000a0: d259 b747 2821 4a40 8888 6c47 de3a 5347
000000b0: 1e4d ea41 b1e8 0041 707a 2c47 f05f 7040
000000c0: a6ef 4043 9aeb 4545 1980 3945 970e 4041
000000d0: 4fcb 4c46 7671 6d47 5f67 1a42 1f0f 1046
000000e0: f986 c541 b0e6 4546 9831 9047 2ba9 1041
000000f0: d891 4f41 3b03 9941 adda bd47 3297 b63f
00000100: c53f c041 1051 fb43 f266 9347 330d 4741
00000110: aed6 5346 9618 5a46 4dd0 3a47 157a 0b47
00000120: f4ca 7e43 ee60 d542 b826 7d41 4bba 6746
00000130: 1a8d 5c47 a232 6045 6710 8d41 e3be 3641
00000140: b725 8547 286f 8947 94d5 1f46 8b42 8c40
00000150: 849f 2e41 318b 6441 9bd7 6747 2266 7c47
00000160: e72b 5a48 69a3 ba47 aed0 1946 0f92 5146
00000170: 86a3 ea40 ebd1 2946 e1e8 0a41 a04a 2747
00000180: 0e8e 2242 1e09 f246 db14 4642 93fb 2747
00000190: 8c31 9e46 6b0e c641 bf33 5141 bdca e844
000001a0: a597 ec46 12f2 4848 d02f a246 20d1 6845
000001b0: 7130 e445 9f22 ae41 d430 3b41 5d79 7b46
000001c0: 5a89 7044 26e5 b547 459c 9946 ca5f 1745
000001d0: 91c3 9c47 5287 8247 4161 2041 7704 0b46
000001e0: 13d1 b843 b5fc 2047 68c3 e840 968f 4a46
000001f0: bdbe d140 97c3 ce45 75a4 2948 13e4 9047

weight f4 [64, 128]
0.07656425 -0.049012274 -0.012079845 0.064410046 0.050219964 0.0556834 0.010483713 0.08929872
0.07652436 0.020704241 0.04525443 0.059916694 -0.055049967 -0.0074051707 0.026554191 0.0186861
0.029210065 0.014272354 0.049911484 0.045655638 0.08325995 -0.03909948 -0.059989255 0.091842175
0.035072457 -0.027454574 0.06695104 -0.00537646 -0.056488276 0.07559744 -0.0010453991 0.047629513
-0.01093502 -0.069735765 -0.0070203226 0.053529166 0.037437063 -0.040587123 -0.04527145 0.05140243
0.030793644 -0.054410513 -0.03797035 -0.019788746 0.03615669 0.124265976 -0.00815047 -0.010020159
-0.025892476 0.039067667 -0.010921512 0.012920641 -0.019760134 0.029414115 -0.0295783 -0.06294235
-0.00365466 -0.031373695 0.05795946 0.01114058 -0.031347983 -0.16824056 0.017007004 0.0056640836
-0.0014241546 0.05069577 0.020340411 -0.024824208 0.06172925 -0.021615751 -0.0059869816 0.07633206
-0.016597752 0.064189 0.044127982 -0.043892168 0.064182974 0.0035200294 0.07443422 -0.047275316
0.031617947 0.049345557 -0.043756086 -0.011410612 -0.041007955 -0.031854585 0.0074508097 0.03379136
0.03318438 0.02022046 -0.04417245 0.0781231 -0.1409784 0.033146963 0.09496895 -0.0040019862
-0.056069862 -0.016719738 0.011528693 0.06929955 0.04009813 0.056564815 0.111103535 0.04196189
0.015929824 -0.036093086 0.062468775 -0.03444992 0.05436251 0.07534977 0.0309581 -0.028963046
0.0063723433 -0.032632336 -0.03106342 0.08125261 -0.0011571198 0.0781438 0.076039895 0.0447563
0.0841635 0.07675191 0.09084694 0.01647704 -0.0903884 0.018982394 -0.06507483 -0.028869651
0.06905313 0.019965366 0.05595647 0.029014148 -0.00064958335 0.054493442 -0.091678806 0.06315822
-0.017736912 0.0077590295 -0.06803383 -0.050329566 -0.038580123 0.06984268 -0.013238494 -0.029155508
-0.06019226 -0.08794648 -0.05660785 0.033857472 -0.0428516 0.053633712 -0.055913065 -0.06234078
-0.062537916 0.0025559666 0.06653207 -0.106054924 0.008980172 0.08495337 0.06071264 -0.061734658
0.049244046 -0.054701064 -0.04667659 0.05950907 -0.056240994 0.004030288 0.04594469 -0.028353026
0.046515383 -0.010193311 0.07396436 -0.018296165 -0.0017088525 -0.16026488 0.060761154 -0.069851264
0.0017247823 0.015361231 0.050340734 -0.04334495 0.026257556 -0.022525797 0.023247292 0.07751245
-0.13575232 0.06334531 0.05595612 -0.004264946 -0.13222906 0.052449763 0.057208493 -0.023227558
-0.04193252 -0.034220718 0.0014143607 0.008400038 0.06307924 0.07473402 -0.011470213 -0.061130315
0.058705337 0.027054856 0.020420512 -0.04749524 0.053169917 -0.066401295 0.060182974 0.011509168
0.07268441 -0.018046625 0.033495642 0.06463282 0.029904077 0.06478233 -0.004516541 -0.03428742
0.032720853 0.020670936 -0.04803172 -0.023967138 0.06967772 -0.024141286 -0.010040638 -0.038683463
-0.03765573 -0.09384618 0.057076655 0.022649273 0.0053702598 0.0111221345 -0.18141548 -0.056480832
-0.0007187865 0.029243907 -0.0021794036 -0.03586279 -0.058083247 -0.0066284696 0.08336663 0.057748936
-0.01697035 -0.06719676 -0.020055579 0.048531525 0.047253314 -0.03788758 -0.113417216 0.05380678
-0.074805155 -0.055450883 -0.043215472 0.009468462 -0.0032112792 0.00547101 -0.00086035323 -0.010650863
00000000: b8cd 9c3d 18c1 48bd 8bea 45bc 6ae9 833d
00000010: 73b3 4d3d 4714 643d e1c3 2b3c 3fe2 b63d
00000020: ceb8 9c3d f19b a93c b65c 393d 356b 753d
00000030: 137c 61bd 13a7 f2bb 2d88 d93c 9813 993c
00000040: f249 ef3c 97d6 693c fc6f 4c3d 6801 3b3d
00000050: 3184 aa3d c726 20bd 4bb7 75bd c017 bc3d
00000060: 23a8 0f3d 6ae8 e0bc a01d 893d 042d b0bb
00000070: 4060 67bd d5d2 9a3d c605 89ba 2a17 433d
00000080: cc28 33bc a0d1 8ebd bc0a e6bb 6641 5b3d
00000090: 9b57 193d af3e 26bd 8e6e 39bd 5b8b 523d
000000a0: f442 fc3c 8fdd 5ebd cc86 1bbd 021c a2bc
000000b0: 0a19 143d 297f fe3d 8d89 05bc 982b 24bc
000000c0: 751c d4bc 6b05 203d 24f0 32bc 19b1 533c
000000d0: 01e0 a1bc dff5 f03c 314e f2bc ebe7 80bd
000000e0: 0583 6fbb b481 00bd e666 6d3d fb86 363c
000000f0: be66 00bd 4147 2cbe 4652 8b3c c799 b93b
00000100: b3aa baba 5ea6 4f3d efa0 a63c 235c cbbc
00000110: cfd7 7c3d 8413 b1bc 712e c4bb fc53 9c3d
00000120: 02f8 87bc 8675 833d 8bbf 343d 46c8 33bd
00000130: 5d72 833d 4bb0 663b f870 983d c3a3 41bd
00000140: d281 013d 911e 4a3d 9539 33bd 93f3 3abc
00000150: f5f7 27bd f479 02bd ec25 f43b cf68 0a3d
00000160: 58ec 073d 61a5 a53c 2cee 34bd 01ff 9f3d
00000170: a45c 10be 1cc5 073d 157f c23d 1823 83bb
00000180: 83a9 65bd d5f7 88bc d8e2 3c3c ecec 8d3d
00000190: f03d 243d 82b0 673d 408a e33d 3be0 2b3d
000001a0: 437f 823c 58d6 13bd 42df 7f3d 5c1b 0dbd
000001b0: 39ab 5e3d fb50 9a3d d79b fd3c e943 edbc
000001c0: 17cf d03b 7ca9 05bd b778 febc c567 a63d
000001d0: 7faa 97ba db09 a03d ceba 9b3d 6252 373d
000001e0: ea5d ac3d 1b30 9d3d f60d ba3d dbfa 863c
000001f0: 8e1d b9bd f780 9b3c f445 85bd 0c80 ecbc
00000200: ba6b 8d3d 688e a33c 9d32 653d 14af ed3c
00000210: cd48 2aba 8434 5f3d 19c2 bbbd 1959 813d
00000220: 004d 91bc 753f fe3b 5255 8bbd 6026 4ebd
00000230: 3106 1ebd ae09 8f3d 45e6 58bc 88d7 eebc
00000240: 298c 76bd 491d b4bd a2dd 67bd 22ae 0a3d
00000250: 2985 2fbd 06af 5b3d 1905 65bd 0c59 7fbd
00000260: e113 80bd 0182 273b f741 883d 5333 d9bd
00000270: 9221 133c 08fc ad3d d1ad 783d 7bdd 7cbd
00000280: 20b4 493d 390e 60bd f42f 3fbd c8bf 733d
00000290: f55c 66bd 8210 843b 8030 3c3d 9b44 e8bc
000002a0: ea86 3e3d d801 27bc a07a 973d d7e1 95bc
000002b0: 93fb dfba 7a1c 24be b0e0 783d 2e0e 8fbd
000002c0: 1712 e23a acad 7b3c 1632 4e3d 798a 31bd
000002d0: 161a d73c 0588 b8bc 1b71 be3c d9be 9e3d
000002e0: a802 0bbe 30bb 813d 3f32 653d f6c0 8bbb
000002f0: 0e67 07be 90d5 563d 7453 6a3d b847 bebc
00000300: 6fc1 2bbd 062b 0cbd 1262 b93a 50a0 093c
00000310: b02f 813d 260e 993d 8fed 3bbc c863 7abd
00000320: 0275 703d 25a2 dd3c eb48 a73c 5e8a 42bd
00000330: b3c8 593d 67fd 87bd 6c82 763d f390 3c3c
00000340: 90db 943d 84d6 93bc ba32 093d 365e 843d
00000350: 65f9 f43c 99ac 843d 7eff 93bb f770 0cbd
00000360: 4d06 063d 1856 a93c e9bc 44bd bb56 c4bc
00000370: 31b3 8e3d f2c3 c5bc 7d81 24bc 8d72 1ebd
00000380: e53c 1abd 6d32 c0bd 36c9 693d f88a b93c
00000390: 01f9 af3b 9d39 363c fbc4 39be 7258 67bd
000003a0: f26c 3cba eb90 ef3c 53d4 0ebb dce4 12bd
000003b0: b3e8 6dbd a233 d9bb 20bc aa3d 268a 6c3d
000003c0: 6705 8bbc 749e 89bd 994b a4bc fec8 463d
000003d0: b18c 413d 0230 1bbd 4947 e8bd 8064 5c3d
000003e0: 7233 99bd 7720 63bd b502 31bd 9c21 1b3c
000003f0: 5374 52bb 2946 b33b 5489 61ba f580 2ebc

bias f4 [64]
-0.03566446 -0.04431211 0.011664811 0.07367282 0.06396607 -0.066074185 0.051614046 0.05386919
-0.0803762 -0.0445236 0.055122625 0.015441563 -0.027870601 0.027235003 -0.045560755 -0.08331044
0.067990355 -0.005488716 0.054560985 -0.08961435 0.019893924 0.0066034053 -0.05650677 0.008731767
-0.04986997 -0.06805183 0.057408717 0.07949706 -0.03965243 -0.064765036 -0.027524423 -0.06783431
0.04802611 0.04473473 0.008477487 0.020215126 0.037082803 0.03749147 -0.06708721 -0.04278989
0.019867687 -0.061901107 0.041749157 0.022442855 0.022701314 -0.027238116 0.06756715 -0.027903736
0.07640486 -0.03160389 -0.040784772 -0.021246238 0.040668927 0.030156197 0.07273319 0.059435196
-0.057979595 0.03313733 0.008982372 -0.011796102 -0.06678918 0.07754903 -0.024776895 0.033505436
00000000: e614 12bd 9d80 35bd c31d 3f3c c7e1 963d
00000010: a500 833d e751 87bd 4069 533d f1a5 5c3d
00000020: 479c a4bd 615e 36bd 43c8 613d 9cfe 7c3c
00000030: e350 e4bc f11b df3c ea9d 3abd aa9e aabd
00000040: 873e 8b3d b0da b3bb 577b 5f3d ba87 b7bd
00000050: 95f8 a23c 6161 d83b a573 67bd af0f 0f3c
00000060: 7444 4cbd c25e 8bbd 6725 6b3d 5bcf a23d
00000070: 966a 22bd 88a3 84bd e67a e1bc b7ec 8abd
00000080: 07b7 443d c43b 373d 28e5 0a3c 319a a53c
00000090: 23e4 173d a890 193d 0565 89bd 7444 2fbd
000000a0: 8fc1 a23c 048c 7dbd 2a01 2b3d 14da b73c
000000b0: 1bf8 b93c 7822 dfbc a560 8a3d 6096 e4bc
000000c0: 277a 9c3d 1573 01bd ef0d 27bd 970c aebc
000000d0: 7694 263d 210a f73c 24f5 943d 5272 733d
000000e0: 037c 6dbd 02bb 073d cc2a 133c 7044 41bc
000000f0: c4c8 88bd 07d2 9e3d eaf8 cabc ff3c 093d

weight f4 [64]
1.0522317 1.0961589 1.0652822 1.0252576 1.1013799 1.081661 1.0722754 1.0584211
1.0405349 1.0622014 1.0788958 1.0484707 1.1093572 1.2212887 1.0982432 1.0779867
1.0776857 1.1443046 1.0401163 1.046693 1.0862178 1.0997696 1.0172356 1.0825812
1.1070225 1.0539556 1.0511327 1.0357527 1.0995082 1.1232362 1.0343665 1.120796
1.0495476 1.1952957 1.0696287 1.0722634 1.0573663 1.0808659 1.1513299 1.0608655
1.068009 1.0812588 1.0724635 1.0252062 1.0388308 1.1078429 1.0655453 1.0882133
1.0712825 1.1226686 1.0192695 1.0747925 1.0901666 1.0739968 1.0386342 1.0916872
1.1798714 1.1171482 1.067642 1.0705602 1.0152603 1.0719757 1.1022998 1.0761294
00000000: 87af 863f ef4e 8c3f 2b5b 883f a43b 833f
00000010: 04fa 8c3f de73 8a3f 5240 893f 587a 873f
00000020: 3f30 853f 37f6 873f 4219 8a3f 4a34 863f
00000030: 6bff 8d3f 3053 9c3f 3c93 8c3f 78fb 893f
00000040: 9bf1 893f 9378 923f 8822 853f 09fa 853f
00000050: 2f09 8b3f 40c5 8c3f c734 823f 0592 8a3f
00000060: eab2 8d3f 04e8 863f 848b 863f 8b93 843f
00000070: afbc 8c3f 34c6 8f3f 1f66 843f 3e76 8f3f
00000080: 9357 863f 73ff 983f 98e9 883f ed3f 893f
00000090: c757 873f d059 8a3f c75e 933f 71ca 873f
000000a0: 85b4 883f b066 8a3f 7c46 893f f539 833f
000000b0: 68f8 843f cccd 8d3f ca63 883f 934a 8b3f
000000c0: c91f 893f 9bb3 8f3f 6c77 823f cd92 893f
000000d0: 948a 8b3f ba78 893f f7f1 843f 68bc 8b3f
000000e0: 0706 973f b6fe 8e3f 7ea8 883f 1e08 893f
000000f0: 0df4 813f 8036 893f 2918 8d3f 9cbe 893f

bias f4 [64]
-0.05720606 0.15986255 0.033411134 -0.006310881 -0.023916706 0.026291342 -0.0014182396 0.096891776
0.022670465 -0.01145343 0.11174783 0.024843348 0.13366 0.089944586 0.10650865 0.065177664
0.10455242 0.053629007 0.0750412 -0.02675976 0.08654883 0.088016376 -0.03764288 0.049766313
0.09995868 0.0017588295 0.064873576 0.029450802 0.12114581 -0.008431728 0.02143435 0.08098649
0.00015871164 0.03644533 0.092517234 0.09867597 -0.04907562 -0.03184694 0.052806158 0.058047667
0.018390814 -0.010169223 -0.018683605 0.0067199045 0.008110186 0.12496095 0.0880986 0.12480547
0.025905425 0.0007455538 -0.037569806 0.09483361 0.030688224 0.0617967 -0.013210454 0.14118683
0.05873757 0.12038778 0.048464708 0.07758317 0.018098421 0.10546138 0.041931 -0.05620334
00000000: e750 6abd 02b3 233e 1dda 083d 82cb cebb
00000010: f8ec c3bc f160 d73c 39e4 b9ba 326f c63d
00000020: 69b7 b93c 2ba7 3bbc 0cdc e43d 4784 cb3c
00000030: 2bde 083e de34 b83d 3521 da3d de7b 853d
00000040: 941f d63d 17aa 5b3d 33af 993d 4937 dbbc
00000050: 8340 b13d ee41 b43d 6c2f 1abd c3d7 4b3d
00000060: 23b7 cc3d 8688 e63a 70dc 843d cf42 f13c
00000070: 4b1b f83d 3b25 0abc 1797 af3c 3fdc a53d
00000080: d56b 2639 b347 153d ad79 bd3d a116 ca3d
00000090: 8403 49bd f071 02bd 454b 583d 64c3 6d3d
000000a0: 55a8 963c d09c 26bc 5c0e 99bc a532 dc3b
000000b0: 96e0 043c 87eb ff3d 0a6d b43d 039a ff3d
000000c0: 9d37 d43c 4571 433a cce2 19bd 2038 c23d
000000d0: df65 fb3c 891e 7d3d a970 58bc 4893 103e
000000e0: ce96 703d de8d f63d ee82 463d ede3 9e3d
000000f0: 2443 943c 23fc d73d d7bf 2b3d 7935 66bd

running_mean f4 [64]
0.59366846 -0.2972132 -0.24233523 -0.0710342 -0.7876483 -0.27305192 -0.12109709 -0.3604236
-0.47516882 -0.17773451 -0.16887096 -0.20433593 -0.10469975 -0.26125166 -0.3341429 -0.08008671
0.027746398 -0.80814594 0.10485977 -0.1755383 -0.5588233 -0.55651534 0.7588234 -0.2857975
-0.29384363 0.3733526 0.2601768 -0.013127107 -0.1688777 -0.9975192 0.07732752 -0.4618777
-0.063163616 -0.07338041 0.29431248 0.0016467442 0.933157 -0.8603635 -0.699641 -0.44676802
-0.700319 -0.32279116 0.02524225 -0.20040937 -0.13657632 -0.07291836 -0.30776995 -0.06480918
-0.11196557 -0.6567922 0.55810225 -0.36811686 -0.0070478423 -0.167991 0.012995014 -0.117540225
-0.5634131 0.12204812 0.14732257 0.07394857 -0.039892413 -0.31073493 -0.41077247 -0.3455653
00000000: a8fa 173f 542c 98be ba26 78be 617a 91bd
00000010: 52a3 49bf 76cd 8bbe c001 f8bd 7189 b8be
00000020: 5449 f3be 0900 36be 82ec 2cbe 703d 51be
00000030: d36c d6bd c7c2 85be c714 abbe 8004 a4bd
00000040: 6a4c e33c a7e2 4ebf b8c0 d63d 50c0 33be
00000050: 0b0f 0fbf ca77 0ebf 4042 423f 0d54 92be
00000060: ac72 96be 1228 bf3e e535 853e 1413 57bc
00000070: 47ee 2cbe 6b5d 7fbf e45d 9e3d 3c7b ecbe
00000080: ed5b 81bd 7848 96bd 20b0 963e 91d7 d73a
00000090: 61e3 6e3f c840 5cbf ac1b 33bf c7be e4be
000000a0: 1b48 33bf e244 a5be d6c8 ce3c 1d38 4dbe
000000b0: aada 0bbe 3956 95bd 0694 9dbe adba 84bd
000000c0: 344e e5bd 8923 28bf cadf 0e3f d079 bcbe
000000d0: 96f1 e6bb d505 2cbe 0ae9 543c eeb8 f0bd
000000e0: d73b 10bf 5df4 f93d badb 163e 5972 973d
000000f0: 3a66 23bd a618 9fbe c550 d2be efed b0be

running_var f4 [64]
0.43192828 0.42893052 0.35565358 0.43782175 0.34296137 0.13352673 0.22725327 0.264011
0.33101445 0.3562479 0.34729156 0.20858824 0.3235761 0.17713466 0.31284943 0.42030212
0.29348725 0.23712313 0.3009 0.19821851 0.3070218 0.32425123 0.4530731 0.28170153
0.4471357 0.5347951 0.29970333 0.35543427 0.29548243 0.28563762 0.34919792 0.1814676
0.17233588 0.23743652 0.28971118 0.2903045 0.58552146 0.3512176 0.30947188 0.21606767
0.5530065 0.28454545 0.20205201 0.33280167 0.48880804 0.46028513 0.31722498 0.4055668
0.15808494 0.3592387 0.38286445 0.29733393 0.110135034 0.31369922 0.37187055 0.38576183
0.45718727 0.25354114 0.3025301 0.88418365 0.394896 0.27087036 0.35091856 0.20916335
00000000: b425 dd3e c89c db3e 3a18 b63e 2c2a e03e
00000010: a298 af3e 3bbb 083e 15b5 683e 732c 873e
00000020: ba7a a93e 2066 b63e 33d0 b13e 2898 553e
00000030: c4ab a53e ca62 353e cd2d a03e d731 d73e
00000040: f643 963e 68d0 723e 910f 9a3e cbf9 4a3e
00000050: f631 9d3e 4204 a63e 33f9 e73e 2f3b 903e
00000060: f8ee e43e 55e8 083f b772 993e 7bfb b53e
00000070: 7949 973e 183f 923e 12ca b23e a4d2 393e
00000080: d178 303e 8f22 733e 0655 943e cba2 943e
00000090: bce4 153f cbd2 b33e 1973 9e3e d840 5d3e
000000a0: d591 0d3f f1af 913e b9e6 4e3e fb64 aa3e
000000b0: 0c45 fa3e 7eaa eb3e 506b a23e 74a6 cf3e
000000c0: 05e1 213e 23ee b73e cf06 c43e 273c 983e
000000d0: 7a8e e13d 2f9d a03e d165 be3e 9382 c53e
000000e0: 7314 ea3e 25d0 813e 3ae5 9a3e dc59 623f
000000f0: cf2f ca3e 85af 8a3e 99ab b33e eb2e 563e

weight f4 [3, 64]
0.10345522 -0.014078548 0.114977434 0.051157694 0.1449648 -0.047781505 0.16225992 -0.027229436
0.088035956 0.13881806 -0.19321504 -0.011619649 -0.061551172 -0.18269238 -0.05391873 -0.1883766
0.0013735703 0.16809098 -0.14967255 0.1198415 -0.0047076107 -0.07392878 0.09587393 0.08593121
-0.11100714 -0.0043433015 -0.1251531 0.06432165 -0.013388338 0.20206101 -0.18010002 -0.22363101
0.046641972 -0.2525185 -0.12564346 -0.16913733 -0.022482315 0.1977272 0.16812354 0.09514213
0.13932914 -0.18316218 -0.10613674 0.109575555 -0.14159508 -0.0073347474 -0.17225051 -0.11473571
-0.15860477 0.1446176 0.05312653 0.028057808 -0.05599256 -0.0780817 0.12246552 -0.01550107
0.06674779 -0.17591803 -0.09744943 -0.15918691 0.012461074 0.07643579 0.08374052 -0.17979072
-0.09562713 0.14568898 -0.052572884 -0.056071393 -0.0476592 -0.06903506 -0.10616231 0.17285585
0.09786407 -0.100750454 0.11251854 0.058758948 0.18132985 0.12225893 0.16089454 0.10332174
0.07507419 0.11468418 0.05882458 -0.12223152 0.17946847 0.039571613 -0.018793039 0.07758919
0.024148637 -0.16985072 0.057965305 0.049379632 0.080581516 0.035467345 -0.03427157 0.036817174
-0.10520245 0.08221835 -0.023701828 0.1588925 -0.13055532 -0.048542555 0.09046052 0.12278867
0.12612802 -0.0060516438 0.031018326 -0.14522456 0.13782883 0.2133685 0.16610397 0.062467776
-0.06531805 0.04631419 -0.058811534 0.16398367 0.06262792 0.10180768 -0.13423426 0.12759323
0.07152031 0.016103707 0.00505277 -0.009777039 -0.10652455 0.16264641 0.05369986 -0.003983373
0.10897977 -0.08916636 0.10525246 0.10467245 -0.13802561 -0.18098648 0.03534388 -0.021786788
-0.122358486 0.023791024 -0.04466381 0.15265238 0.035040744 0.17350441 -0.18680136 0.02119474
-0.17243415 -0.0753515 0.12085484 -0.048266098 -0.06825221 -0.16380022 0.13426049 -0.09849123
-0.048107523 0.07978661 0.081255466 -0.1519495 -0.12546505 -0.06433154 0.097685605 -0.09593276
-0.098429725 0.09505159 0.07881829 0.049523614 -0.01853864 -0.057238627 -0.267264 -0.060841326
0.02023602 0.13223206 0.15802626 0.13620494 -0.016749995 0.020467544 -0.14992772 -0.13662146
0.10065077 -0.1721754 0.13337485 -0.13963081 0.16551729 -0.10935652 -0.108917214 -0.1677924
-0.23710774 0.044351544 0.03784523 -0.06562519 0.12232657 -0.03424261 -0.21272288 0.11909004
00000000: 55e0 d33d b6a9 66bc 4a79 eb3d bb8a 513d
00000010: a771 143e 8ab6 43bd 7727 263e 4410 dfbc
00000020: 324c b43d 5226 0e3e 2ada 45be 5760 3ebc
00000030: 151d 7cbd b613 3bbe e3d9 5cbd cce5 40be
00000040: 5f09 b43a 0b20 2c3e c343 19be 766f f53d
00000050: 4d42 9abb f967 97bd 8d59 c43d b4fc af3d
00000060: b657 e3bd 4152 8ebb 2228 00be 12bb 833d
00000070: c25a 5bbc 15e9 4e3e 246c 38be 87ff 64be
00000080: a70b 3f3d 1b4a 81be aea8 00be 5632 2dbe
00000090: d52c b8bc 0079 4a3e 9428 2c3e e1d9 c23d
000000a0: 4cac 0e3e de8e 3bbe 385e d9bd 2669 e03d
000000b0: 4dfe 10be 5258 f0bb 7062 30be 8efa eabd
000000c0: 4a69 22be a316 143e 349b 593d 7dd9 e53c
000000d0: 7458 65bd 4ce9 9fbd 34cf fa3d 33f8 7dbc
000000e0: 11b3 883d db23 34be 9193 c7bd e501 23be
000000f0: 8829 4c3c 5e8a 9c3d 2680 ab3d 0f1b 38be
00000100: 28d8 c3bd 7e2f 153e aa56 57bd 1eab 65bd
00000110: 4b36 43bd 4162 8dbd a06b d9bd 2001 313e
00000120: f56c c83d 4156 cebd 1f70 e63d 39ad 703d
00000130: 88ae 393e e462 fa3d 8ac1 243e 599a d33d
00000140: 7fc0 993d 8adf ea3d 0bf2 703d 8554 fabd
00000150: 95c6 373e d815 223d dcf3 99bc 15e7 9e3d
00000160: 5dd3 c53c 59ed 2dbe 076d 6d3d 4c42 4a3d
00000170: ec07 a53d 3546 113d 5960 0cbd 9bcd 163d
00000180: 6274 d7bd 1862 a83d 562a c2bc b7b4 223e
00000190: 4bb0 05be 8fd4 46bd 5d43 b93d a078 fb3d
000001a0: b427 013e de4c c6bb 251a fe3c bfb5 14be
000001b0: 0023 0d3e 467d 5a3e 2917 2a3e 36de 7f3d
000001c0: 78c5 85bd f3b3 3d3d 5de4 70bd 56eb 273e
000001d0: 1143 803d 8c80 d03d b574 09be cda7 023e
000001e0: 3e79 923d eceb 833c b591 a53b e02f 20bc
000001f0: 8b29 dabd c88c 263e 62f4 5b3d f486 82bb
00000200: c930 df3d da9c b6bd 9a8e d73d 825e d63d
00000210: 9656 0dbe 8554 39be bfc4 103d 357a b2bc
00000220: 1697 fabd 65e5 c23c 66f1 36bd e850 1c3e
00000230: e286 0f3d 24ab 313e db48 3fbe 97a0 ad3c
00000240: 9492 30be e351 9abd be82 f73d acb2 45bd
00000250: d1c7 8bbd 3fbb 27be 957b 093e c5b5 c9bd
00000260: 650c 45bd 2a67 a33d 4469 a63d a698 1bbe
00000270: e979 00be 41c0 83bd 640f c83d 6578 c4bd
00000280: 8695 c9bd 68aa c23d 7c6b a13d 46d9 4a3d
00000290: 59de 97bc 0d73 6abd d4d6 88be c134 79bd
000002a0: 03c6 a53c d767 073e a3d1 213e 4f79 0b3e
000002b0: 4937 89bc 8dab a73c a786 19be 7fe6 0bbe
000002c0: fe21 ce3d c04e 30be 6b93 083e 61fb 0ebe
000002d0: 5d7d 293e 50f6 dfbd fd0f dfbd c5d1 2bbe
000002e0: 5fcc 72be f7a9 353d 9a03 1b3d 8066 86bd
000002f0: 5a86 fa3d fb41 0cbd 07d4 59be 7be5 f33d

bias f4 [3]
-0.14381137 0.010059353 -0.10336133
00000000: 4a43 13be fccf 243c 1baf d3bd
