Sleep_Disorder/models2/customFFN.pth (torch, 30805 bytes, 24 tensors)

weight f4 [32, 7]
0	0x3e39a920	0.18130922
1	0x3e29f2e4	0.16596562
2	0xbd751ac4	-0.05983998
3	0xbe3f9af6	-0.18711457
4	0xbe7adb0d	-0.24497624
5	0xbe8270d3	-0.25476703
6	0x3ebec4b1	0.3725944
7	0x3e8129f7	0.2522733
8	0xbd8f4c37	-0.06996959
9	0x3c6e5d8d	0.014548671
10	0xbe59de76	-0.21276268
11	0x3da59d3d	0.080866314
12	0x3ea7172a	0.3263486
13	0x3e4231fa	0.18964377
14	0xbd8b0c44	-0.06789449
15	0x3ea8bf00	0.3295822
16	0xbdc1d438	-0.09464306
17	0x3e7ac934	0.24490815
18	0x3de59c8e	0.11211501
19	0x3e027bb1	0.12742497
20	0xbe993165	-0.29920498
21	0x3ea176b5	0.3153588
22	0x3e71de0a	0.23619857
23	0x3e70982c	0.23495549
24	0x3ee905e7	0.45512316
25	0x3e5114ab	0.2041804
26	0x3ec8ef7e	0.39245218
27	0xbea191fc	-0.3155669
28	0xbe250f78	-0.16119182
29	0x3d703756	0.058646522
30	0x3e07e54d	0.13271065
31	0xbec69afd	-0.38790122
32	0xbe682369	-0.22669758
33	0xbcbf6170	-0.023361892
34	0x3e02bf41	0.1276827
35	0x3e23f528	0.16011488
36	0xbe29174f	-0.16512798
37	0xbd965026	-0.07339506
38	0xbcf697d7	-0.0301017
39	0x3e928fe1	0.28625396
40	0xbdfa7211	-0.12228788
41	0x3e316a0f	0.17325614
42	0xbe1df5a0	-0.1542573
43	0x3e7991fa	0.24372092
44	0xbd9b0bd4	-0.075706154
45	0x3e8903d1	0.26760724
46	0x3e8cebbe	0.27523607
47	0xbdade0c2	-0.08490135
48	0xbe9f2f0b	-0.31090578
49	0x3ddf74e9	0.10910971
50	0x3e7c2165	0.24622114
51	0x3e134eed	0.14385577
52	0xbe051695	-0.12996896
53	0xbd1c0dd1	-0.038099114
54	0x3ea6ca9f	0.32576463
55	0xbe659562	-0.22420266
56	0xbe95e230	-0.2927413
57	0x3e2cd4f9	0.16878118
58	0xbe03c15d	-0.12866731
59	0xbd779c8a	-0.06045202
60	0xbe9d1b7b	-0.30685028
61	0xbeaf1602	-0.34196478
62	0xbea5925c	-0.32338226
63	0xbe240b7f	-0.1602001
64	0xbe001c9d	-0.12510915
65	0x3dee6968	0.116411984
66	0x3e999ee3	0.30004033
67	0xbe0520d0	-0.13000798
68	0xbe95a0a2	-0.29224116
69	0x3ec0985d	0.37616244
70	0x3e0f1699	0.13973464
71	0xbebb3e0d	-0.36570778
72	0xbea5b3e7	-0.32363817
73	0x3e037ac8	0.12839806
74	0x3e089aaf	0.13340257
75	0xbdd356b4	-0.10319272
76	0x3e95f281	0.29286578
77	0xbe72e680	-0.23720741
78	0xbdd116d5	-0.10209433
79	0x3e0c1982	0.13681605
80	0xbeba0c50	-0.3633752
81	0xbe436599	-0.19081725
82	0xbe34fea3	-0.17675261
83	0xbea05014	-0.31311095
84	0x3cf2d71b	0.029643586
85	0x3ea2fab3	0.31831893
86	0x3ca809b9	0.020512449
87	0xbe9b8f36	-0.303827
88	0x3e9151b2	0.2838264
89	0x3e8ea9a3	0.27863798
90	0xbe73291f	-0.23746155
91	0x3ea0cd99	0.3140686
92	0x3e49bd35	0.19701083
93	0x3e29243a	0.16517726
94	0x3d9d81e2	0.07690789
95	0xbdc076bc	-0.09397647
96	0xbca91dd4	-0.020644106
97	0xbe4b1fb0	-0.19836307
98	0x3e357741	0.17721273
99	0xbe853e0a	-0.26023895
100	0xbe575545	-0.21028621
101	0x3e993b62	0.29928118
102	0xbc855e51	-0.016280325
103	0x3d9cbb0d	0.076528646
104	0xbcac12c0	-0.021005034
105	0x3eb894e8	0.36051106
106	0xbd5b9d85	-0.05361702
107	0x3e9678f0	0.29389143
108	0xbd9b3bc7	-0.07579761
109	0x3dbf1cb1	0.09331644
110	0x3e245161	0.16046669
111	0x3dc1f1a7	0.0946992
112	0xbe609970	-0.21933532
113	0x3e2a1786	0.16610536
114	0xbe08c531	-0.13356473
115	0x3e8a964a	0.27067786
116	0x3d1c9cca	0.038235463
117	0xbe2df233	-0.16986923
118	0xbda5f456	-0.08103244
119	0xbe1c47fb	-0.15261833
120	0x3d6c0ed8	0.057631344
121	0xbdf46a02	-0.11934282
122	0x3c3f52ea	0.011677483
123	0xbe31a986	-0.17349824
124	0x3cab3ba4	0.020902462
125	0x3e3c1ad8	0.18369615
126	0xbea0efa5	-0.31432834
127	0xbd06104a	-0.03273038
128	0x3e869688	0.2628672
129	0x3e9ed5d0	0.310225
130	0xbd185ff1	-0.03720087
131	0x3e90bf72	0.2827106
132	0xbd82deb6	-0.06390135
133	0xbea46460	-0.3210783
134	0x3e8044c8	0.25052476
135	0x3ea7fd37	0.32810375
136	0xbe1411c3	-0.144599
137	0x3dbc6fc5	0.09201006
138	0x3bb898d0	0.005633451
139	0x3e2fba12	0.17160824
140	0x3e982a21	0.29719642
141	0xbe6f35ff	-0.23360442
142	0x3e6c653b	0.23085491
143	0x3e25f8d7	0.16208206
144	0x3dc8960e	0.09794246
145	0xbe82183d	-0.25409117
146	0xbecbd424	-0.39810288
147	0x3dd46218	0.103702724
148	0x3d0aa639	0.03384993
149	0xbe2aff1b	-0.16698878
150	0xbe67ff00	-0.22655869
151	0x3d7ef9e2	0.062250026
152	0x3e8b8d83	0.27256402
153	0x3d2f80c9	0.04284743
154	0x3e3c0291	0.18360354
155	0xbe8fa745	-0.28057304
156	0x3eca89ff	0.39558408
157	0x3e6fc68c	0.23415583
158	0x3ea5c3b7	0.3237588
159	0xbe7199b2	-0.23593786
160	0x3e6adb68	0.2293526
161	0xbec108d8	-0.3770206
162	0x3e159609	0.14608015
163	0xbe567532	-0.20943144
164	0xbbba7264	-0.005689906
165	0xbe54d9be	-0.20786187
166	0xbe2c5bdd	-0.16831918
167	0x3d250d1a	0.040295698
168	0x3d18c862	0.037300475
169	0x3c8461b9	0.016159879
170	0x3df34ef3	0.11880293
171	0xbe868441	-0.26272777
172	0x3edb3b3b	0.42818627
173	0x3da44d76	0.08022587
174	0xbe81b81a	-0.2533577
175	0x3e632332	0.22181395
176	0x3da1e26c	0.07904515
177	0x3e9673de	0.29385275
178	0xbe235ca2	-0.15953305
179	0xbec0d982	-0.37665945
180	0x3e612c34	0.21989518
181	0x3eb07d3d	0.3447055
182	0x3ea092ff	0.3136215
183	0xbcc9fe50	-0.024657398
184	0xbe636eee	-0.22210285
185	0xbe8b3d30	-0.2719512
186	0xbe9bf2db	-0.30458722
187	0xbcc8b319	-0.024499463
188	0x3eac088b	0.33600268
189	0xbe4590e7	-0.19293557
190	0x3e99380a	0.29925567
191	0x3d62b29e	0.055346124
192	0x3a8c9259	0.0010724767
193	0xbd7e27bd	-0.062049616
194	0xbd8dd0b2	-0.06924571
195	0x3ea68704	0.32524884
196	0xbe0dc911	-0.13846232
197	0xbe9fd14d	-0.3121437
198	0x3e85196d	0.2599596
199	0xbe4d833e	-0.20069596
200	0xbd3af8c8	-0.045647413
201	0x3e4f7b8c	0.20261973
202	0xbd9a3e2a	-0.07531388
203	0xbe5104f2	-0.20412043
204	0x3e49bfea	0.19702116
205	0x3ea7d5c6	0.32780284
206	0xbca55c3a	-0.020185579
207	0x3e3d80c3	0.1850615
208	0xbdf3a1a5	-0.118960656
209	0x3d9fe601	0.07807542
210	0x3ebe75bd	0.37199202
211	0xbe30a379	-0.1724986
212	0xbeb8dcc4	-0.3610593
213	0x3e92b1a3	0.2865115
214	0x3e306524	0.17226082
215	0x3d98ea9f	0.074666254
216	0xbe79c6a4	-0.24392182
217	0xbe9fca18	-0.31208873
218	0xbe25aa1e	-0.16178176
219	0x3e6fc008	0.23413098
220	0x3e15a2d7	0.146129
221	0xbe36ae49	-0.17839922
222	0xbea29ee6	-0.31761855
223	0x3ed15402	0.40884405

bias f4 [32]
0	0xbd82e28a	-0.06390865
1	0x3e9c61e8	0.30543447
2	0x3e51532b	0.20441882
3	0x3e148274	0.14502889
4	0x3ee0f9e9	0.43940666
5	0x3dbeea4b	0.093220316
6	0x3e855149	0.26038578
7	0xbec249f5	-0.3794705
8	0x3ec40383	0.3828393
9	0xbb8c3dc3	-0.0042798235
10	0x3e141872	0.1446245
11	0x3e5316f2	0.20614222
12	0xbea824c9	-0.32840565
13	0xbe698ec4	-0.22808367
14	0xbdc70d5a	-0.097193435
15	0xbea725c0	-0.32645988
16	0xbe86edee	-0.263534
17	0x3e50c09e	0.20385978
18	0x3e586afd	0.21134563
19	0x3e126c57	0.14299141
20	0x3d0fa791	0.035071913
21	0x3d1d6045	0.038421888
22	0xbe939700	-0.2882614
23	0xbe74e067	-0.23913728
24	0x3d7acd17	0.061230745
25	0x3e345f84	0.17614561
26	0x3eb512fc	0.35366046
27	0xbe03895e	-0.1284537
28	0xbde1bd63	-0.11022451
29	0x3e218dc0	0.1577673
30	0xbea20ee4	-0.31651986
31	0x3e60ad17	0.21941029

weight f4 [32]
0	0x3f8ab16b	1.0835394
1	0x3f8a9694	1.0827203
2	0x3f8ed751	1.1159459
3	0x3f8bc45e	1.0919302
4	0x3f89f126	1.0776718
5	0x3f89c2bd	1.0762554
6	0x3f8a8087	1.0820473
7	0x3f8c20a1	1.0947458
8	0x3f860b66	1.0472229
9	0x3f8601f4	1.0469346
10	0x3f902184	1.1260228
11	0x3f894ff1	1.0727521
12	0x3f8499af	1.03594
13	0x3f8c45e7	1.0958833
14	0x3f8b6e32	1.0893004
15	0x3f8558da	1.041774
16	0x3f884855	1.0647074
17	0x3f8a92f8	1.0826101
18	0x3f86c22e	1.0528009
19	0x3f88f695	1.0700251
20	0x3f89d33f	1.0767592
21	0x3f8c2557	1.0948895
22	0x3f91715f	1.1362723
23	0x3f8141ce	1.0098207
24	0x3f88e7e2	1.0695765
25	0x3f84fa17	1.0388821
26	0x3f8c1475	1.0943743
27	0x3f885d61	1.0653497
28	0x3f902a45	1.12629
29	0x3f88406b	1.0644659
30	0x3f8fc504	1.1231999
31	0x3f840b2c	1.0315909

bias f4 [32]
0	0x3d388ece	0.045058064
1	0xbdb9858f	-0.090586774
2	0xbcbdddf5	-0.023177126
3	0xbdb5773a	-0.08860631
4	0x3d53de40	0.051725626
5	0xbd960d5c	-0.07326767
6	0xbd96bc60	-0.073601484
7	0xbdc8e944	-0.09810117
8	0x3dc2cfbc	0.095122784
9	0x3c63715b	0.0138820065
10	0xbda7857e	-0.081797585
11	0x3d9d39df	0.07677054
12	0xbdc72860	-0.09724498
13	0xbdcf057f	-0.1010847
14	0xbdc56920	-0.09639192
15	0xbdaf75dd	-0.085674025
16	0xbd40c70f	-0.047064837
17	0x3d70c218	0.058778852
18	0xbdbdecee	-0.092737064
19	0x3c2844b6	0.010270288
20	0xbd9b0752	-0.075697556
21	0x3dbfa986	0.09358506
22	0xbdd0a8c4	-0.101884395
23	0x3dc03ec7	0.09386974
24	0xbdd66476	-0.1046838
25	0xbdbba85b	-0.09162971
26	0x3d89ff22	0.06738116
27	0x3d84b955	0.06480662
28	0xbd0304ee	-0.031987123
29	0x3d8c3654	0.068463
30	0xbd39b1f2	-0.045335717
31	0x3db43a2a	0.088001564

running_mean f4 [32]
0	0x3eac9d18	0.33713603
1	0x3ea492d7	0.3214328
2	0x3e86e8f4	0.26349604
3	0x3f0289c2	0.5099145
4	0x3f16bb30	0.58879375
5	0x3e4f1c35	0.20225604
6	0x3eafe330	0.34353018
7	0x3c68f585	0.014218693
8	0x3f125db8	0.57174253
9	0x3e426025	0.18981989
10	0x3e8c3c30	0.2738967
11	0x3edc9085	0.4307901
12	0x3c6d6fb4	0.014491964
13	0x3d88000d	0.06640635
14	0x3e3d0156	0.18457541
15	0x3df77063	0.12081983
16	0x3c6d7d51	0.01449521
17	0x3e929313	0.28627834
18	0x3eb0553b	0.34440026
19	0x3ea9b579	0.33146265
20	0x3e90196d	0.28144398
21	0x3dfe587c	0.12419221
22	0x3e85792f	0.26069018
23	0x3e1ab0f9	0.15106572
24	0x3e282271	0.16419388
25	0x3eca5d1f	0.3952417
26	0x3ef35563	0.47526082
27	0x3e691de8	0.22765315
28	0x3e374a0e	0.17899343
29	0x3e985349	0.29751042
30	0x3e5cf0a5	0.21576174
31	0x3ebb01c2	0.3652478

running_var f4 [32]
0	0x3e7e0601	0.24806978
1	0x3d84e1f9	0.06488413
2	0x3d9318d0	0.07182467
3	0x3f15e4e7	0.585524
4	0x3ea68484	0.32522976
5	0x3d977694	0.07395664
6	0x3dd841e6	0.10559444
7	0x3bdabe3a	0.006675509
8	0x3e60364b	0.21895711
9	0x3d11f801	0.035636906
10	0x3d907b9e	0.07054828
11	0x3e7676bb	0.2406873
12	0x3bc14183	0.005897702
13	0x3ca5c50d	0.020235563
14	0x3d6d7c87	0.057980087
15	0x3d573583	0.052541267
16	0x3b2f77c4	0.0026774267
17	0x3d767c5a	0.060177185
18	0x3e35c5d5	0.17751248
19	0x3e3821c1	0.17981626
20	0x3e60b350	0.21943402
21	0x3ce8218c	0.028336309
22	0x3e53684f	0.2064526
23	0x3d11e7b0	0.035621345
24	0x3d96e79e	0.07368396
25	0x3e3574c1	0.1772032
26	0x3ea3b252	0.31971985
27	0x3d991e33	0.07476463
28	0x3d49906f	0.04921001
29	0x3de890c3	0.11355736
30	0x3db5a7ea	0.08869918
31	0x3e06b855	0.13156255

weight f4 [24, 32]
0	0xbde512ae	-0.111852035
1	0xbe407e5c	-0.18798202
2	0x3df5b344	0.11997083
3	0xbdb57417	-0.08860033
4	0xbd4b772f	-0.04967421
5	0xbe0ff76a	-0.14059225
6	0x3d9b6f2d	0.075895645
7	0xbe2bfa17	-0.1679462
8	0xbdf0d5c2	-0.11759521
9	0xbe0391c0	-0.12848568
10	0xbdfd3d74	-0.12365237
11	0xbdc93ecf	-0.09826433
12	0x3cdaf75c	0.026729278
13	0xbe0f78e0	-0.14010954
14	0xbcd47c17	-0.025938077
15	0xbe345b7d	-0.17613025
16	0x3e3c6b5a	0.18400326
17	0x3d714f9a	0.058913805
18	0xbd42db4b	-0.047572415
19	0x3dee0fd8	0.11624116
20	0x3dc8b3a1	0.097998865
21	0xbe321017	-0.1738895
22	0xbe07b744	-0.13253504
23	0xbdef2183	-0.11676314
24	0xbe51d064	-0.20489651
25	0xbde3c29b	-0.111211024
26	0x3d787e04	0.060667053
27	0xbe11cb69	-0.14237751
28	0xbe602b1d	-0.21891446
29	0x3e3ad344	0.18244654
30	0x3de9035d	0.113775946
31	0xbe105196	-0.14093623
32	0x3e05de9b	0.13073198
33	0x3da3a0e8	0.07989675
34	0xbdfb5dc2	-0.12273742
35	0xbdf52b8d	-0.11971197
36	0x3d19a9f9	0.037515614
37	0xbe6cc633	-0.23122482
38	0xbcdf9551	-0.02729288
39	0xbe6e2cc3	-0.23259263
40	0x3dd061f1	0.10174931
41	0xbe062070	-0.13098311
42	0x3d07000d	0.032959033
43	0x3e24d518	0.16096914
44	0xbe7bc2c3	-0.24586014
45	0xbd9222fa	-0.071355775
46	0xbe81e593	-0.25370464
47	0xbc4c643e	-0.0124750715
48	0xbe381b22	-0.179791
49	0x3e4958b7	0.19662748
50	0xbc4a3015	-0.012340565
51	0xbc95dea3	-0.018294638
52	0xbe2a52c1	-0.1663313
53	0x3dbad458	0.091225326
54	0x3d6542b2	0.05597181
55	0xbd0ec562	-0.034856208
56	0xbd0925eb	-0.033483427
57	0xbdb4b824	-0.088241845
58	0x3ca54831	0.020176025
59	0xbd839f45	-0.064268626
60	0xbe19dd29	-0.15025772
61	0x3e094f18	0.13409078
62	0x3d34aad2	0.04410822
63	0x3e487b2b	0.19578235
64	0x3ce8dbf0	0.028425187
65	0xbcec85a1	-0.028872313
66	0x3e7455cb	0.23860852
67	0x3e7db10e	0.24774572
68	0xbd5d4b95	-0.05402716
69	0x3dbe1045	0.09280447
70	0x3dc4d453	0.0961081
71	0x3e28cbdb	0.16484015
72	0xbaf4bfd2	-0.001867289
73	0x3c24bc71	0.010054694
74	0xbe524ef5	-0.20537932
75	0xbe0484b5	-0.12941249
76	0xbd86922e	-0.0657085
77	0x3e4cb783	0.19991879
78	0x3d55aa69	0.05216447
79	0x3d8df6b9	0.06931824
80	0xbdd0d18b	-0.10196217
81	0x3dd9bca8	0.106316864
82	0xbcb89441	-0.02253163
83	0xbd52da57	-0.051477756
84	0x3d7e2bab	0.062053364
85	0x3e07ffbf	0.13281153
86	0xbb85f531	-0.004088067
87	0x3d3bfd17	0.045895662
88	0x3df8efbc	0.12155101
89	0xbbe14865	-0.006875085
90	0x3c4605cc	0.012086343
91	0xbdac0cd3	-0.084008835
92	0x3e2172d0	0.15766454
93	0x3d8cd20a	0.06875999
94	0x3d08074b	0.03321008
95	0xbe1e4168	-0.15454638
96	0x3dfe6c76	0.12423031
97	0xbda625cc	-0.08112678
98	0x3e0e7e90	0.13915467
99	0xbd52d9ff	-0.05147743
100	0xbdbf51d1	-0.09341777
101	0x3d1a0e30	0.037611187
102	0xbdd922a0	-0.10602307
103	0x3e0ff537	0.14058386
104	0xbdbada9a	-0.09123726
105	0xbd6d219c	-0.05789338
106	0x3d0f771e	0.03502571
107	0x3de60a76	0.11232464
108	0xbe00a0e2	-0.12561372
109	0x3e028190	0.12744737
110	0x3c14b9af	0.009077474
111	0x3de3c874	0.11122218
112	0x3d3f4ff7	0.04670712
113	0xbd8c8dc5	-0.06862978
114	0xbcfb21e7	-0.030655814
115	0xbe039a00	-0.12851715
116	0x3de2aed0	0.11068499
117	0xbd91c3b9	-0.07117409
118	0x3c998e09	0.018744485
119	0xbe15d528	-0.14632094
120	0xbdb5c1b9	-0.0887484
121	0x3dcf9e07	0.10137563
122	0xbdbeb742	-0.093122974
123	0x3d44388e	0.047905497
124	0x3e1de185	0.1541806
125	0x3de22adc	0.11043331
126	0x3ce3cff6	0.027809124
127	0xbdbcce67	-0.092190556
128	0x3b85fb6a	0.004088809
129	0x3e378eed	0.17925616
130	0x3e2d0668	0.16896975
131	0x3d4d9e31	0.05019969
132	0x3d435a76	0.047693692
133	0xbd9f5cdc	-0.077813834
134	0x3e436e97	0.19085155
135	0x3e6d04c3	0.23146348
136	0xbd012ddc	-0.031537876
137	0xbde47d97	-0.11156767
138	0x3e1a8f1c	0.15093654
139	0x3da19543	0.078897975
140	0x3d96046b	0.073250614
141	0xbd288ece	-0.041151814
142	0x3c56cf9e	0.013111023
143	0x3e5c5c10	0.21519494
144	0xbd98fc92	-0.07470049
145	0xbdee203b	-0.11627241
146	0xbdb6a5ce	-0.089183435
147	0x3bebff9b	0.0072021014
148	0x3e2e5d2e	0.17027733
149	0x3d7e40bb	0.06207345
150	0x3d8aa0fd	0.06768987
151	0x3c2f6b90	0.010706797
152	0x3e004d13	0.12529401
153	0x3cb65b72	0.022260401
154	0xbd89e5f6	-0.06733315
155	0x3de0cf23	0.10977008
156	0x3dccb2e2	0.09995057
157	0x3d996b59	0.07491178
158	0x3d156be1	0.036479834
159	0x3de4c987	0.11171251
160	0xbdc0af00	-0.094083786
161	0x3d626483	0.055271637
162	0x3e2434f1	0.1603582
163	0xbcb57e2d	-0.022154892
164	0xbdf65301	-0.120275505
165	0x3c43f9b1	0.011961387
166	0x3de91432	0.11380805
167	0xbdc8aa6e	-0.09798132
168	0x3e3fc52e	0.18727562
169	0x3d698d72	0.05701966
170	0xbe1f2fa4	-0.15545517
171	0x3beea859	0.007283252
172	0xbce02d8c	-0.027365468
173	0x3e3de497	0.18544231
174	0xbc8eaf08	-0.017417446
175	0xbdd32cae	-0.10311256
176	0xbe13aafa	-0.14420691
177	0xbdab6222	-0.08368327
178	0x3d8f276f	0.06989943
179	0xbc2a168f	-0.010381355
180	0x3e026c22	0.12736562
181	0x3c5ab337	0.013348392
182	0xbdfa7957	-0.12230175
183	0x3d6b87b0	0.05750245
184	0x3cc29f8d	0.02375772
185	0xbe10a2d4	-0.14124614
186	0xbdc738c0	-0.09727621
187	0xbd20f762	-0.039298423
188	0x3e5194c8	0.20466912
189	0x3dafc920	0.085832834
190	0xbe1579b7	-0.14597212
191	0xbd95aa49	-0.0730787
192	0xbbbc1b53	-0.005740562
193	0xbe13c689	-0.14431204
194	0xbe2d6277	-0.16932093
195	0x3d7dfef4	0.06201072
196	0x3d648bac	0.055797264
197	0xbe2a6a95	-0.1664222
198	0xbc00fcc7	-0.007872767
199	0xbe0dedf9	-0.1386031
200	0x3df14063	0.11779859
201	0xbe2c50d0	-0.16827703
202	0xbe7586f1	-0.23977257
203	0x3dd630aa	0.10458501
204	0xbe11e8f0	-0.14249015
205	0x3dcbb6ca	0.099469736
206	0xbe35c2a4	-0.17750031
207	0x3de551b4	0.11197224
208	0x3d8cacbc	0.06868884
209	0xbcfc2ead	-0.030783975
210	0x3e38b9db	0.18039648
211	0x3d58c010	0.05291754
212	0xbe347e9a	-0.1762642
213	0xbe1b74a4	-0.15181214
214	0xbe6c5a28	-0.23081267
215	0x3e28a715	0.16469987
216	0xbe11afe5	-0.14227255
217	0xbe2887fb	-0.16458122
218	0xbdc6391b	-0.09678861
219	0x3d876c57	0.06612461
220	0x3e2f7bb6	0.17137036
221	0x3e19b502	0.15010455
222	0x3d0b37eb	0.033988874
223	0xbe0bdc8c	-0.1365835
224	0xbdc3143d	-0.095253445
225	0xbc7fe159	-0.015617692
226	0x3dadc792	0.08485331
227	0x3d38b1ca	0.045091428
228	0x3cfd1673	0.030894494
229	0x3d9b1e06	0.07574086
230	0xbdc9d658	-0.09855336
231	0xbcc2b48b	-0.02376773
232	0xbd3b97ce	-0.04579907
233	0x3c6812f2	0.014164673
234	0x3d63fef0	0.05566305
235	0x3cabfa49	0.020993369
236	0xbe174785	-0.14773376
237	0xbe6e5446	-0.23274335
238	0xbd3a49a0	-0.04548037
239	0x3dc2f33a	0.09519048
240	0xbdb11a93	-0.08647647
241	0xbda7b021	-0.08187891
242	0x3de091c1	0.109653
243	0x3d9a8191	0.07544244
244	0x3d056cbd	0.032574404
245	0xbd321f04	-0.04348661
246	0xbdbdc567	-0.09266167
247	0x3db2ac4c	0.08724269
248	0xbe27a002	-0.16369632
249	0xbe1bb8ea	-0.15207258
250	0xbe623548	-0.22090638
251	0x3e184280	0.14869118
252	0x3e2cfabe	0.16892526
253	0x3e47c0a2	0.19507077
254	0xbe399d7d	-0.18126483
255	0xba044988	-0.00050463574

bias f4 [24]
0	0x3e83ef3e	0.25768465
1	0xbd3bd282	-0.045855053
2	0xbcf881a3	-0.030335253
3	0xbd57fa5d	-0.052729
4	0xbddab37c	-0.10678765
5	0xbda1ace4	-0.078943044
6	0x3d0a612b	0.033784073
7	0x3cfbca0d	0.030735994
8	0x3ccdced9	0.025123047
9	0x3e5f8e61	0.21831657
10	0xbcfbeae0	-0.030751646
11	0x3e098bf9	0.13432302
12	0x3ca78a18	0.02045159
13	0xbbb15bc8	-0.0054125525
14	0x3bc9b6d5	0.0061558285
15	0xbd796b5c	-0.0608934
16	0x3db0624c	0.08612499
17	0xbd3711d9	-0.044694755
18	0xbe1a9276	-0.15094933
19	0xbdd86558	-0.10566205
20	0x3de95061	0.11392284
21	0x3d315a35	0.04329892
22	0x3cb471d1	0.022026928
23	0x3dd2ebeb	0.10298904

weight f4 [16, 24]
0	0x3e67b525	0.22627695
1	0x3e7b5692	0.24544743
2	0xbe76d368	-0.24104083
3	0xbd3cb61c	-0.04607211
4	0x3d882c90	0.066491246
5	0xbe07a217	-0.13245426
6	0x3d8c374b	0.06846484
7	0x3e88a84c	0.266909
8	0xbb1726fc	-0.0023064008
9	0xbdf086d1	-0.11744464
10	0x3e3a23ce	0.18177721
11	0x3d4b757f	0.0496726
12	0x3e3cedda	0.18450108
13	0xbc328458	-0.010895811
14	0x3db45ebe	0.08807133
15	0xbe022b75	-0.1271189
16	0x3e362192	0.17786244
17	0x3cc5974d	0.024119997
18	0xbe3a4566	-0.18190536
19	0x3dd36871	0.10322655
20	0x3de3df9b	0.11126634
21	0x3e855dfa	0.2604826
22	0xbd8032db	-0.062597
23	0x3d4fd916	0.05074414
24	0xbd8516db	-0.064985
25	0xbe36b4cc	-0.17842406
26	0x3e559f10	0.20861459
27	0x3d65d70a	0.05611328
28	0x3c66cfcf	0.014087631
29	0x3e85c6e4	0.26128304
30	0x3d863154	0.06552377
31	0x3d964136	0.07336657
32	0x3e3e4ec0	0.18584728
33	0x3e3351fb	0.17511742
34	0xbcfc0052	-0.030761871
35	0x3d7ec0f2	0.062195726
36	0xbd9f015d	-0.07763932
37	0x3e442ba4	0.19157273
38	0xbe060bd4	-0.1309045
39	0x3de52e4d	0.11190472
40	0x3d8ca885	0.0686808
41	0x3e890335	0.2676026
42	0x3ddb5699	0.107098766
43	0x3df8a6d6	0.121411964
44	0xbe4c902d	-0.19976874
45	0xbd042a35	-0.032266814
46	0x3e1dbb6b	0.15403526
47	0xbdad398f	-0.08458244
48	0x3e3023a5	0.17201097
49	0xbd9eff14	-0.07763496
50	0x3d41c5f8	0.04730794
51	0xbe551fa2	-0.20812848
52	0x3be1cef5	0.0068911263
53	0x3ce95139	0.028481113
54	0xbdc81684	-0.097699195
55	0x3db23244	0.08700994
56	0xbdb4c073	-0.08825769
57	0x3d5be240	0.053682566
58	0x3e17d738	0.14828193
59	0x3d99603f	0.074890606
60	0xbd4688dd	-0.048470367
61	0xbda6549d	-0.081216075
62	0xbe45c093	-0.19311742
63	0xbd08550b	-0.03328423
64	0xbd2d9476	-0.04237791
65	0x3dab2984	0.08357528
66	0xbdbfd2d5	-0.09366385
67	0x3bca84d8	0.006180387
68	0xbe1f9664	-0.15584713
69	0xbd9e44cc	-0.07727966
70	0xba65cf46	-0.0008766543
71	0xbd9b53eb	-0.075843655
72	0x3e7f06f1	0.24904992
73	0x3d96827c	0.07349107
74	0xbe54bfe1	-0.20776321
75	0xbdf4a402	-0.119453445
76	0x3daff61e	0.08591865
77	0x3dce8f5f	0.100859396
78	0x3dfdf55c	0.12400314
79	0x3da18d68	0.07888299
80	0x3e1ece34	0.15508348
81	0x3dab087f	0.0835123
82	0x3d2ea690	0.042639315
83	0xbdab330c	-0.08359346
84	0xbe221d60	-0.15831518
85	0x3bc38663	0.005966948
86	0x3e4399e1	0.19101669
87	0x3d277e16	0.04089173
88	0x3e2980ac	0.1655299
89	0xbcc2444f	-0.023714213
90	0xbe3c3f0b	-0.18383424
91	0x3e6539aa	0.22385278
92	0x3e6bb94d	0.23019905
93	0x3e118abc	0.14213079
94	0x3dd8fd99	0.10595245
95	0x3e21b7e4	0.15792805
96	0x3e503611	0.20333125
97	0xbd12b80e	-0.03582006
98	0xbd3e8dab	-0.046521824
99	0xbe16367a	-0.14669219
100	0xbd8139e2	-0.063098684
101	0x3e0fa034	0.14025956
102	0x3d905aa4	0.07048538
103	0xbdb204ed	-0.08692346
104	0x3d8c3cf0	0.068475604
105	0x3d65ca1a	0.056100942
106	0x3e82d984	0.25556576
107	0x3e27866e	0.16359875
108	0x3da8c09b	0.082398616
109	0x3e4c12c3	0.19929032
110	0x3e50f80f	0.20407127
111	0x3e0434c0	0.12910748
112	0xbd1e72a1	-0.038683537
113	0xbdc26c66	-0.094933316
114	0x3d829c2a	0.06377442
115	0xbd9d4cf2	-0.07680692
116	0xbe1fbc11	-0.15599085
117	0x3e52ef97	0.20599209
118	0x3da42c67	0.080162816
119	0x3de43274	0.11142436
120	0xbd60197d	-0.054711808
121	0x3c5afa67	0.013365365
122	0x3e1993ba	0.1499776
123	0xbe3e6c93	-0.18596105
124	0x3e2b0de8	0.16704524
125	0x3b3db82b	0.0028948884
126	0xbe54ad5f	-0.20769261
127	0x3cf6ba39	0.030118095
128	0xbd9a1c9a	-0.075249866
129	0x3e8a2aa5	0.2698566
130	0xbded560a	-0.11588676
131	0xbdb32469	-0.08747179
132	0xbdd7b1ba	-0.105319455
133	0x3d15dc51	0.036587063
134	0xbdf1278c	-0.11775121
135	0x3c3ac86e	0.011400325
136	0xbd5064e3	-0.050877463
137	0xbda2c291	-0.07947267
138	0xbd4e71c4	-0.050401464
139	0x3e3c2681	0.18374063
140	0x3e4a01d2	0.19727257
141	0x3d9a1a31	0.07524527
142	0x3e07d592	0.13265064
143	0x3e88fde3	0.267562
144	0xbe030b29	-0.12797226
145	0x3d869afe	0.06572531
146	0x3e2015d1	0.15633322
147	0xbe010ec0	-0.12603283
148	0x3e778b9e	0.24174353
149	0x3e625b22	0.22105077
150	0x3e19f55b	0.15035002
151	0x3e4b1b61	0.19834663
152	0xbd6cb163	-0.057786357
153	0x3d77ab57	0.060466137
154	0x3e5b106c	0.21392983
155	0x3de8e194	0.113711506
156	0x3e23645a	0.1595625
157	0xbda75c71	-0.08171929
158	0x3e15ff17	0.1464809
159	0xbe01f75b	-0.12692015
160	0xbd192643	-0.037390005
161	0x3d85df81	0.065367706
162	0x3dc4009c	0.09570429
163	0xbd654731	-0.055976097
164	0x3d37bfa5	0.0448605
165	0xbd856f76	-0.065154
166	0x3d1cd966	0.038293265
167	0xbe296f59	-0.16546382
168	0x3d835189	0.06412036
169	0xbc920e6b	-0.01782914
170	0xbd261ad5	-0.040552933
171	0xbe58bce3	-0.21165805
172	0x3dfb7ddd	0.12279866
173	0xbd144b1d	-0.036204446
174	0x3da73d89	0.08166034
175	0xbd5390be	-0.05165171
176	0xbab76350	-0.001399139
177	0x3e88d003	0.267212
178	0xbe3d2703	-0.18471913
179	0xbe2351af	-0.15949129
180	0xbe43303e	-0.19061372
181	0xbddbe001	-0.10736085
182	0x3e023241	0.12714483
183	0xbd07f49e	-0.03319227
184	0xbde3bfe3	-0.11120584
185	0x3cc13dae	0.023588981
186	0xbda81a1d	-0.08208106
187	0xbbfea175	-0.007770712
188	0x3d9a35c9	0.0752979
189	0x3b2369aa	0.0024934807
190	0x3e0fbd35	0.1403702
191	0x3e024272	0.1272066
192	0x3c89e8e7	0.01683469
193	0xbd93844b	-0.07202967
194	0xbe07ceda	-0.13262501
195	0xbdb60d71	-0.088892825
196	0xbba80177	-0.0051271277
197	0x3e73a4e4	0.2379337
198	0xbdfafae5	-0.122548856
199	0x3d591441	0.05299783
200	0x3e1cbfc7	0.15307532
201	0x3e2878a2	0.16452268
202	0x3d4ee522	0.050511487
203	0xbd16149f	-0.03664076
204	0x3e544f99	0.20733489
205	0x3e7caa3d	0.24674316
206	0x3e383901	0.17990495
207	0xbe1015a2	-0.14070752
208	0x3e3b2442	0.1827555
209	0x3e0ef655	0.13961156
210	0xbdf812ed	-0.12112985
211	0x3e60ebe2	0.21964982
212	0xbe88cbda	-0.26718026
213	0x3d92be14	0.07165161
214	0xbc0ae69e	-0.008477835
215	0x3c8a02b4	0.016846992
216	0x3e366d05	0.17815025
217	0xbe5aa095	-0.2135032
218	0x3d6eb5f7	0.058279004
219	0x3d71a657	0.058996525
220	0xbb46577c	-0.0030264547
221	0xbe36019b	-0.1777405
222	0xbdbf30bf	-0.093354695
223	0xbe6f1bd0	-0.23350453
224	0xbdd21086	-0.10257058
225	0x3d9215b8	0.07133049
226	0xbe027e65	-0.12743528
227	0xbe29c495	-0.16578896
228	0x3d0ecb2a	0.03486172
229	0x3def2de2	0.11678673
230	0xbe648200	-0.22315216
231	0xbd80a6e0	-0.06281829
232	0xbe401fb6	-0.18762097
233	0x3e26799d	0.1625733
234	0x3dac9a12	0.08427824
235	0x3e357ebb	0.17724125
236	0x3e8a1b52	0.2697397
237	0xbe1e9982	-0.15488246
238	0x3e77e2b5	0.24207576
239	0x3e438e7b	0.1909732
240	0xbd94bf97	-0.07263105
241	0xbd531277	-0.05153128
242	0xbc99f751	-0.018794687
243	0x3e12c1ac	0.14331692
244	0xbe2a91c8	-0.16657174
245	0x3e7d3794	0.24728233
246	0x3cc643a0	0.024202168
247	0x3e30447a	0.17213622
248	0x3e84aa11	0.25911
249	0xbce2f72a	-0.027705748
250	0xbd096c9e	-0.03355085
251	0x3e762ad1	0.2403977
252	0x3d6693fd	0.056293476
253	0x3e01484b	0.12625234
254	0x3daf9729	0.085737534
255	0xbe5197c2	-0.20468047

bias f4 [16]
0	0x3e579727	0.21053754
1	0xbdd3bcca	-0.10338743
2	0xbd732326	-0.059359692
3	0x3e24cfe4	0.16094929
4	0x3da27ac6	0.079335734
5	0x3df4bdd8	0.11950272
6	0x3e26f567	0.16304551
7	0xbc955ad3	-0.018231785
8	0xbbfd16a9	-0.0077236486
9	0x3c12a447	0.0089503
10	0x3d6eb6ff	0.058279987
11	0x3d6d3507	0.0579119
12	0xbdb6a1a1	-0.08917547
13	0x3b8a3c27	0.0042185965
14	0xbe2b877d	-0.16750903
15	0xbd8de3f3	-0.069282435

weight f4 [32, 5]
0	0xbcf58484	-0.029970415
1	0xbedef357	-0.4354503
2	0x3e69c610	0.22829461
3	0x3df23461	0.11826397
4	0x3ec9b302	0.39394385
5	0xbe043ba0	-0.1291337
6	0x3e8ac39c	0.27102363
7	0x3e99dab4	0.3004967
8	0x3ec0361d	0.37541285
9	0x3e7836f9	0.2423972
10	0xbebc109a	-0.36731416
11	0x3e8ce538	0.2751863
12	0x3e7c8993	0.24661855
13	0x3c95b437	0.01827441
14	0x3d65d5f1	0.056112234
15	0xbe6e18b2	-0.23251608
16	0xbae79300	-0.0017667711
17	0xbeba4f0e	-0.3638844
18	0x3e79cb1c	0.24393886
19	0xbec2aeee	-0.38024086
20	0x3d07f10a	0.033188857
21	0x3b1bf026	0.0023794263
22	0xbd8db031	-0.069183715
23	0x3ed32b63	0.4124404
24	0xbe92b066	-0.28650206
25	0x3e836dd3	0.25669727
26	0xbaf04075	-0.0018329757
27	0xbd8697f9	-0.06571955
28	0x3d657254	0.056017235
29	0x3ee313dc	0.4435109
30	0xbe67797c	-0.22604936
31	0x3ea4041f	0.32034394
32	0x3dc905cf	0.09815561
33	0xbc8973fb	-0.016778937
34	0xbec28cd9	-0.37998083
35	0xbec623e5	-0.3869926
36	0x3e047374	0.12934667
37	0xbeb775c9	-0.3583205
38	0xbec4f45b	-0.38467678
39	0xbd89519c	-0.06705019
40	0x3e154521	0.14577152
41	0x3ec4e1db	0.38453564
42	0xbe1dc5f4	-0.15407544
43	0x3c9d14f1	0.019175025
44	0x3ece68fb	0.4031447
45	0x3e96eafe	0.2947616
46	0x3dffe1d8	0.12494248
47	0xbe398140	-0.18115711
48	0xbe0f30be	-0.13983437
49	0xbe827eae	-0.25487274
50	0xbea4ad43	-0.32163438
51	0x3e48b1e7	0.19599114
52	0x3e6d2780	0.231596
53	0x3ec9cb59	0.39412954
54	0x3e939294	0.28822768
55	0x3ea701ae	0.3261847
56	0xbd98c37c	-0.07459161
57	0xbd1e2122	-0.038605817
58	0x3e841503	0.2579728
59	0xbea1f07b	-0.31628785
60	0x3ed4c82a	0.41558963
61	0x3d59fa40	0.053217173
62	0xbe361b00	-0.17783737
63	0xbec5c89f	-0.38629624
64	0xbd7b2f80	-0.061324596
65	0xbe111bce	-0.14170763
66	0xbebc3d26	-0.36765403
67	0x3d36197d	0.0444579
68	0x3e35c177	0.17749582
69	0xbeaa2c12	-0.33236748
70	0xbebbed0a	-0.36704284
71	0x3e99c386	0.30031985
72	0x3eb6f04e	0.35730213
73	0x3e97c1c8	0.2964003
74	0xbdb5c652	-0.08875717
75	0xbeb8d37e	-0.36098856
76	0x3d97bfe5	0.07409648
77	0x3ec4d58b	0.3844417
78	0xbee6083e	-0.44928163
79	0xbec5cff7	-0.38635227
80	0xbea7d238	-0.32777572
81	0x3e990ccc	0.29892576
82	0xbb2486ef	-0.002510484
83	0xbe75bf5d	-0.2399878
84	0x3e8f1c9c	0.27951515
85	0x3ebf548e	0.37369198
86	0xbed961b2	-0.42457348
87	0x3d9eaa57	0.077473335
88	0x3eb83a6e	0.35982078
89	0xbec593bd	-0.38589278
90	0x3ecb298c	0.39680135
91	0xbe72182c	-0.23642033
92	0xbd179460	-0.037006736
93	0xbddd2fc0	-0.10800123
94	0xbe961ada	-0.2931736
95	0xbe758b25	-0.2397886
96	0x3dbeaed9	0.09310693
97	0x3bdc8112	0.0067292536
98	0x3e0d28b6	0.13785061
99	0x3e6692b9	0.22516908
100	0xbecd083c	-0.40045345
101	0x3ed8cc58	0.42343402
102	0xbe130c66	-0.14360198
103	0xbec2fc35	-0.38083044
104	0x3ea71d2c	0.32639444
105	0x3ec1bbc5	0.3783857
106	0xbd116777	-0.035499062
107	0xbe1bf65a	-0.15230694
108	0x3e745222	0.23859456
109	0xbe43879a	-0.19094697
110	0xbdd18064	-0.10229567
111	0xbe2825d2	-0.16420677
112	0xbe3f1b00	-0.18662643
113	0xbdd014e4	-0.101602346
114	0x3ea98a2e	0.33113235
115	0xbdf9093f	-0.12159967
116	0x3e33ff9f	0.1757798
117	0x3eeeec83	0.4666482
118	0x3e3bba72	0.18332842
119	0xbe924851	-0.28570798
120	0xbea2de4e	-0.3181023
121	0xbe966d34	-0.2938019
122	0x3da972ac	0.08273825
123	0xbdfd826b	-0.12378391
124	0x3e8ce00e	0.2751469
125	0xbe6ae19e	-0.22937629
126	0x3e9e2dd1	0.3089433
127	0xbd19f0f4	-0.037583306
128	0x3d8f417b	0.06994911
129	0x3ef89d69	0.48557594
130	0xbed47787	-0.41497442
131	0xbed6dfe5	-0.41967693
132	0x3ed1eb6c	0.40999925
133	0xbe55665b	-0.20839827
134	0xbedaf0d9	-0.42761877
135	0xbe62684e	-0.22110102
136	0xbc46b2eb	-0.012127618
137	0xbea6c92b	-0.32575354
138	0x3ea64bc5	0.32479683
139	0xbd58424b	-0.052797597
140	0xbe0084bd	-0.12550636
141	0x3d078636	0.033086978
142	0xbe4da17e	-0.20081136
143	0x3e6bc3d7	0.23023926
144	0x3da65d31	0.081232436
145	0x3ec0ab9e	0.37630934
146	0x3e6e7753	0.23287706
147	0x3e8ccdbe	0.2750072
148	0xbe63b229	-0.22235931
149	0xbe4fded5	-0.20299847
150	0xbec500d5	-0.38477197
151	0xbcac3f5d	-0.021026308
152	0xbd9acc4c	-0.07558498
153	0x3e986425	0.29763904
154	0xbeb53d00	-0.35398102
155	0x3eeba6fb	0.46025833
156	0xbeb88cfe	-0.36045069
157	0xbe7ef109	-0.24896635
158	0x3e6101af	0.21973298
159	0xbdfe3a17	-0.124134235

bias f4 [32]
0	0x3eb3657c	0.35038364
1	0xbdfbc1a7	-0.12292796
2	0xbd993336	-0.07480471
3	0xbe9d06bc	-0.306692
4	0xbdae458b	-0.08509358
5	0xbe99529b	-0.29945835
6	0xbeaad8de	-0.33368582
7	0x3ec65e96	0.38744038
8	0xbf028e33	-0.5099823
9	0x3ed36cb8	0.41293883
10	0xbda4f128	-0.080538094
11	0x3ebb03a6	0.3652622
12	0xbea3bab8	-0.31978393
13	0xbec6df56	-0.38842267
14	0x3c229ba9	0.009924808
15	0x3da3f096	0.080048725
16	0xbcc2e96f	-0.02379295
17	0xbdded321	-0.108801134
18	0x3e8ee85e	0.27911657
19	0xbeb9e428	-0.36306882
20	0xbd3ec1b8	-0.046571463
21	0xbdd6920d	-0.10477076
22	0xbec97853	-0.39349613
23	0xbde87312	-0.11350073
24	0xbdee558e	-0.11637412
25	0xbc5a0bfb	-0.01330852
26	0x3d477232	0.04869289
27	0x3e065148	0.13116944
28	0xbec2378c	-0.37933004
29	0x3dd06abd	0.10176609
30	0xbee61e7b	-0.4494513
31	0xbe31736f	-0.1732919

weight f4 [32]
0	0x3f85116a	1.0395939
1	0x3f829c80	1.020401
2	0x3f890623	1.0704998
3	0x3f800000	1.0
4	0x3f86b66e	1.0524423
5	0x3f894a6e	1.0725839
6	0x3f841feb	1.032224
7	0x3f800000	1.0
8	0x3f89f0f9	1.0776664
9	0x3f800000	1.0
10	0x3f7f3029	0.9968286
11	0x3f859dd0	1.0438786
12	0x3f800000	1.0
13	0x3f87f5d5	1.0621897
14	0x3f8547ed	1.0412575
15	0x3f8af776	1.0856769
16	0x3f82b9d8	1.0212965
17	0x3f8afe82	1.085892
18	0x3f800000	1.0
19	0x3f8d7a5d	1.1052967
20	0x3f800000	1.0
21	0x3f89cbda	1.0765336
22	0x3f800000	1.0
23	0x3f8fe231	1.1240903
24	0x3f8430e3	1.0327419
25	0x3f8a4939	1.0803596
26	0x3f8b70a6	1.0893753
27	0x3f8c75df	1.0973471
28	0x3f88c9c4	1.0686574
29	0x3f8a23b7	1.0792149
30	0x3f8cfe9c	1.1015201
31	0x3f89f167	1.0776795

bias f4 [32]
0	0xbd5b5fed	-0.05355828
1	0x3d0b8935	0.034066398
2	0x3d9078f1	0.07054318
3	0x3dca8527	0.09888678
4	0xbd6472a5	-0.055773396
5	0xbc53cf31	-0.012927816
6	0xbd071f87	-0.03298905
7	0x3d8d5393	0.06900706
8	0x3d90b4e6	0.07065754
9	0xbd6fc855	-0.05854066
10	0xbc500b3d	-0.012697992
11	0xbd6e768a	-0.058218516
12	0x3d467a0d	0.04845624
13	0xbd71724d	-0.058946896
14	0xbcfb2918	-0.030659243
15	0xbcca6557	-0.024706526
16	0xbc2194a5	-0.0098621
17	0x39413cc1	0.00018428547
18	0x3db233d1	0.087012894
19	0xbc884d98	-0.016638562
20	0xbd878cbf	-0.06618642
21	0xbd13c009	-0.03607181
22	0x3d76a0f6	0.060212098
23	0xbccc16b1	-0.024913164
24	0x3b7c2ac9	0.003847765
25	0xbd378ffa	-0.04481504
26	0xbd480711	-0.048834864
27	0x3d44289f	0.0478903
28	0x3cc19789	0.023631828
29	0xbcc98851	-0.024601134
30	0xbcdd78c8	-0.027035132
31	0xbd399f9b	-0.045318227

running_mean f4 [32]
0	0x401d423f	2.4571683
1	0x40aa35fc	5.31909
2	0x401f8b51	2.4928782
3	0x00000000	0.0
4	0x3f7cd907	0.9876866
5	0x3f3cc651	0.73740107
6	0x3e814b18	0.25252604
7	0x00000000	0.0
8	0x3f1ece73	0.62033767
9	0x00000000	0.0
10	0x4098c248	4.773716
11	0x3f3558c3	0.70838565
12	0x00000000	0.0
13	0x3caa5af1	0.020795317
14	0x40932466	4.598193
15	0x3eafe23d	0.34352294
16	0x3e3c4480	0.18385506
17	0x3f2129a9	0.62954193
18	0x00000000	0.0
19	0x3f8b9c12	1.0907004
20	0x00000000	0.0
21	0x3e2bf419	0.16792335
22	0x00000000	0.0
23	0x407fae54	3.9950151
24	0x3e04b605	0.1296006
25	0x3ff91f65	1.9462706
26	0x3ecf9fe7	0.40551683
27	0x3dfe7a1c	0.12425634
28	0x3e0097c7	0.12557898
29	0x3f9e417f	1.2363738
30	0x3dd95e5f	0.10613703
31	0x3a135cab	0.00056214136

running_var f4 [32]
0	0x3ef88b7b	0.48543915
1	0x3ec43446	0.3832113
2	0x3e208616	0.1567615
3	0x00000004	6e-45
4	0x3f2e593c	0.6810491
5	0x3e163214	0.14667541
6	0x3de94c2b	0.11391481
7	0x00000004	6e-45
8	0x3ea376f2	0.31926686
9	0x00000004	6e-45
10	0x3ea8d7f5	0.32977262
11	0x3e9d6cad	0.30746976
12	0x00000004	6e-45
13	0x3c5157b7	0.0127772605
14	0x3e5e7e48	0.2172786
15	0x3eb0c1b3	0.3452278
16	0x3d9873dc	0.074439734
17	0x3eb284c6	0.34866923
18	0x00000004	6e-45
19	0x3da68e11	0.08132566
20	0x00000004	6e-45
21	0x3d8f61aa	0.0700105
22	0x00000004	6e-45
23	0x3e2302d9	0.15919055
24	0x3d85660d	0.06513605
25	0x3e930814	0.287171
26	0x3e9333fc	0.28750598
27	0x3d851edc	0.065000266
28	0x3d3f013e	0.046632044
29	0x3ee014dc	0.43765914
30	0x3d8b16fd	0.06791494
31	0x38f012c5	0.00011447588

weight f4 [24, 32]
0	0x3d0f1ac0	0.03493762
1	0xbd0c3446	-0.03422954
2	0xbd5926dc	-0.053015575
3	0xbdb5a9cd	-0.088702776
4	0xbe1c3799	-0.15255584
5	0xbe1ce9a3	-0.153235
6	0xbe310aa8	-0.17289221
7	0x3e32e457	0.17469917
8	0x3c876614	0.016528167
9	0xbe5ab715	-0.21358903
10	0xbd93a884	-0.07209876
11	0xbd80335c	-0.06259796
12	0xbd95a7b8	-0.073073804
13	0x3da17fb8	0.078856885
14	0xbd9b51b3	-0.07583942
15	0x3db2d56d	0.08732114
16	0x3c03c368	0.008042194
17	0x3e6f9e5e	0.23400256
18	0x3d086d3b	0.033307295
19	0xbe79aba9	-0.2438189
20	0xbdacfc1e	-0.08446525
21	0xbca8cf31	-0.020606609
22	0xbd0dcef2	-0.034621187
23	0xbd85a2ff	-0.0652523
24	0x3e1b96cc	0.15194243
25	0xbda50ff4	-0.080596834
26	0x3d9febed	0.07808671
27	0xbe5e2a3a	-0.21695796
28	0x3d3bad9f	0.045819875
29	0x3dbdd180	0.092684746
30	0x3d440a8a	0.047861613
31	0x3de53f4d	0.11193714
32	0x3d1b64f6	0.03793808
33	0x3d4daacb	0.05021171
34	0xbe3ec3c2	-0.18629363
35	0xbc90d2a0	-0.017678559
36	0xbd57775e	-0.05260407
37	0x3e2d834b	0.16944616
38	0xba999f27	-0.0011720405
39	0xbc530469	-0.012879469
40	0x3bb7f70e	0.005614168
41	0x3de72c66	0.11287765
42	0xbdc9da06	-0.09856038
43	0xbc8ca440	-0.017168164
44	0x3e3043c6	0.17213354
45	0x3d87212f	0.06598126
46	0xbe33cb1d	-0.1755795
47	0x3de5483e	0.1119542
48	0x3e0f58ef	0.13998769
49	0xbd43c28d	-0.04779296
50	0x3e2ad3f0	0.1668241
51	0x3cbf8864	0.023380466
52	0x3cb257ad	0.021770323
53	0x3e39f9c7	0.18161689
54	0xbc669e34	-0.0140758045
55	0x3d30ee07	0.04319575
56	0xbdd0abde	-0.10189031
57	0xbdd68d59	-0.10476179
58	0x3dd142fa	0.10217853
59	0x3e4fccb0	0.20292926
60	0x3d8894e8	0.066690266
61	0xbe200cd6	-0.15629897
62	0xbe3663c3	-0.17811494
63	0xbe00fa06	-0.12595376
64	0x3e1a45f6	0.1506575
65	0x3e297d93	0.16551809
66	0x3d1e1332	0.038592525
67	0xbd45d04d	-0.048294354
68	0x3dd5efab	0.10446104
69	0x3d7da639	0.0619261
70	0xbdeaf59d	-0.11472628
71	0xbce880cc	-0.028381728
72	0xbdacd0f3	-0.084382914
73	0x3d7cff98	0.06176719
74	0xbd5700bc	-0.052490935
75	0x3d9a1b57	0.07524746
76	0x3e12883f	0.14309786
77	0x3dec89e8	0.11549741
78	0x3dbcdd99	0.09221954
79	0xbc120c6c	-0.008914094
80	0x3dad750b	0.0846959
81	0x3c1222d9	0.008919441
82	0xbd8cd5b2	-0.06876697
83	0x3d2da15c	0.042390212
84	0xbdc60c2d	-0.09670291
85	0x3d9fa60a	0.07795341
86	0xbe0677f3	-0.13131694
87	0xbdf83797	-0.12119978
88	0x3e10fded	0.14159365
89	0x3cb8d80b	0.022563955
90	0xbe34fb30	-0.17673945
91	0x3e0a1012	0.13482693
92	0x3c0bad18	0.0085251555
93	0x3d116d5b	0.03550468
94	0x3e42ab0c	0.19010562
95	0xbe1afbf8	-0.15135181
96	0xbe03ec50	-0.12883115
97	0xbd9439ee	-0.07237612
98	0x3e789356	0.24274954
99	0x3dc89532	0.09794082
100	0xbd92cd2e	-0.07168041
101	0xbddd60f7	-0.1080951
102	0x3d23a0c0	0.039948225
103	0x3dc3e6c5	0.095655
104	0xbd4a48a1	-0.04938567
105	0xbdae94e6	-0.08524494
106	0x3de2f142	0.110811725
107	0xbded3457	-0.11582249
108	0x3e1264b6	0.1429623
109	0x3e176d2f	0.14787744
110	0x3dbcd253	0.09219804
111	0x3dc544a2	0.09632231
112	0xbd5b7376	-0.05357691
113	0xbe188ddc	-0.14897865
114	0xbbbb659f	-0.0057189013
115	0xbd5458d2	-0.05184252
116	0x3a10a5df	0.0005517881
117	0xbe23daca	-0.1600143
118	0x3e55f846	0.2089549
119	0x3e505c43	0.20347695
120	0x3d1b01f9	0.03784368
121	0xbe28b03a	-0.16473475
122	0x3ddace13	0.10683837
123	0x3d0cebba	0.034404494
124	0xbd77bc7c	-0.060482487
125	0x3dad9523	0.08475711
126	0xbd5e5111	-0.05427653
127	0xbd5333a7	-0.05156293
128	0xbd4a61b9	-0.0494096
129	0xbcb3494d	-0.021885538
130	0x3d68cfba	0.05683873
131	0x3e742f08	0.23846066
132	0xbc9c6502	-0.019091133
133	0xbdcfec9b	-0.10152551
134	0xbe1ee67c	-0.1551761
135	0x3e2c186e	0.16806194
136	0x3e6b4dab	0.22978847
137	0xbe8162a2	-0.25270563
138	0xbd137a24	-0.036005154
139	0x3da745bc	0.08167598
140	0xbd385e7f	-0.045011993
141	0xbe360af8	-0.17777622
142	0xbe0955d6	-0.1341165
143	0x3d01764f	0.03160697
144	0xbc88d217	-0.016701741
145	0xbd2cc833	-0.042183112
146	0x3e470b21	0.19437839
147	0xbdb91702	-0.090375915
148	0xbe5a780a	-0.21334854
149	0x3da47807	0.08030706
150	0x3e00cf25	0.1257902
151	0x3d6c7934	0.057732776
152	0xbdfc5095	-0.12320057
153	0x3deb20ab	0.1148084
154	0xbe4e55c6	-0.20149907
155	0xbe66d255	-0.22541173
156	0xbd3c0f32	-0.04591293
157	0xbdf74bbf	-0.12074994
158	0xbd83d69c	-0.06437418
159	0xbe43a9fb	-0.19107811
160	0x3d5bed91	0.053693358
161	0x3e4eef36	0.20208439
162	0x3d399d77	0.045316186
163	0xbc06ffc3	-0.008239689
164	0xbc3d4b34	-0.011553574
165	0x3ca7cff2	0.020484898
166	0xbe49277d	-0.1964397
167	0x3e2df958	0.16989648
168	0x3e44954e	0.1919758
169	0xbcf39608	-0.029734626
170	0xbd93251d	-0.07184813
171	0xbe2de887	-0.16983233
172	0x3d1c1caf	0.038113292
173	0x3e0a2c81	0.1349354
174	0xbdfe1710	-0.124067426
175	0xbac44457	-0.001497398
176	0xbd509132	-0.05091972
177	0xbe26c57a	-0.16286269
178	0x3ca7c544	0.020479806
179	0xbcff1b5e	-0.03114098
180	0x3d68bb6b	0.05681936
181	0xbd845b29	-0.064627
182	0x3e479d49	0.19493593
183	0x3be9fa40	0.007140428
184	0x3e14e7ed	0.14541598
185	0x3e1d4b5f	0.15360783
186	0x3e0ab38d	0.13545056
187	0xbe035739	-0.12826242
188	0xbc281030	-0.010257766
189	0xbda22e8e	-0.07919036
190	0xbc54d540	-0.012990296
191	0x3b81f8ce	0.0039664274
192	0xbddab6a3	-0.106793664
193	0x3d927f03	0.07153132
194	0x3db8a6aa	0.09016164
195	0xbb3d4482	-0.0028879945
196	0x3d9eea9a	0.077595904
197	0xbbe72a46	-0.0070546
198	0xbdf5b668	-0.11997682
199	0x3e186813	0.14883451
200	0x3e3d59b8	0.18491256
201	0xbe106cfa	-0.14104071
202	0x3d3d8f09	0.046278987
203	0x3dd9dc1b	0.10637685
204	0x3d23d3a7	0.03999677
205	0x3e0c06fd	0.13674541
206	0xbe2fa112	-0.17151287
207	0xbdd4d6f3	-0.10392561
208	0x3d2b5c6c	0.041836187
209	0xbc5220c2	-0.012825193
210	0xbc37adf5	-0.011210908
211	0x3de1feed	0.11034951
212	0x3cf5f413	0.03002361
213	0xbe32cc48	-0.1746074
214	0xbd66c8e2	-0.05634392
215	0xbe0313a2	-0.12800458
216	0xbe2295a3	-0.15877394
217	0xbdd924c9	-0.10602719
218	0xbe7b2453	-0.24525575
219	0xbc1fe21e	-0.0097585
220	0x3e286f73	0.16448765
221	0xbdeeb66f	-0.1165589
222	0xbbcf5abe	-0.006327956
223	0xbe0767d8	-0.13223207
224	0xbd81e44f	-0.063423745
225	0x3e443232	0.19159773
226	0x3e02a37f	0.12757681
227	0x3e013045	0.1261607
228	0xbe35600c	-0.1771242
229	0xbd25147d	-0.040302742
230	0x3e0caa16	0.13736758
231	0x3e0cb1c0	0.13739681
232	0x3d28c442	0.04120279
233	0xbd9fb0a7	-0.07797366
234	0x3e25663b	0.16152279
235	0xbdc9dd2b	-0.098566376
236	0xbdc85c0a	-0.0978318
237	0xbe424b6c	-0.18974084
238	0x3cebb58b	0.02877309
239	0x3d75e841	0.060035948
240	0x3e35be7d	0.17748447
241	0xbe5fad0c	-0.21843356
242	0x3c9b3a59	0.01894872
243	0xbe03810e	-0.12842199
244	0xbe2e94a9	-0.17048897
245	0xbe5a2f9b	-0.21307223
246	0x3e1075ed	0.14107485
247	0x3dc1140c	0.09427652
248	0x3c8bd2c1	0.017068269
249	0x3bd9a90b	0.006642466
250	0xbd4af589	-0.049550567
251	0xbd9bfbed	-0.076164104
252	0x3d3a5074	0.045486882
253	0x3e2694ed	0.16267748
254	0xbd0e7cd8	-0.03478703
255	0xbe06e992	-0.13175038

bias f4 [24]
0	0x3e2f956a	0.1714684
1	0xbd2555f3	-0.04036517
2	0x3e152131	0.14563443
3	0x3dcca365	0.099921025
4	0x3e13d769	0.14437641
5	0xbd57cb5f	-0.052684184
6	0x3ddef361	0.108862646
7	0xbde6f8a5	-0.11277894
8	0x3e0fed5a	0.14055386
9	0xbcff0467	-0.031130029
10	0xbda128c0	-0.078691006
11	0xbcac7b1f	-0.021054802
12	0x3d7d2700	0.06180477
13	0x3e2ba069	0.1676041
14	0x3d5e592c	0.05428426
15	0xbe3cbd3e	-0.18431565
16	0xbe09544e	-0.13411066
17	0xbda06190	-0.078311086
18	0x3e4f8bc0	0.20268154
19	0xbd8fc420	-0.0701983
20	0xbd3d2f84	-0.046187893
21	0xbe01577b	-0.12631027
22	0x3e0509ec	0.12992066
23	0xbe058a38	-0.13041008

weight f4 [16, 24]
0	0x3c58c693	0.0132309375
1	0x3c549be5	0.012976621
2	0xbd5c4fb3	-0.053786945
3	0x3e2dd7e9	0.16976894
4	0xbe00d096	-0.12579569
5	0x3e48138e	0.1953871
6	0x3e011cd8	0.1260866
7	0x3e3aca54	0.18241245
8	0xbd0c7b0a	-0.034297027
9	0xbdb3b3f8	-0.08774561
10	0x3da7cacd	0.08192978
11	0x3e5eaf55	0.21746571
12	0x3e01857b	0.12648575
13	0xbe2b4a14	-0.16727477
14	0x3e145ec2	0.14489272
15	0xbe5e8711	-0.21731211
16	0x3e295755	0.16537221
17	0x3e713967	0.23557054
18	0xbde48434	-0.11158028
19	0x3c57fbc1	0.013182581
20	0x3d758307	0.05993941
21	0x3e393c6f	0.1808946
22	0x3e3265a5	0.17421587
23	0x3e3390bd	0.17535682
24	0xbe307c4c	-0.17234915
25	0x3c415943	0.011801067
26	0x3e8301ff	0.2558746
27	0x3e81493f	0.25251195
28	0x3c64997a	0.013952607
29	0xbb3d011b	-0.002883977
30	0x3c9c7742	0.019099835
31	0xbd22a7cc	-0.039710805
32	0x3bbd085a	0.005768818
33	0x3d9e816d	0.0773953
34	0x3e8bc8f6	0.2730176
35	0x3db1cdb3	0.08681812
36	0x3d929e8d	0.071591474
37	0x3d23279b	0.039832693
38	0x3d7dafba	0.061935164
39	0xbdd64cbd	-0.104638554
40	0x3e5068b4	0.20352441
41	0x3e96954e	0.29410785
42	0xbe3895a3	-0.18025832
43	0xbca20f96	-0.019782823
44	0x3d930adc	0.07179806
45	0x3e442e34	0.1915825
46	0xbe482c3a	-0.19548121
47	0x3cfeb0de	0.031090196
48	0x3cf12d33	0.029440498
49	0xbda3dec2	-0.08001472
50	0xbe2fecd2	-0.17180184
51	0xbd2d03a6	-0.042239808
52	0x3e449ebc	0.19201177
53	0x3d130e97	0.035902586
54	0x3e281ee3	0.16418032
55	0x3dcb3057	0.099213295
56	0xbd80abb2	-0.06282748
57	0xbd9d4508	-0.07679182
58	0xbdb90bc2	-0.09035446
59	0xbdc124d2	-0.09430851
60	0xbe1399df	-0.14414166
61	0x3e3bd479	0.1834277
62	0x3e0f8aeb	0.14017837
63	0x3e405382	0.18781856
64	0x3c8831da	0.016625334
65	0xbbb6fd8b	-0.005584424
66	0x3e69c87c	0.22830385
67	0x3e4e291d	0.20132871
68	0x3d7ac39c	0.061221704
69	0x3dab2f0b	0.08358582
70	0xbdaee4ed	-0.08539758
71	0x3d82b38b	0.06381901
72	0x3e2b480a	0.167267
73	0xbd77785f	-0.06041753
74	0x3e065134	0.13116914
75	0xbe3fe68e	-0.18740293
76	0x3e1e4aac	0.15458173
77	0xbd4a9d51	-0.049466435
78	0x3d3d0213	0.046144556
79	0x3e335f68	0.17516863
80	0x3e3f6949	0.18692507
81	0x3e435abb	0.1907758
82	0xbdb6f0af	-0.089326255
83	0xbdb0384c	-0.08604488
84	0x3e53a349	0.20667757
85	0xbd28704f	-0.04112273
86	0x3db10fce	0.08645593
87	0xbd973f54	-0.07385126
88	0x3db0872c	0.08619532
89	0xbbbca30b	-0.005756741
90	0x3d676965	0.056496996
91	0xbd3a789c	-0.04552518
92	0xbe480708	-0.19533932
93	0xbde6b313	-0.112646244
94	0x3e03a3f6	0.12855515
95	0xbd7b1395	-0.06129797
96	0xbddc73fc	-0.1076431
97	0xbbb97c50	-0.005660571
98	0xbe2b0b52	-0.16703537
99	0x3e04a151	0.12952162
100	0x3dba868c	0.09107694
101	0xbda61f73	-0.08111467
102	0xbd8c915c	-0.068636626
103	0x3d9aaec7	0.075528674
104	0x3e52ebfd	0.20597835
105	0x3cc76015	0.024337808
106	0x3e16caa2	0.14725736
107	0x3d269fc2	0.0406797
108	0x3d8e219f	0.069400065
109	0xbdeae723	-0.11469867
110	0xbdd0be2f	-0.10192525
111	0x3e5fc7d8	0.21853578
112	0x3d8b10b6	0.06790297
113	0xbe1eaba2	-0.1549516
114	0x3e1d184c	0.153413
115	0xbe0c89e2	-0.13724473
116	0x3c637cc0	0.013884723
117	0xbdc137bc	-0.094344586
118	0x3e5ddff0	0.21667457
119	0xbe15ef24	-0.14642006
120	0x3e3f7b0b	0.18699281
121	0xbe76cdec	-0.2410199
122	0x3d9ca4d8	0.07648629
123	0x3dbac85a	0.09120245
124	0xbdfb3938	-0.12266773
125	0xbe6b42a8	-0.22974646
126	0xbe73992a	-0.23788896
127	0xbdab998b	-0.08378895
128	0xbd381db7	-0.044950213
129	0xbcaf2ad9	-0.021382736
130	0xbe37db9c	-0.17954868
131	0x3e604a2c	0.21903294
132	0x3e0677fb	0.13131706
133	0xbdc5b6a8	-0.096539795
134	0xbe679305	-0.22614677
135	0xbe3a58a1	-0.18197872
136	0x3e10c37b	0.1413707
137	0xbe17c006	-0.14819345
138	0xbe1fe07a	-0.15612975
139	0x3c3e1bb2	0.011603283
140	0x3b45c1ca	0.0030175322
141	0x3e1a16cd	0.1504776
142	0x3b6bfee5	0.0036010083
143	0x3d27f9b4	0.04100962
144	0x3e2f6cf3	0.17131405
145	0x3da54dc1	0.08071471
146	0x3d534036	0.05157491
147	0x3e3ee107	0.18640529
148	0x3d9a1c1f	0.07524895
149	0x3de6237d	0.112372376
150	0x3e16548c	0.1468069
151	0x3e0f1a54	0.13974887
152	0xbe1dc07c	-0.15405458
153	0x3e10a03e	0.14123628
154	0x3d6dcb25	0.05805506
155	0x3e132b5b	0.14372008
156	0xbd0f8681	-0.035040382
157	0x3de423af	0.111396186
158	0xbe357d14	-0.17723495
159	0xbe172ee4	-0.14763981
160	0xbe3a1b0d	-0.18174382
161	0x3dc2e8a2	0.095170274
162	0x3cd556db	0.026042392
163	0x3e374612	0.17897823
164	0xbe28444e	-0.16432306
165	0x3e4d5809	0.20053114
166	0x3e3b0ed8	0.18267381
167	0xbd0ea4a0	-0.034824967
168	0x3b9f9d7e	0.0048710695
169	0x3de0827a	0.109623864
170	0xbd3e7629	-0.046499405
171	0xbc2b4bb4	-0.010455061
172	0xbdaef837	-0.08543437
173	0xbdf39731	-0.11894072
174	0x3e4ac4a7	0.1980158
175	0x3dd7ec94	0.105431706
176	0x3e4912db	0.19636099
177	0xbd4e275e	-0.050330512
178	0x3e708fb6	0.23492321
179	0xbde5eb90	-0.112265706
180	0x3d3efd76	0.046628438
181	0x3e12ecbe	0.14348122
182	0x3de900e0	0.1137712
183	0xbe7a6ce6	-0.24455604
184	0x3dc27e6d	0.0949677
185	0xbdef8ff1	-0.116973765
186	0xbe14374a	-0.14474216
187	0xbe08c78d	-0.13357373
188	0x3e4cd26a	0.20002142
189	0x3e493954	0.19650775
190	0xbe80d10b	-0.25159487
191	0x3d96461f	0.07337593
192	0xbdef2311	-0.1167661
193	0xbe0fe9f8	-0.14054096
194	0x3dd0bb6c	0.10191998
195	0x3e477f80	0.19482231
196	0x3dfea661	0.12434078
197	0xbc94d78b	-0.018169185
198	0x3d1db257	0.038500156
199	0xbc33d0f9	-0.010975116
200	0xbda7337e	-0.08164118
201	0xbc0ba941	-0.00852424
202	0x3e96f46b	0.2948335
203	0x3e8930e0	0.267951
204	0x3d9ee0c6	0.07757716
205	0xbe339084	-0.17535597
206	0x3d0cc493	0.034367155
207	0xbd5fb504	-0.05461599
208	0xbcb14f74	-0.021644332
209	0xbd9c1f9d	-0.07623217
210	0x3de73047	0.11288505
211	0x3e3ffc4b	0.18748586
212	0x3e805a8c	0.25069082
213	0x3d984536	0.07435076
214	0xbdde1b20	-0.108450174
215	0xbdb59688	-0.08866602
216	0x3d138510	0.03601557
217	0xbd4b3d4d	-0.049619008
218	0xbd3dc3e0	-0.04632938
219	0x3dadedc9	0.084926195
220	0x3e89195f	0.2677717
221	0x3d411f68	0.047149092
222	0x3db40223	0.0878947
223	0xbe26d80b	-0.16293351
224	0x3b81bc89	0.0039592427
225	0x3dffc291	0.124882825
226	0xbe5ef17c	-0.21771806
227	0xbd210c3c	-0.03931831
228	0xbde759e4	-0.11296442
229	0x3cfac47c	0.03061127
230	0x3de2654f	0.11054479
231	0x3d845de3	0.0646322
232	0x3dad73be	0.08469342
233	0xbc565bca	-0.013083408
234	0x3e1976dc	0.14986748
235	0x3dda2d4e	0.106531724
236	0x3e2e39ca	0.17014232
237	0xbc01d8fb	-0.007925267
238	0x3e74c654	0.23903781
239	0x3e012f67	0.12615739
240	0xbe4722e1	-0.19446899
241	0x3e208061	0.15673973
242	0xbe0bea7f	-0.13663672
243	0x3c9b0cc7	0.018926991
244	0xbe23acf9	-0.15983953
245	0xbdb15644	-0.08659032
246	0x3d002255	0.03128274
247	0x3e2b76e4	0.16744572
248	0xbd4c68a8	-0.049904495
249	0x3dfc0325	0.12305287
250	0x3de45c07	0.11150365
251	0x3d844ed7	0.0646035
252	0x3d95c94b	0.07313784
253	0x3e1962a2	0.14979032
254	0x3dc48fd6	0.09597747
255	0xbe3de63d	-0.1854486

bias f4 [16]
0	0xbb5916b3	-0.0033125102
1	0x3e3bfd94	0.18358451
2	0x3e32f467	0.17476045
3	0x3da33e23	0.07970836
4	0xbc04b515	-0.008099814
5	0xbcde31f1	-0.027123423
6	0x3dd97b65	0.10619239
7	0x3ddb91a3	0.107211374
8	0x3e564086	0.20923051
9	0x3ccbf9e6	0.024899434
10	0xbe2a847a	-0.16652098
11	0xbe55f4e1	-0.20894195
12	0x3d1b8d49	0.037976537
13	0xbd93dc8d	-0.07219801
14	0xbda4a888	-0.08039957
15	0x3dc0287c	0.09382722
