Sleep_Disorder/models2/simpleFFN.pth (torch, 32152 bytes, 20 tensors)

weight f4 [32, 12]
0.10017333 -0.22868629 0.056004204 -0.29336938 0.08228938 -0.2290196 -0.1582759 -0.14416695
-0.24236605 0.035778012 -0.039303906 0.23254313 -0.16621165 -0.16186285 -0.3789232 -0.31941867
-0.18412632 0.07220578 -0.027652785 0.30712897 0.16084352 -0.0918153 -0.23118907 -0.2513546
0.07918542 0.06599912 0.24001005 -0.23882858 -0.14992143 -0.15518464 0.31695288 -0.34295684
0.16361317 0.3892449 0.0132344365 0.0007370934 -0.04769869 -0.21582374 -0.083329916 -0.16053472
0.2897152 -0.19935437 -0.20713982 0.2332542 -0.16037638 0.29209748 0.052832864 0.009558513
0.21409252 -0.13801305 -0.07919793 -0.46354902 -0.0534869 -0.3059048 0.24208364 0.07410068
-0.2920707 0.14655279 -0.26513433 -0.009556664 0.3141855 0.09175473 -5.2542517e-05 0.012250767
-0.02255757 -0.10165282 0.12609258 -0.027184956 0.16305837 0.2527433 0.20429589 0.00027187346
-0.08145258 0.014506892 -0.09978358 -0.19181105 0.20362924 -0.094483025 0.32675615 0.28452483
0.2262898 -0.23214309 -0.34382454 0.00037051603 0.394976 0.08365194 -0.09398202 0.008049833
-0.032146037 -0.010419085 0.44427863 -0.15994 0.29075608 0.044158824 -0.01891352 -0.0005095365
0.24476048 -0.23416522 0.015333651 -0.035664536 -0.17301993 -0.21528803 -0.13361765 -0.21556696
-0.13083932 0.28482735 -0.077026986 -0.010129024 0.12725246 0.11811735 -0.3096746 0.29603252
0.09266338 -0.06271763 0.051117584 0.30304754 -0.056312963 0.008761889 -0.096354075 -0.26506665
0.13761973 -0.30178073 0.120560944 0.11236513 -0.33334672 -0.1803679 0.107436754 -0.018082218
0.020380797 0.22185135 0.007814125 0.16423187 -0.3231349 0.0120078 -0.17690454 -0.21342896
0.018439798 -0.066239834 -0.27702606 0.106508754 0.11189581 0.042596515 0.33517802 -0.11482944
-0.15648046 -0.38722098 0.030469764 0.08038439 0.03884148 0.0011100535 0.08309109 0.118453525
0.008347295 0.1926972 0.039868772 -0.27856806 -0.12397238 0.022467133 -0.16811231 0.24431331
-0.031963203 -0.23511945 -0.06663902 -0.12340148 0.3262237 0.05431505 0.37499768 0.0010145332
-0.15640384 -0.051954895 -0.22994861 0.13209727 -0.031027876 -0.18220523 0.086779825 -0.21252596
0.011621857 -0.26415965 0.1981931 -0.10861752 0.21942523 0.21266755 0.24735802 0.1291909
-0.111952096 -0.116180554 0.046391997 -0.08698993 -0.09220578 -0.23734893 -0.20482044 0.12984943
-0.08840379 -0.06509275 0.022385575 0.48086098 0.08462214 0.29000628 -0.32844886 0.19532377
0.08829979 0.18756019 -0.34659588 -0.00062390673 -0.23030834 -0.24118856 0.040771592 0.10598474
0.12117656 -0.09508895 -0.1039097 0.20674792 -0.32130253 -0.18413387 -0.3658586 0.00077195815
-0.12502143 0.12617192 0.009161787 0.04964217 0.11314152 -0.30422562 -0.21032009 0.18703653
0.18085252 -0.16849013 0.03496718 0.06708338 -0.46990642 0.19997953 0.032054767 0.1344368
0.2911551 0.06627762 -0.12605166 -0.20474121 0.25706923 0.16156492 0.22658652 -0.0017119012
0.16114415 -0.30340657 -0.058044262 -0.21620734 -0.33269647 -0.10360094 -0.13271664 0.22753641
-0.101701595 -0.029952709 -0.06099076 0.0013264215 0.02727015 -0.39008376 -0.26430726 -0.051012047
00000000: ad27 cd3d bd2c 6abe aa64 653d 8334 96be
00000010: 5687 a83d 1d84 6abe 1413 22be 80a0 13be
00000020: ce2e 78be f78b 123d 22fd 20bd c91f 6e3e
00000030: 6333 2abe 60bf 25be 3902 c2be d88a a3be
00000040: 9c8b 3cbe a0e0 933d 1888 e2bc 0240 9d3e
00000050: 2ab4 243e a909 bcbd d4bc 6cbe 8db1 80be
00000060: f72b a23d 8c2a 873d 32c5 753e 7b8f 74be
00000070: 0185 19be b9e8 1ebe a647 a23e 0a98 afbe
00000080: 368a 273e 1c4b c73e 40d5 583c 8039 413a
00000090: b45f 43bd e600 5dbe e0a8 aabd 3763 24be
000000a0: 8d55 943e 8d23 4cbe 761c 54be 30da 6e3e
000000b0: b539 24be cd8d 953e 4667 583d 4f9b 1c3c
000000c0: 123b 5b3e 4b53 0dbe 8632 a2bd 4c56 edbe
000000d0: 1415 5bbd 8e9f 9cbe c6e4 773e 19c2 973d
000000e0: 4a8a 95be ef11 163e b0bf 87be 8e93 1cbc
000000f0: ecdc a03e e7e9 bb3d 1961 5cb8 71b7 483c
00000100: a7ca b8bc 5b2f d0bd 6a1e 013e fcb2 debc
00000110: c6f8 263e 9267 813e f132 513e 3d8a 8e39
00000120: 9cd0 a6bd 51ae 6d3c 555b ccbd 1e6a 44be
00000130: 2f84 503e 5180 c1bd 954c a73e 3dad 913e
00000140: 83b8 673e ebb6 6dbe c509 b0be d241 c239
00000150: 4b3a ca3e b551 ab3d a579 c0bd 72e3 033c
00000160: 90ab 03bd cfb4 2abc 7d78 e33e 50c7 23be
00000170: fbdd 943e e2df 343d 87f0 9abc 6a92 05ba
00000180: 7ea2 7a3e 02c9 6fbe fe39 7b3c fa14 12bd
00000190: 232c 31be 7774 5cbe 11d3 08be 96bd 5cbe
000001a0: befa 05be e4d4 913e 53c0 9dbd 35f4 25bc
000001b0: 784e 023e 82e7 f13d ab8d 9ebe 9391 973e
000001c0: 4cc6 bd3d 1a72 80bd ac60 513d 0c29 9b3e
000001d0: 6ca8 66bd 078e 0f3c 4955 c5bd d1b6 87be
000001e0: 30ec 0c3e 0183 9abe a8e8 f63d b01f e63d
000001f0: 6cac aabe 5db2 38be cd07 dc3d 2921 94bc
00000200: a1f5 a63c 002d 633e d106 003c 662c 283e
00000210: f071 a5be 5dbc 443c 7726 35be 1f8d 5abe
00000220: 0f0f 973c c0a8 87bd 5cd6 8dbe 4321 da3d
00000230: a129 e53d af79 2e3d 749c ab3e b32b ebbd
00000240: 6a3c 20be d441 c6be ba9b f93c 92a0 a43d
00000250: 3e18 1f3d 377f 913a a92b aa3d c397 f23d
00000260: 18c3 083c 6a52 453e 704d 233d 79a0 8ebe
00000270: 3be5 fdbd fe0c b83c a225 2cbe 452d 7a3e
00000280: d9eb 02bd 27c3 70be 0a7a 88bd eab9 fcbd
00000290: cb06 a73e 7579 5e3d b2ff bf3e 16fa 843a
000002a0: 5428 20be a8ce 54bd a677 6bbe 8244 073e
000002b0: 2c2e febc 0294 3abe 9fb9 b13d 68a0 59be
000002c0: 9a69 3e3c ef3f 87be 22f3 4a3e dd72 debd
000002d0: 02b1 603e 86c5 593e 6c4b 7d3e 9f4a 043e
000002e0: 2447 e5bd 12f0 edbd 8905 3e3d c727 b2bd
000002f0: 62d6 bcbd 990b 73be 73bc 51be 40f7 043e
00000300: 0c0d b5bd 594f 85bd f461 b73c 6933 f63e
00000310: 5f4e ad3d b47b 943e 732a a8be f402 483e
00000320: 85d6 b43d c70f 403e 0475 b1be ac8d 23ba
00000330: f3d5 6bbe 22fa 76be 1d00 273d 870e d93d
00000340: 6b2b f83d ffbd c2bd 9cce d4bd bab5 533e
00000350: c481 a4be 978d 3cbe d251 bbbe 3c5d 4a3a
00000360: 9e05 00be 3633 013e 521b 163c 9755 4b3d
00000370: beb6 e73d 76c3 9bbe 265e 57be 8186 3f3e
00000380: 6731 393e ad88 2cbe bf39 0f3d 0363 893d
00000390: 9397 f0be 6fc7 4c3e dc4b 033d cda9 093e
000003a0: 4812 953e 90bc 873d b013 01be aea7 51be
000003b0: 949e 833e 4671 253e 4c06 683e df61 e0ba
000003c0: f902 253e 1b58 9bbe d2bf 6dbd 7565 5dbe
000003d0: 3157 aabe bb2c d4bd dfe6 07be 4eff 683e
000003e0: ed48 d0bd 625f f5bc 72d1 79bd 52db ad3a
000003f0: a665 df3c 0fb9 c7be 4853 87be 02f2 50bd

bias f4 [32]
-0.009220748 0.17607744 -0.15652628 0.2134728 0.26961884 0.3337085 0.11184588 -0.12144528
-0.1388684 0.16658069 0.039155666 -0.2828882 -0.28317893 -0.2729578 -0.243511 0.11596722
-0.23372047 0.0956928 0.25664967 0.19047579 -0.03019498 -0.1079714 -0.18904288 -0.010891206
-0.10850014 0.16961624 -0.22312312 -0.11608025 0.06431212 -0.124631464 -0.17088576 -0.03462663
00000000: 9f12 17bc a54d 343e 6d48 20be 9d98 5a3e
00000010: 7b0b 8a3e d7db aa3e 740f e53d 4eb8 f8bd
00000020: 8533 0ebe 2194 2a3e b161 203d b9d6 90be
00000030: d4fc 90be 20c1 8bbe f35a 79be 3980 ed3d
00000040: 6b54 6fbe 96fa c33d 9667 833e 160c 433e
00000050: 765b f7bc 1c20 ddbd 7594 41be 0771 32bc
00000060: 5235 debd e1af 2d3e 637a 64be 7bbb edbd
00000070: 13b6 833d c83e ffbd adfc 2ebe a7d4 0dbd

weight f4 [32]
0.9769655 0.8738991 1.0702062 0.91505057 0.9383137 1.1720785 1.0404509 1.1544052
0.9005829 0.914521 0.9302147 0.9279741 0.9404666 0.9806217 0.89619607 0.9597064
0.94075125 1.0955808 0.91865516 1.062948 1.0157425 0.9467878 0.97465277 0.957287
0.9248585 0.91855603 1.1018237 0.9169682 0.94949406 0.9398065 0.93539757 0.91017276
00000000: 691a 7a3f dab7 5f3f 84fc 883f c140 6a3f
00000010: 5435 703f ab06 963f 7f2d 853f 8dc3 933f
00000020: 9a8c 663f 0c1e 6a3f 8d22 6e3f b68f 6d3f
00000030: 6bc2 703f 060a 7b3f 1b6d 653f 52af 753f
00000040: 13d5 703f fe3b 8c3f fc2c 6b3f ae0e 883f
00000050: da03 823f af60 723f d882 793f c310 753f
00000060: 87c3 6c3f 7d26 6b3f 8f08 8d3f 6ebe 6a3f
00000070: 0b12 733f 2997 703f 3776 6f3f 1501 693f

bias f4 [32]
-0.009350413 -0.07833919 -0.08752241 -0.060168453 0.00015410155 -0.08088854 0.032189544 -0.047490127
-0.06707053 -0.15082139 -0.07072408 -0.09518165 -0.09190327 -0.14305039 -0.09951911 0.05899558
0.08613479 0.009566555 -0.048116513 -0.18288973 -0.047390763 -0.04923711 -0.06929545 -0.026866855
-0.1390014 0.031445682 0.06065964 -0.017859418 0.06400134 -0.06701909 -0.14715059 -0.019465998
00000000: 7a32 19bc 4c70 a0bd f33e b3bd 3273 76bd
00000010: 5296 2139 e4a8 a5bd 2fd9 033d 0285 42bd
00000020: 465c 89bd ec70 1abe c9d7 90bd 99ee c2bd
00000030: c837 bcbd cd7b 12be add0 cbbd 59a5 713d
00000040: 7067 b03d 0abd 1c3c d215 45bd 7247 3bbe
00000050: d11c 42bd daac 49bd c6ea 8dbd e117 dcbc
00000060: 6256 0ebe 30cd 003d 3e76 783d ea4d 92bc
00000070: 2213 833d 4e41 89bd a5ae 16be 2877 9fbc

running_mean f4 [32]
1523.2589 -1717.1511 53.251804 54.26016 -134.12692 58.2206 -14.288523 41.45324
-92.73786 -1809.7408 1112.8542 -746.2905 -1889.549 68.6332 -758.9513 838.3209
16.31812 -92.79462 456.99417 67.82653 -32.701084 -109.95533 -53.255898 -59.634487
-805.1369 37.62063 39.53689 1190.2499 67.00227 66.140335 -116.04113 -312.39285
00000000: 4968 be44 d6a4 d6c4 d901 5542 670a 5942
00000010: 7e20 06c3 e5e1 6842 ca9d 64c1 1ed0 2542
00000020: c979 b9c2 b537 e2c4 561b 8b44 9892 3ac4
00000030: 9131 ecc4 3344 8942 e2bc 3dc4 8a94 5144
00000040: 828b 8241 d896 b9c2 417f e443 2fa7 8742
00000050: e9cd 02c2 21e9 dbc2 0a06 55c2 b789 6ec2
00000060: c348 49c4 867b 1642 c625 1e42 ffc7 9444
00000070: 2a01 8642 da47 8442 0f15 e8c2 4932 9cc3

running_var f4 [32]
129370.61 153559.52 17.680742 163.64009 422.4472 10.934381 5.0430694 8.596388
382.74847 172644.39 64517.234 32677.896 190013.28 15.605056 30089.264 40293.945
40.319916 37.31292 10082.388 25.772219 17.895727 237.6229 49.510395 143.06364
33614.086 602.06525 14.695353 72462.26 156.21738 532.1213 85.31265 4469.9033
00000000: 4ead fc47 e1f5 1548 2972 8d41 dda3 2343
00000010: 3e39 d343 39f3 2e41 d360 a140 ce8a 0941
00000020: ce5f bf43 1999 2848 3c05 7c47 cb4b ff46
00000030: 528f 3948 4fae 7941 8712 eb46 f265 1d47
00000040: 9847 2142 6e40 1542 8d89 1d46 812d ce41
00000050: 732a 8f41 769f 6d43 a50a 4642 4b10 0f43
00000060: 164e 0347 2d84 1644 2a20 6b41 2187 8d47
00000070: a637 1c43 c307 0544 14a0 aa42 3aaf 8b45

weight f4 [64, 32]
-0.18339013 -0.010489898 0.16849329 -0.022896688 -0.076010086 0.19942501 -0.08445079 0.11294512
0.11572969 0.06923651 -0.16267365 -0.0371145 -0.13940743 -0.015261089 0.14521147 -0.1960358
0.058585014 -0.25747156 -0.055490512 0.12994932 -0.10011197 -0.01598719 -0.0862889 0.06421292
0.13554376 0.05328707 0.10449446 0.00020174641 0.03965362 0.012821324 -0.082454294 -0.076913156
-0.15881166 -0.07591991 0.035094876 0.11432907 0.08525408 0.10485977 0.086985044 0.2611347
-0.10489302 0.08153062 -0.003839157 0.0642484 0.08241153 -0.07097918 -0.013531857 -0.043009393
-0.17602858 -0.22648309 -0.15439293 0.09215244 -0.07269845 -0.0794198 0.02886116 -0.08291768
-0.12563768 -0.12758052 0.0133469235 0.058462698 -0.124314345 0.079941444 -0.043282483 0.088516444
0.0815692 -0.0051359716 -0.034208488 0.026809586 -0.019985858 -0.12145475 0.010115996 -0.037600107
-0.12792738 -0.12647355 0.16499607 -0.07082529 0.034126967 0.061726235 0.026427144 -0.036921643
0.13188714 0.1319737 0.029355388 0.09564 0.16459714 0.052973513 0.13893902 -0.050283507
0.019257342 -0.04562575 0.18261474 -0.062443327 -0.11727491 -0.07342543 0.041409515 -0.007492805
0.02252577 -0.0012565393 -0.016280852 -0.14260224 -0.1348731 0.05959273 -0.19689766 0.15916918
0.01701787 0.13369523 0.08484582 0.11704005 0.15633965 -0.088310145 0.059787106 0.14225817
0.034825798 0.053222336 -0.08347535 0.04933504 0.030827606 -0.15922806 0.04978259 0.01280787
-0.029683154 0.069638 0.11242147 0.09800881 -0.16207244 0.110718876 -0.066769704 -0.098093666
0.17043859 -0.13946623 -0.02305244 0.16875532 -0.06520307 -0.12245097 -0.06984951 0.08062558
0.059607707 -0.039495975 -0.019091541 -0.16478802 -0.107200556 0.065129526 -0.02379292 -0.13191314
0.05427515 0.12159399 -0.113272645 0.22342798 0.12691195 0.11702962 0.057422608 0.037292186
-0.13212195 -0.038773883 -0.12496115 -0.10438199 -0.120168395 0.054547552 0.007561118 0.028612988
0.109978504 -0.0079482505 0.14480484 -0.035304252 0.01923722 0.14960046 0.044517476 0.026648866
-0.1075463 -0.08321561 -0.12541038 0.08321731 -0.0050444053 0.18814266 0.09028657 -0.08402464
-0.09702364 -0.1661613 -0.089544825 0.09603726 -0.100089855 0.035898052 0.07434073 -0.02103228
0.046376817 -0.07667399 -0.14424263 -0.014397416 -0.078443855 0.11813909 -0.093235485 0.06413212
-0.01025916 0.16256417 -0.2114207 -0.047237948 0.17943498 -0.20697887 0.042984765 -0.24744222
0.03814812 -0.12621462 0.121335946 -0.025458159 -0.08404435 -0.09465527 -0.025031123 0.08212719
0.0026452546 0.0183523 -0.053425223 -0.06644392 0.054095633 -0.11716563 0.0863389 0.1183865
0.01753068 0.0675237 -0.009870514 0.03920244 -0.044040725 -0.0037254782 -0.0382144 0.08808237
-0.14074662 -0.036214016 0.11685564 -0.091580205 0.014080086 0.19162622 0.016160255 0.21283254
0.124209255 -0.11458488 -0.099501416 0.009248762 -0.015272676 -0.06648008 0.12953198 -0.17300206
-0.009959931 -0.086627014 0.030976307 -0.10298836 -0.03694567 -0.0128788045 0.009063651 -0.026770815
-0.010654581 -0.021958476 0.0032570125 0.09120322 0.052969955 -0.2044621 0.022424849 0.07660652
00000000: 9fca 3bbe d2dd 2bbc 8189 2c3e d691 bbbc
00000010: 2dab 9bbd 1236 4c3e 89f4 acbd c54f e73d
00000020: b003 ed3d dfcb 8d3d ec93 26be 6005 18bd
00000030: d2c0 0ebe a609 7abc 51b2 143e 9cbd 48be
00000040: d7f6 6f3d 50d3 83be 054a 63bd 6f11 053e
00000050: 8107 cdbd 91f7 82bc 3cb8 b0bd 1082 833d
00000060: fccb 0a3e 8b43 5a3d 3101 d63d e48b 5339
00000070: d66b 223d 8810 523c ccdd a8bd a584 9dbd
00000080: 869f 22be e67b 9bbd a5bf 0f3d 5c25 ea3d
00000090: b199 ae3d b8c0 d63d 3725 b23d 73b3 853e
000000a0: 27d2 d6bd 87f9 a63d 5e9a 7bbb aa94 833d
000000b0: 60c7 a83d 885d 91bd b9b4 5dbc 9e2a 30bd
000000c0: d640 34be 2feb 67be 2e19 1ebe 6bba bc3d
000000d0: ede2 94bd d9a6 a2bd 3d6e ec3c bfd0 a9bd
000000e0: 2aa7 00be 78a4 02be 0ead 5a3c 9576 6f3d
000000f0: 8598 febd 57b8 a33d f948 31bd 1c48 b53d
00000100: c10d a73d a74b a8bb 331e 0cbd c79f db3c
00000110: 62b9 a3bc 45bd f8bd 90bd 253c 9202 1abd
00000120: 65ff 02be 4882 01be bbf4 283e da0c 91bd
00000130: b8c8 0b3d a6d4 7c3d bd7d d83c 263b 17bd
00000140: 6c0d 073e 1d24 073e b67a f03c e8de c33d
00000150: 278c 283e c1fa 583d 0846 0e3e 14f6 4dbd
00000160: 93c1 9d3c 11e2 3abd 5cff 3a3e 93c4 7fbd
00000170: d42d f0bd 1260 96bd 069d 293d 3486 f5bb
00000180: f787 b83c 76b2 a4ba 6c5f 85bc 5206 12be
00000190: 2d1c 0abe 8217 743d 8a9f 49be 3ffd 223e
000001a0: 0f69 8b3c 67e7 083e a5c3 ad3d b2b2 ef3d
000001b0: 8017 203e f3db b4bd 53e3 743d 20ac 113e
000001c0: 7fa5 0e3d aaff 593d 20f5 aabd 8a13 4a3d
000001d0: 2d8a fc3c ae0c 23be d4e8 4b3d 1ad8 513c
000001e0: 162a f3bc 5e9e 8e3d 3a3d e63d d8b8 c83d
000001f0: 51f6 25be 94c0 e23d 8ebe 88bd 55e5 c8bd
00000200: 7487 2e3e 3cd0 0ebe 78d8 bcbc 32ce 2c3e
00000210: 3089 85bd 93c7 fabd 430d 8fbd 061f a53d
00000220: 3627 743d 88c6 21bd dd65 9cbc 31be 28be
00000230: f78b dbbd a162 853d 5fe9 c2bc 3d14 07be
00000240: 9f4f 5e3d 4506 f93d 7dfb e7bd 4eca 643e
00000250: 35f5 013e 3aad ef3d f833 6b3d b1bf 183d
00000260: fa4a 07be 5dd1 1ebd a2eb ffbd 3ac6 d5bd
00000270: d91a f6bd 416d 5f3d 41c3 f73b c965 ea3c
00000280: 693c e13d 6139 02bc b847 143e 319b 10bd
00000290: 6097 9d3c dd30 193e f557 363d b94e da3c
000002a0: 3c41 dcbd f26c aabd 946b 00be d66d aa3d
000002b0: 8a4b a5bb 78a8 403e 2ae8 b83d 1c15 acbd
000002c0: 55b4 c6bd 3026 2abe 4763 b7bd 2faf c43d
000002d0: e9fb ccbd d609 133d f43f 983d e34b acbc
000002e0: 9ef5 3d3d 4107 9dbd 57b4 13be 24e3 6bbc
000002f0: 2ca7 a0bd e8f2 f13d 3ff2 bebd b357 833d
00000300: 0916 28bc 3977 263e ab7e 58be 947c 41bd
00000310: cebd 373e 45f2 53be cb10 303d 7e61 7dbe
00000320: 3441 1c3d 683e 01be fb7e f83d a18d d0bc
00000330: 721f acbd 9fda c1bd 120e cdbc 4d32 a83d
00000340: 025c 2d3b 9057 963c 68d4 5abd c013 88bd
00000350: 6293 5d3d 89f4 efbd 73d2 b03d 9f74 f23d
00000360: 809c 8f3c de49 8a3d f0b7 21bc bd92 203d
00000370: 0c64 34bd 2727 74bb b486 1cbd 8864 b43d
00000380: e21f 10be 2655 14bd 0352 ef3d 678e bbbd
00000390: 29b0 663c aa39 443e 8362 843c c6f0 593e
000003a0: 6c61 fe3d 7aab eabd 66c7 cbbd 1f88 173c
000003b0: 3f3a 7abc b526 88bd 08a4 043e 7427 31be
000003c0: fa2e 23bc 8169 b1bd 06c2 fd3c 90eb d2bd
000003d0: 5854 17bd 9f01 53bc b57f 143c 784e dbbc
000003e0: 8d90 2ebc 43e2 b3bc 9a73 553b c1c8 ba3d
000003f0: 06f7 583d 835e 51be 51b4 b73c e1e3 9c3d

bias f4 [64]
0.11527658 -0.15837598 0.10680571 -0.055715583 0.09003626 0.103258714 -0.045848925 -0.16471834
-0.10552087 -0.06285219 0.003698826 -0.17118135 -0.13762933 0.16933015 -0.13515592 -0.14518867
-0.017781597 -0.03370478 0.11963107 0.040933922 -0.1218383 0.059065003 -0.04384031 -0.076006666
0.021237848 -0.034604385 -0.1692404 0.17492205 -0.043566987 -0.060696088 0.17276874 -0.0899065
-0.13041258 -0.05898456 -0.059458476 -0.12642305 0.16855769 0.039262377 0.015400958 0.0379074
0.00432862 0.13688007 -0.03520733 0.17828245 -0.01684147 -0.10688852 -0.02968648 -0.029298058
0.059927396 0.038808126 0.14869681 -0.11386827 0.0025888963 0.15119304 -0.14249417 -0.14551064
0.09804697 0.018097121 0.06684324 0.09628379 0.103563264 0.12220187 -0.13323161 -0.061126906
00000000: 2116 ec3d 502d 22be f4bc da3d 0636 64bd
00000010: ee64 b83d 4e79 d33d 15cc 3bbd edab 28be
00000020: 531b d8bd a6b8 80bd 0168 723b 2a4a 2fbe
00000030: b4ee 0cbe e264 2d3e 5066 0abe 57ac 14be
00000040: b6aa 91bc 060e 0abd 2201 f53d 54aa 273d
00000050: 5c86 f9bd 25ee 713d e691 33bd 62a9 9bbd
00000060: fffa ad3c 54bd 0dbd 5b4d 2dbe c41e 333e
00000070: 4c73 32bd 769c 78bd 4aea 303e e620 b8bd
00000080: e08a 05be cb99 71bd bb8a 73bd 0b75 01be
00000090: 639a 2c3e 96d1 203d 4d54 7c3c ca44 1b3d
000000a0: 19d7 8d3b 4a2a 0c3e 9035 10bd ad8f 363e
000000b0: 1ff7 89bc 5ee8 dabd 1031 f3bc 7b02 f0bc
000000c0: 6e76 753d 45f5 1e3d fa43 183e c433 e9bd
000000d0: 79aa 293b 59d2 1a3e fee9 11be be00 15be
000000e0: dacc c83d 6a40 943c 1ce5 883d 7030 c53d
000000f0: fa18 d43d f944 fa3d de6d 08be 3560 7abd

weight f4 [64]
1.0427028 1.0093553 0.9966438 0.94247764 0.9370859 1.0358378 1.0698781 0.9864652
0.99264807 0.985067 1.0064006 1.0453132 1.0434377 0.99988115 0.9972937 0.98518604
1.0144827 1.0152664 0.98646605 0.95582336 1.0089434 1.0058429 0.9175962 0.9985774
0.9906883 0.989855 1.0277189 1.0135992 1.0167933 0.97572076 1.0397761 0.98782486
0.9794618 1.0141159 0.9530228 0.9603201 1.0100989 0.9924088 0.9880998 1.0104209
1.0318427 0.97073376 1.0959784 1.0082458 0.9817734 1.0259624 0.99898696 1.032233
0.9729908 1.0504504 1.0117702 0.9798187 0.9793565 0.9935993 1.0011756 0.9611422
1.0677985 0.9628744 0.97330385 1.0026287 0.9865442 0.98781353 0.9450748 1.0249012
00000000: 4977 853f 8e32 813f 0c24 7f3f 3746 713f
00000010: dde4 6f3f 5596 843f c4f1 883f fc88 7c3f
00000020: 2f1e 7e3f 5a2d 7c3f bcd1 803f d3cc 853f
00000030: 5e8f 853f 36f8 7f3f a44e 7f3f 2735 7c3f
00000040: 92da 813f 40f4 813f 0a89 7c3f d7b0 743f
00000050: 0f25 813f 76bf 803f 96e7 6a3f c5a2 7f3f
00000060: c09d 7d3f 2367 7d3f 4b8c 833f 9ebd 813f
00000070: 4826 823f d6c8 793f 6217 853f 17e2 7c3f
00000080: 02be 7a3f 8dce 813f 4df9 733f 8ad7 753f
00000090: ec4a 813f 810e 7e3f 1cf4 7c3f 7955 813f
000000a0: 6c13 843f 0282 783f 0549 8c3f 330e 813f
000000b0: 8055 7b3f bc52 833f 9cbd 7f3f 3620 843f
000000c0: ed15 793f 2975 863f b081 813f 66d5 7a3f
000000d0: 1cb7 7a3f 865c 7e3f 8626 803f 6a0d 763f
000000e0: 9fad 883f f07e 763f 712a 793f 2356 803f
000000f0: 298e 7c3f 59e1 7c3f 6cf0 713f f62f 833f

bias f4 [64]
0.07997469 0.0010717757 -0.0038444628 0.010237598 -0.096746355 -0.059174858 0.006233596 -0.008415157
-0.01514963 -0.040109664 -0.0171067 -0.008821355 0.012609517 -0.016365841 0.031297006 -0.033754814
-0.03080901 0.003383238 -0.01217684 -0.02190561 0.016668668 -0.08613208 -0.045781177 0.019646559
-0.050791748 0.0037760078 0.088929124 -0.0149637535 -0.038151495 -0.028188417 0.012590575 -0.01734539
-0.031518538 0.021340115 -0.08332472 0.026477378 -0.07716695 -0.03752719 -0.018784622 -0.0673419
-0.037764274 -0.02924141 0.024175014 -0.05595742 0.03585559 0.0071967007 0.01975173 -0.01754858
0.0010412465 0.05041384 0.021394579 0.002364603 -0.05112538 -0.07074535 0.025445707 -0.049197912
-0.05261483 -0.04126367 0.018094806 0.030480064 0.011271182 0.02688272 -0.0029752988 -0.034773756
00000000: c5c9 a33d d37a 8c3a 62f3 7bbb 99bb 273c
00000010: f422 c6bd 5661 72bd 3143 cc3b badf 09bc
00000020: 2736 78bc 084a 24bd 5a23 8cbc 7287 10bc
00000030: 2698 4e3c a811 86bc 4a31 003d 7d42 0abd
00000040: 2d63 fcbc 51b9 5d3b 5e81 47bc 6573 b3bc
00000050: bb8c 883c 0466 b0bd 0b85 3bbd d2f1 a03c
00000060: 020b 50bd e676 773b 7920 b63d 882a 75bc
00000070: be44 1cbd 65eb e6bc b348 4e3c eb17 8ebc
00000080: 9519 01bd 77d1 ae3c 27a6 aabd 16e7 d83c
00000090: b509 9ebd 1cb6 19bd 35e2 99bc 8dea 89bd
000000a0: b6ae 1abd ae8b efbc ae0a c63c 9c33 65bd
000000b0: 50dd 123d 4dd2 eb3b 61ce a13c 0ac2 8fbc
000000c0: 6f7a 883a be7e 4e3d af43 af3c 75f7 1a3b
000000d0: d968 51bd f0e2 90bd 8473 d03c c083 49bd
000000e0: a682 57bd 1804 29bd 8f3b 943c 54b1 f93c
000000f0: c4aa 383c 2639 dc3c 3bfd 42bb ed6e 0ebd

running_mean f4 [64]
0.01646008 -0.29998627 0.30081308 0.11181337 0.03171709 0.071159616 -0.16533719 -0.20434669
0.17631324 -0.18227565 -0.07467123 -0.8496851 -0.48912683 0.23414408 -0.05944786 -0.2636161
-0.5682003 -0.055098042 0.10122765 -0.012437773 0.01929843 -0.4782265 -0.09477231 -0.5951114
0.46484184 -0.38694853 -0.74054545 -0.063882865 0.19181305 -0.24338354 0.13733731 0.12029879
-0.14894131 7.573605e-06 -0.21926507 -0.22275491 1.0221362 -0.13296764 -0.2820892 -0.32768685
0.2607027 0.5443638 -0.14965545 0.14890675 -0.26909405 -0.4430666 0.33045313 -0.5200503
0.16772273 -0.12964633 -0.11365085 -0.08301342 0.09931872 -0.014002362 -0.57348686 -0.6172303
-0.1738017 0.15433423 -0.37557334 -0.054047648 0.8961271 0.17950484 -0.18302101 -0.13692005
00000000: 4ad7 863c cd97 99be 2c04 9a3e 68fe e43d
00000010: c8e9 013d 22bc 913d 274e 29be 4240 51be
00000020: 758b 343e 78a6 3abe 3bed 98bd f684 59bf
00000030: d56e fabe 77c3 6f3e 997f 73bd b1f8 86be
00000040: 9375 11bf 7cae 61bd 7150 cf3d cdc7 4bbc
00000050: be17 9e3c 1bda f4be fc17 c2bd 3959 18bf
00000060: c0ff ed3e 1e1e c6be 6394 3dbf 05d5 82bd
00000070: a46a 443e 8939 79be 27a2 0c3e 365f f63d
00000080: 1284 18be c620 fe36 0687 60be dd19 64be
00000090: 5cd5 823f ab28 08be ff6d 90be 92c6 a7be
000000a0: d37a 853e 6d5b 0b3f 473f 19be 037b 183e
000000b0: b2c6 89be a0d9 e2be 2731 a93e 0422 05bf
000000c0: 82bf 2b3e 02c2 04be c7c1 e8bd f102 aabd
000000d0: 9d67 cb3d 2a6a 65bc 09d0 12bf ce02 1ebf
000000e0: 13f9 31be cb09 1e3e 264b c0be 1161 5dbd
000000f0: 9668 653f 1ed0 373e dc69 3bbe c534 0cbe

running_var f4 [64]
0.37950087 0.19609708 0.09412662 0.1575488 0.10108035 0.17061014 0.22972652 0.22860257
0.13222085 0.10928684 0.22785132 0.26090163 0.37515876 0.063800946 0.29022488 0.3908548
0.24829717 0.37077633 0.096052825 0.18119171 0.25290796 0.288486 0.07835107 0.22432716
0.18664151 0.367681 0.3043199 0.13897896 0.12643388 0.15001568 0.1272196 0.2974773
0.1663255 0.21231778 0.22693107 0.27393845 0.23853754 0.21949215 0.130857 0.3439452
0.119809926 0.15679827 0.30966586 0.04909378 0.24973615 0.37688538 0.321174 0.18979943
0.051047843 0.21375363 0.1282341 0.16797818 0.059429564 0.26326227 0.2281749 0.90692705
0.19570956 0.10599158 0.17735665 0.22266021 0.29011548 0.19740146 0.072072305 0.18595652
00000000: f04d c23e accd 483e 75c5 c03d 7954 213e
00000010: 3703 cf3d 6db4 2e3e 6e3d 6b3e cb16 6a3e
00000020: e764 073e c7d1 df3d db51 693e e694 853e
00000030: cf14 c03e 12aa 823d 5b98 943e 1f1e c83e
00000040: 9d41 7e3e 65d6 bd3e 58b7 c43d 528a 393e
00000050: 277d 813e 70b4 933e 8776 a03d 05b6 653e
00000060: f41e 3f3e af40 bc3e d1cf 9b3e 8050 0e3e
00000070: e277 013e b69d 193e db45 023e f24e 983e
00000080: 3b51 2a3e d569 593e 9e60 683e a941 8c3e
00000090: 2f43 743e 8dc2 603e 61ff 053e 9619 b03e
000000a0: e85e f53d ba8f 203e 868c 9e3e 8f16 493d
000000b0: d5ba 7f3e 1ff7 c03e eb70 a43e c85a 423e
000000c0: 8b17 513d 3be2 5a3e cd4f 033e 7902 2c3e
000000d0: 6a6c 733d 50ca 863e aea6 693e 5f2c 683f
000000e0: 1668 483e 1d12 d93d fb9c 353e 0a01 643e
000000f0: 048a 943e 9c23 4a3e a59a 933d 636b 3e3e

weight f4 [32, 64]
0.0170614 -0.014980392 -0.06204962 -0.011867949 -0.029592708 0.024277387 0.100599654 0.0632728
0.023365615 -0.096741326 0.05489911 -0.024308266 0.012726753 0.014301664 -0.049660288 -0.0059800404
0.09465366 0.121133745 -0.065759644 0.044541802 -0.042364866 0.11966606 -0.086393565 0.040435452
-0.07525284 -0.110385776 0.04852816 0.057172853 0.04282367 -0.13913266 -0.053205725 0.027691519
-0.05107269 -0.06768939 -0.05928108 0.11996875 0.04726527 -0.052661005 0.009176025 -0.1038007
-0.014544572 -0.025470758 -0.19602066 -0.03618715 -0.024436885 0.02138744 0.046741072 0.18903168
-0.13552737 -0.060298156 -0.052910533 0.0041770535 0.019523742 0.0029402822 -0.004839889 0.028039394
0.16108286 -0.06005212 0.022213634 0.028391657 -0.002873585 -0.039253708 -0.10775597 -0.008478791
0.06412894 -0.025803756 0.008130792 0.021296542 -0.012189906 -0.08636896 -0.11157767 -0.0663964
0.050319202 0.06108259 -0.023974838 0.11847632 -0.18785618 -0.07864563 -0.07652436 0.010687872
0.14449525 0.14518076 0.05429077 -0.070060596 0.058377694 -0.015438936 -0.0045052245 -0.10159699
-0.015058567 -0.045019858 0.10669539 0.091044046 -0.07026411 -0.036381554 -0.08209708 0.014829982
0.013802406 0.038373444 0.035726927 -0.0020771122 -0.073946044 -0.087621555 -0.06969626 -0.12398681
0.059700575 -0.0049061864 -0.15827107 -0.0306017 0.08032051 -0.064040646 0.0097216135 0.17578109
0.08424567 0.00070305465 -0.10989055 0.0017129118 -0.015841246 0.03741792 0.035837274 -0.06054507
0.21389487 -0.05700949 -0.09222832 -0.0047844555 0.09307122 0.030407187 0.015505838 -0.0942789
-0.060529925 0.01748596 -0.06645532 -0.015704883 0.00951124 0.09486637 0.025104916 0.0041444753
-0.05140321 -0.08635176 0.04488322 0.10327432 -0.09596265 0.0046816696 0.01997185 -0.034240644
0.108664595 0.029569667 -0.10572984 0.009269359 -0.12719716 0.028417276 0.07691844 -0.13392746
-0.018873718 -0.08116843 0.08845683 -0.05136115 0.045616783 -0.0765247 -0.03556288 -0.08180726
-0.016818019 -0.06662563 -0.046280097 0.08361106 0.01742114 0.0003251799 -0.0478274 -0.12866992
-0.10074687 -0.11355278 -0.10880205 -0.09815299 0.114174955 -0.056666948 -0.16734514 0.041797258
-0.08516664 -0.047170654 -0.060738243 0.07446432 0.00993948 -0.15950227 0.002541139 0.00019361178
0.06548332 0.012920568 -0.0061408 -0.04744551 -0.07849197 -0.044072226 -0.09078392 -0.03308707
0.115451 -0.03815122 -0.027734244 -0.07144892 0.049686372 -0.045242827 -0.13096772 -0.0222064
-0.031163458 -0.013724942 -0.046368856 -0.09152292 -0.001874935 0.013502643 0.08807774 -0.021849858
-0.050019927 -0.063401476 0.07846188 -0.08506116 0.058800012 -0.11042899 -0.064174235 -0.08106151
-0.104952395 -0.08710204 0.0062018046 0.09899467 0.0022365376 -0.0070310785 -0.043616537 0.084960185
-0.025856843 0.11431325 0.01977632 -0.04495613 -0.005416675 0.038657736 0.0031151688 0.07588848
0.110817626 -0.042324692 -0.08060931 0.058184505 0.023864951 -0.1760064 0.07885667 -0.020221088
0.044383734 -0.045759216 0.027797932 0.13059305 -0.07548923 0.09744569 0.0723188 -0.0064773243
-0.10010899 -0.05028583 0.08813444 -0.11907078 -0.13143061 0.015463456 0.048078846 -0.084761366
00000000: 59c4 8b3c 5170 75bc be27 7ebd c971 42bc
00000010: 686c f2bc 5fe1 c63c 3107 ce3d 2b95 813d
00000020: 3f69 bf3c 5120 c6bd e4dd 603d 2122 c7bc
00000030: df83 503c 8751 6a3c 9668 4bbd 37f4 c3bb
00000040: c7d9 c13d f814 f83d feac 86bd 7771 363d
00000050: c886 2dbd 7b13 f53d 1cef b0bd a59f 253d
00000060: 291e 9abd f011 e2bd 77c5 463d 152e 6a3d
00000070: df67 2f3d cb78 0ebe 3fee 59bd 53d9 e23c
00000080: 9931 51bd bca0 8abd b8d0 72bd 2db2 f53d
00000090: 3a99 413d 11b3 57bd 0a57 163c 7695 d4bd
000000a0: 5b4c 6ebc 0da8 d0bc a4b9 48be fa38 14bd
000000b0: dd2f c8bc b634 af3c 9173 3f3d 8591 413e
000000c0: b0c7 0abe 33fb 76bd b7b8 58bd aadf 883b
000000d0: 41f0 9f3c c0b1 403b ee97 9ebb dfb2 e53c
000000e0: e8f2 243e 36f9 75bd 5ef9 b53c 9f95 e83c
000000f0: c252 3cbb 7fc8 20bd 29af dcbd a1ea 0abc
00000100: 0956 833d 6662 d3bc 0337 053c 1676 ae3c
00000110: 2cb8 47bc 36e2 b0bd d582 e4bd d6fa 87bd
00000120: 821b 4e3d bd31 7a3d e166 c4bc b6a3 f23d
00000130: 5f5d 40be f610 a1bd ceb8 9cbd 2f1c 2f3c
00000140: 90f6 133e 44aa 143e 0060 5e3d ee7b 8fbd
00000150: 731d 6f3d 97f3 7cbc 90a0 93bb 1512 d0bd
00000160: 35b8 76bc be66 38bd 1d83 da3d 4d75 ba3d
00000170: a1e6 8fbd d304 15bd 8422 a8bd 74f9 723c
00000180: 7d23 623c 792d 1d3d 6656 123d 2920 08bb
00000190: 0671 97bd ee72 b3bd eabc 8ebd ccec fdbd
000001a0: 9788 743d 13c4 a0bb d011 22be 6bb0 fabc
000001b0: 147f a43d be27 83bd 6747 1f3c f5ff 333e
000001c0: fe88 ac3d 334d 383a 4c0e e1bd c883 e03a
000001d0: 80c5 81bc 8843 193d 1bca 123d 1bfe 77bd
000001e0: 4207 5b3e c882 69bd 34e2 bcbd ecc6 9cbb
000001f0: 209c be3d 7e18 f93c 330c 7e3c 4c15 c1bd
00000200: 3aee 77bd b73e 8f3c ba19 88bd 87a7 80bc
00000210: 08d5 1b3c 4d49 c23d d3a8 cd3c 61ce 873b
00000220: 2c8c 52bd 31d9 b0bd 78d7 373d 7d81 d33d
00000230: 1188 c4bd b168 993b 019c a33c eb3f 0cbd
00000240: 8b8b de3d 163c f23c e388 d8bd 82de 173c
00000250: f93f 02be 59cb e83c 6a87 9d3d 4824 09be
00000260: 0e9d 9abc a23b a6bd db28 b53d 1260 52bd
00000270: aad8 3a3d fbb8 9cbd 62aa 11bd 918a a7bd
00000280: f1c5 89bc 0573 88bd 3390 3dbd 473c ab3d
00000290: c7b6 8e3c e87c aa39 aae6 43bd 0cc2 03be
000002a0: 6054 cebd 5c8e e8bd 9cd3 debd 6f04 c9bd
000002b0: 8fd4 e93d 9a1b 68bd 865c 2bbe 9a33 2b3d
000002c0: d96b aebd 0436 41bd aac8 78bd c080 983d
000002d0: 33d9 223c 9054 23be 3d89 263b 4404 4b39
000002e0: 1e1c 863d cab0 533c c438 c9bb 3956 42bd
000002f0: 66c0 a0bd 1485 34bd ebec b9bd 4f86 07bd
00000300: 9371 ec3d 7444 1cbd ed32 e3bc d053 92bd
00000310: f083 4b3d 8b50 39bd 671c 06be 32ea b5bc
00000320: 824a ffbc 94de 60bc 45ed 3dbd 5e70 bbbd
00000330: 61c0 f5ba 313a 5d3c 1a62 b43d 79fe b2bc
00000340: b2e1 4cbd a2d8 81bd 9fb0 a03d 8c34 aebd
00000350: 48d8 703d 9828 e2bd c86d 83bd 9403 a6bd
00000360: 48f1 d6bd 8e62 b2bd 8238 cb3b b8bd ca3d
00000370: e092 123b f664 e6bb 41a7 32bd 9bff ad3d
00000380: bbd1 d3bc 111d ea3d f301 a23c eb23 38bd
00000390: 5d7e b1bb 9357 1e3d dc27 4c3b 6b6b 9b3d
000003a0: 5af4 e23d a85c 2dbd 7e16 a5bd e052 6e3d
000003b0: 6e80 c33c 063b 34be 9b7f a13d b2a6 a5bc
000003c0: b8cb 353d 046e 3bbd 7db8 e33c 2fba 053e
000003d0: 199a 9abd 9b91 c73d e11b 943d bc3f d4bb
000003e0: f105 cdbd 84f8 4dbd d47f b43d 62db f3bd
000003f0: bf95 06be 6f5a 7d3c 53ee 443d 5e97 adbd

bias f4 [32]
-0.13106386 0.09803699 0.010690387 -0.06267597 0.036693715 -0.078572996 0.11261968 0.05972299
-0.08695924 -0.062805116 0.043392174 0.101210706 0.084631465 -0.016843488 0.04981057 -0.02052597
-0.029277464 0.05310421 -0.119410604 0.049338747 -0.08050671 -0.07884114 0.023206053 -0.040381446
0.017609585 0.10849875 0.07639218 0.09629735 0.020340033 -0.10287145 0.05156263 -0.063309774
00000000: 9b35 06be 9ec7 c83d bc26 2f3c 425c 80bd
00000010: 264c 163d e1ea a0bd 26a5 e63d 18a0 743d
00000020: b017 b2bd f89f 80bd febb 313d 8f47 cf3d
00000030: 4353 ad3d 5bfb 89bc 2b06 4c3d 1426 a8bc
00000040: 4bd7 efbc cd83 593d 8c8d f4bd 6d17 4a3d
00000050: b4e0 a4bd 7777 a1bd 9f1a be3c 0467 25bd
00000060: fa41 903c 9834 de3d 8173 9c3d 8c37 c53d
00000070: 24a0 a63c 44ae d2bd 5633 533d 8ea8 81bd

weight f4 [32]
1.1947542 1.0893366 1.1797287 1.0469646 1.1295905 1.1792085 1.070284 1.1538146
1.150423 1.1205776 1.1972039 1.1506438 0.9933935 1.1826365 1.0613729 1.0655899
1.13299 1.0290024 1.1428794 1.0888748 1.0855424 1.0200229 1.0372738 1.0854666
1.040888 1.0438613 1.10615 1.1378064 1.0768828 1.2216789 1.0773689 1.1486894
00000000: b5ed 983f 626f 8b3f 5a01 973f f002 863f
00000010: 6c96 903f 4ef0 963f 11ff 883f 32b0 933f
00000020: 1041 933f 166f 8f3f fa3d 993f 4c48 933f
00000030: 094f 7e3f a260 973f 11db 873f 4065 883f
00000040: d105 913f 5ab6 833f df49 923f 4060 8b3f
00000050: 0ef3 8a3f 1c90 823f 63c5 843f 92f0 8a3f
00000060: d13b 853f 3f9d 853f 5396 8d3f a4a3 913f
00000070: 4cd7 893f f95f 9c3f 39e7 893f 4108 933f

bias f4 [32]
0.09467645 0.07404953 0.02672666 0.03812009 0.1562774 0.0647368 -0.009818912 0.1693672
0.15813428 0.1372831 0.22300729 0.15139233 0.033089947 0.058116373 0.06547853 -0.03295873
0.11513566 0.0054771863 0.16659494 0.13353814 0.0153630385 -0.0155726 0.01925958 -0.018654691
0.083588324 -2.028854e-06 0.075549155 0.19397025 0.09533266 0.085288286 0.038742878 0.13177602
00000000: bae5 c13d 48a7 973d def1 da3c d023 1c3d
00000010: 2f07 203e ba94 843d 80df 20bc 986e 2d3e
00000020: f4ed 213e f193 0c3e 065c 643e 9706 1b3e
00000030: 5389 073d 6f0b 6e3d 9c19 863d bcff 06bd
00000040: 3fcc eb3d f879 b33b dd97 2a3e 39be 083e
00000050: 41b5 7b3c 3824 7fbc 44c6 9d3c b9d1 98bc
00000060: 5b30 ab3d 7227 08b6 84b9 9a3d 23a0 463e
00000070: c53d c33d a0ab ae3d dab0 1e3d 4bf0 063e

running_mean f4 [32]
-0.26072365 -0.051328212 -0.6309001 -0.30320734 -0.45406127 0.36275458 -0.029395303 0.15790656
-0.20034535 -0.28174198 -0.12226766 -0.13452145 0.09952162 -0.065804 -0.34274557 -0.09833768
-0.27132502 0.26963377 -0.41662386 -0.7108639 -0.22249705 -0.13573635 0.12507536 -0.17580523
0.018303612 -0.012289987 -0.27584764 -0.38442627 -0.1169855 -0.8605534 0.060184147 -0.55486274
00000000: 927d 85be 883d 52bd ab82 21bf fe3d 9bbe
00000010: b87a e8be f8ba b93e 6bce f0bc 42b2 213e
00000020: 5527 4dbe 7c40 90be 7867 fabd febf 09be
00000030: fed1 cb3d 3fc4 86bd 597c afbe 4465 c9bd
00000040: 1deb 8abe 700d 8a3e b94f d5be 2dfb 35bf
00000050: 44d6 63be 78fe 0abe c113 003e 4906 34be
00000060: 75f1 953c f15b 49bc e73b 8dbe 85d3 c4be
00000070: 1896 efbd 3a4d 5cbf a783 763d 7c0b 0ebf

running_var f4 [32]
0.42045596 0.31996694 0.4305831 0.13470519 0.3994815 0.15667392 0.2073892 0.39213568
0.36514768 0.15876971 0.7331509 0.20141459 0.22178282 0.14730693 0.31626892 0.23253995
0.4893272 0.32710922 0.5348355 0.46431583 0.31670547 0.15035143 0.3577174 0.27262905
0.21966963 0.3971973 0.11244697 0.5249956 0.4880591 0.32981712 0.16957282 0.37614045
00000000: 0146 d73e b5d2 a33e 6375 dc3e 28f0 093e
00000010: d788 cc3e 216f 203e d65d 543e 02c6 c83e
00000020: a3f4 ba3e 8794 223e c7af 3b3f a03f 4e3e
00000030: 091b 633e a1d7 163e 00ee a13e f41e 6e3e
00000040: 1889 fa3e dc7a a73e fbea 083f ceba ed3e
00000050: 3827 a23e baf5 193e bc26 b73e 0996 8b3e
00000060: 13f1 603e 725d cb3e 994a e63d 1d66 063f
00000070: e2e2 f93e cadd a83e 7fa4 2d3e 7b95 c03e

weight f4 [3, 32]
0.092839345 0.13742872 0.1757198 -0.14839867 -0.053108655 -0.28363898 0.11459352 -0.17814642
-0.14661722 -0.29309082 -0.20238464 -0.22041611 -0.08470213 -0.22533533 0.1515954 0.1707267
-0.18239044 0.0358699 -0.28418165 0.11080173 0.14515683 -0.04824415 0.17292568 -0.26982477
-0.14973365 0.1249555 -0.2900388 0.05123662 0.12165825 0.2535422 -0.23208036 -0.16239834
0.12311556 0.0676003 -0.028953088 -0.11630118 0.288071 0.06863095 -0.13984485 0.30222398
0.09307603 0.083335325 0.05295754 0.14428438 -0.14757401 0.03662217 -0.21274038 -0.18008462
0.22713012 -0.17605808 0.28882974 0.23845804 -0.111666985 -0.16633075 -0.1331105 -0.0411843
-0.10818398 -0.12955211 -0.050109804 0.29000235 0.17430241 0.1305968 -0.026126329 0.19229244
-0.3054494 -0.16194372 -0.31717092 0.098218426 -0.20436229 0.12788849 -0.22376946 -0.054315962
-0.32561764 0.091542974 -0.20253412 -0.0034942979 0.07737766 0.106013194 0.1657478 -0.12480273
-0.27047276 0.07235047 -0.24185023 -0.21313642 0.039862376 0.021367708 0.040817235 0.2176216
0.12782025 -0.09423504 0.03751908 -0.09148736 -0.124439776 -0.26317492 0.14896962 -0.23979588
00000000: 8e22 be3d 1dba 0c3e e4ef 333e d2f5 17be
00000010: 7688 59bd 2139 91be 02b0 ea3d 046c 36be
00000020: d322 16be 0010 96be eb3d 4fbe c3b4 61be
00000030: 4f78 adbd 4ebe 66be d33b 1b3e fbd2 2e3e
00000040: 8fc4 3abe 51ec 123d 4280 91be 04ec e23d
00000050: fea3 143e a89b 45bd 6e13 313e 7926 8abe
00000060: c753 19be abe8 ff3d f77f 94be 7ddd 513d
00000070: f627 f93d 49d0 813e 79a6 6dbe c04b 26be
00000080: 0324 fc3d 0772 8a3d 072f edbc 502f eebd
00000090: 0b7e 933e 628e 8c3d 7d33 0fbe 1abd 9a3e
000000a0: a59e be3d b6ab aa3d 01ea 583d 49bf 133e
000000b0: a41d 17be 2101 163d 9dd8 59be 1a68 38be
000000c0: cc94 683e 9248 34be 7ee1 933e 582e 743e
000000d0: a9b1 e4bd 9c52 2abe 1e4e 08be deb0 28bd
000000e0: 908f ddbd 4fa9 04be f03f 4dbd 307b 943e
000000f0: 557c 323e 2bbb 053e e206 d6bc 4fe8 443e
00000100: dd63 9cbe 93d4 25be 3a64 a2be be26 c93d
00000110: 5944 51be 33f5 023e d223 65be 6a7a 5ebd
00000120: 5bb7 a6be e27a bb3d 1b65 4fbe 9700 65bb
00000130: 2e78 9e3d 721d d93d cbb9 293e 9398 ffbd
00000140: 687b 8abe 7c2c 943d 96a7 77be 6f40 5abe
00000150: bb46 233d 550b af3c f92f 273d 32d8 5e3e
00000160: 50e3 023e 4dfe c0bd 9bad 193d ba5d bbbd
00000170: 48da febd ddbe 86be 7e8b 183e 0d8d 75be

bias f4 [3]
0.06334785 0.20661628 0.11090695
00000000: 85bc 813d 3893 533e 2f23 e33d
